COMP 219 Advanced Artificial Intelligence /Resilience-to-Adversarial-Attack-main/1020.pt (torch, 446769 bytes, 8 tensors)

fc1.weight f4 [128, 784]
00000000: 34ea f63b f2c5 9dbc 5f2a dabb 993e f73c
00000010: 1ade 5cbc 7502 723c bd5c 253b 407a 703c
00000020: a1a7 0b3c 2d55 18bc 8659 483c 0343 1ebc
00000030: 6209 ee3a 3936 0bbd ba9d 1dbd e819 95bc
00000040: 8188 7b3b 5c0c cfbb b797 913c c273 033c
00000050: e2ed 4539 76f9 1cbc 21ef 0cbc e8c0 33bc
00000060: 3ac2 14bc 7cf6 b43b c323 503c 8e15 fb3b
00000070: 44d5 c939 b0e3 a93c 6088 023c 906d a23c
00000080: 0a3c 133c 0f47 bdbc 62b0 d0bc de92 f8bb
00000090: 4cd3 b73c 9c42 98bd 41d0 243d 8c0e c13c
000000a0: 71b1 f4ba 6409 b4bd de01 37bd c076 48bd
000000b0: a897 61bc 1177 843d 3d59 4cbd 3665 2ebd
000000c0: e83a 84ba d1d5 093c ed64 8fbc 331a e43a
000000d0: 855d b33c ffce 8abc 6e0f 9b3c 1d37 923c
000000e0: 2173 49bc b040 9ebc 9190 e23c ddc6 1d3c
000000f0: b46d 81bb 755a 983c 308a a03c bd45 4ebd
00000100: ab5f 11bc 5885 fd3b d065 8b3c 00a2 3c3c
00000110: 9b94 7f3b eccf 0ebd a87c 4abc cccb 933a
00000120: e225 863c 75a2 00bb 7877 08bb 5565 843c
00000130: 3c51 75bd 936a 34bc b4a0 edbb a6e9 973c
00000140: 5bc7 9bbc e437 09bd 7ffc 793b dd71 963c
00000150: 4e98 1f3c 6bbb 9abc 31e0 01bd e762 bc3b
00000160: 13a3 7f3b 38b8 e73c 80ba 55bc 09ae 14bd
00000170: 2473 f93c 0149 733c 189a cebb 4366 20bc
00000180: 282c 563c 4745 b4bb 2c3f c2bc a411 3ebc
00000190: 3223 013d dae5 0b3c 01bd 023d 7d3d d93b
000001a0: 4f8d 65bc 566d 85bd 3edd 7b3d 672e 983c
000001b0: e637 5f3c f813 cb3a 4225 76b9 b1b8 9f3c
000001c0: 76f1 ee3c 9cec 30bc ef6b 3cba aab7 a63c
000001d0: 003d f33c 0c2c 823d 500f bbbc 1801 6dbc
000001e0: cadd 223c 7e80 693c 3ca3 df3c d413 40bc
000001f0: 0d61 d03c f2e2 09bc ff3e 423c eedb 6ebc
00000200: 70e7 313c 5f9b d83c 9373 8dbc c2a3 653c
00000210: bca2 e53c 1d06 453b 847d 8a3d d184 383d
00000220: b959 503c 6b4e de3b 46cd f0ba a753 b0bc
00000230: a7dd 47bc 05cd 38bb 3066 653b 645f 8f3b
00000240: ccdd 943c 38ba 5a3d fa02 0d3c 1984 a53c
00000250: d404 fe3c 4aee ff3c 10e8 d6bb 3873 0d3d
00000260: 2ce0 cf3c f79e 873c af7a 483c 16f5 cbbc
00000270: cf61 96bc 8804 5f3a e556 ba3c dcc1 02bc
00000280: 24e4 7dbc 19cc bf3b 7525 3e3d 8d07 903d
00000290: 2f2f 25bc 3cd6 9f3c 588b 34bc 082d 4abc
000002a0: 866a 82bc b30b 3ebc 60f0 49bc 83ec 963c
000002b0: 993a e03c e5cf ca3d 0a09 403d 1a5e 413d
000002c0: 2ec3 253d c3bd 1e3c 8453 55bc 9eaa 783c
000002d0: 4d7b 31bc 3ad4 0e3d d394 253c 0aa6 c93c
000002e0: 5ec1 86bc fd2e c53c 895f 3abc 4d9f 23ba
000002f0: baa1 0b3c 2f98 12bb 6a70 453d 0011 1b3d
00000300: ab24 95ba 0aa6 d5ba 9c3b 1f3c 0c59 91bc
00000310: da70 963c efb5 ad3c afbf cf3c ca99 80b9
00000320: f8f7 2e3d ce49 483d 1184 0d3d f274 663c
00000330: aca7 3d3d 9954 e23b fc27 143c 4e68 923b
00000340: b939 a93a 1a4d ef3c fb11 fc3c 8766 ba3c
00000350: 6561 d6bc f838 c03c b04f 0a3d 80f1 0a3d
00000360: 3aeb 043d 5202 97bc 8938 af3c a1aa a23d
00000370: b33c 3fbc 1eda e73a 5397 11bd a8a2 c5bc
00000380: 56ce 4d3b 8428 c2bb e641 2abb 03ff aa3c
00000390: 6f66 373d ed4a aa3d d9eb 053c 5008 493c
000003a0: c06c 653d 9a52 333c b480 583b 6692 b63c
000003b0: 2804 5ebc 61ca fe3c 88ca 153d cc59 7c3c
000003c0: a545 dcbc 42aa a33b 207d 173c 1185 313c
000003d0: bbb3 7f39 c448 bb3b ae0a d0bc 2fd5 853c
000003e0: 07b8 86bb dea0 6a3c e319 8d3c e00f 50bc
000003f0: e275 6a39 485f 2d3c 61f5 4b3c 6a6e 3d3b
0.0075352434 -0.019259427 -0.006657883 0.030181216 -0.0134806875 0.014771094 0.0025232278 0.014677584
0.008523853 -0.009297651 0.012228375 -0.0096595315 0.0018160755 -0.033987258 -0.038480498 -0.01820083
0.0038380923 -0.006318612 0.017772539 0.008023204 0.00018876002 -0.0095809605 -0.008601935 -0.010971285
-0.00907951 0.0055225473 0.012703839 0.0076624816 0.00038496603 0.020738453 0.007967085 0.019827634
0.008986482 -0.023105172 -0.02547473 -0.0075858673 0.022439621 -0.0743458 0.04023767 0.023566507
-0.0018668604 -0.087908536 -0.044679515 -0.048941374 -0.013769068 0.064680226 -0.04988979 -0.04257699
-0.0010088356 0.008412794 -0.01750418 0.0017402828 0.02189518 -0.016944407 0.018928256 0.017848546
-0.012295515 -0.019317955 0.027656825 0.009629932 -0.003949845 0.01859782 0.019597143 -0.050359476
-0.008872907 0.007736843 0.017016321 0.011513233 0.0038998488 -0.03486626 -0.012358822 0.0011275946
0.016375486 -0.0019628082 -0.0020823162 0.0161616 -0.059891924 -0.011011737 -0.0072518233 0.01854403
-0.019015959 -0.033500567 0.0038144884 0.018364841 0.009740902 -0.018888196 -0.031707946 0.0057490948
0.0039007112 0.028286085 -0.013044953 -0.036298785 0.030450411 0.014848948 -0.0063049905 -0.009790006
0.013072051 -0.0055014226 -0.023711763 -0.011600886 0.031527705 0.008538688 0.03191853 0.0066296444
-0.014010741 -0.06514995 0.06149029 0.018576814 0.013624167 0.0015493622 -0.00023474268 0.019497247
0.029167872 -0.0107986 -0.0007187714 0.02035125 0.029692173 0.063560575 -0.02283445 -0.014465593
0.009940574 0.014251826 0.027299516 -0.011723477 0.025436902 -0.008415924 0.01185584 -0.0145788025
0.010858402 0.026441274 -0.017267024 0.014016094 0.0280317 0.0030063458 0.067622215 0.04504854
0.012716704 0.0067842505 -0.0018371723 -0.021524264 -0.012198842 -0.0028198373 0.0035003535 0.004375385
0.018172167 0.05340025 0.008606667 0.02020459 0.031008162 0.031241555 -0.0065584257 0.03453371
0.025375448 0.016555293 0.012236281 -0.02489714 -0.018357186 0.000850745 0.022746513 -0.00798079
-0.0154962875 0.0058531878 0.04642244 0.0703269 -0.01008205 0.019511335 -0.01101955 -0.012339838
-0.015919935 -0.011599469 -0.012325376 0.018423324 0.027371692 0.09902934 0.04688362 0.047208883
0.04046934 0.009688797 -0.0130204 0.015177397 -0.01083262 0.034870364 0.010106283 0.024615306
-0.016449627 0.024070257 -0.011375316 -0.0006241694 0.008522445 -0.002236854 0.04820291 0.03785801
-0.0011378726 -0.0016300094 0.009718802 -0.017742656 0.018364359 0.021204917 0.025359957 -0.00024528644
0.04271695 0.04889851 0.034549776 0.014065968 0.046302482 0.0069070575 0.009042736 0.0044680005
0.001291088 0.02921157 0.030770293 0.022753967 -0.026169488 0.023464665 0.033767402 0.03392172
0.032450892 -0.018433724 0.021389263 0.07942701 -0.011672187 0.0017688905 -0.035544705 -0.024125412
0.0031403503 -0.00592524 -0.002597922 0.020873552 0.044775423 0.08315072 0.008173906 0.012270048
0.056011915 0.010944987 0.0033035697 0.022286605 -0.013550796 0.031102361 0.036570102 0.015402269
-0.026888678 0.0049946615 0.009246141 0.010834948 0.0002438565 0.0057154614 -0.025395717 0.016337005
-0.0041112932 0.01432058 0.017224258 -0.012699097 0.00022359894 0.010581799 0.01244864 0.0028904923

fc1.bias f4 [128]
00000000: de50 43bd 0d73 1dbc bd23 833a 77c4 ecbb
00000010: 2e55 8dbc 7793 4e3e 2c77 8e3d ea43 f6bb
00000020: fcf6 623c fab5 473e 5946 bbba 48ee 1abd
00000030: c808 013e ea16 6ebd 12d7 d53d c1e8 2f3e
00000040: e2d3 cc3d 0e89 8fbd f0d1 333d 41f2 5abd
00000050: 3094 2e3e 55c4 dfbd a499 c5bc ccfc b53c
00000060: 03e3 d23c 7352 393b 4259 b83c 9e59 0cbc
00000070: 49b5 75bb f4e3 80bc b1a5 3f3d cc06 b4bc
00000080: 2cd4 a63d c76d 95bb 36b7 a3bc 6065 193d
00000090: 38d0 93ba ab2f cfbc a796 2a3e 4e4e 703d
000000a0: e936 af3d 9c40 ddbc 3d9b 713c 15c2 c93c
000000b0: 1409 053e 61b1 4e3c ef5a e9bd 27d9 ae3d
000000c0: a83b babb e6c6 2b3c 7d5a c73c 5903 113d
000000d0: 9f11 2cbd 401e d03a 8f3c 2c3d a378 523d
000000e0: c674 d53b 13f9 86bc e616 a0bd 55f3 bcbd
000000f0: 8df0 b23d cf11 393d d5ea a43b 4f08 8b3c
00000100: 5bad 7b3b d3f2 8d3d 657d c7bc 44e8 cd3d
00000110: 5bcd 333d 7f63 fabd cf1c bf3d 19a9 843d
00000120: ecb2 15bd 0548 1fbc 8c4a 5f3c 8dc5 fcbd
00000130: e73a d03d 685e 6bbd a2e2 87bc 72df 953d
00000140: ced2 d83d 6b27 24bd e4b6 3c3c b676 42bd
00000150: 2d20 1cbd 8bee a63d e20a 233d bf1c e83d
00000160: 788b 97bc 7b5b 1d3e 1ea3 c2bc 6d18 a43e
00000170: 279a bc3d a53f 823d 126e 22bd 8f56 833a
00000180: 1757 ad3a 4884 7b3e 1b90 9d3d 00e8 833e
00000190: 0103 9d3d 829d 25bd 0336 2abd f47d 2ebc
000001a0: 0862 953c a894 f23d 9261 b33d a7e3 5b3d
000001b0: 9b7c c1bc 0755 49bb 34d1 e7bc 0637 bb3d
000001c0: 1733 6bbc f5f1 cf3c 312d e2bc 2687 b6bd
000001d0: db50 1b3d 03e4 a7bd f5fb 9a3d 7ba9 6a3e
000001e0: fd71 b23c 74a4 a13b 3eca a83d 97fa 2ebe
000001f0: 987a 97bc 359b 88bd 0b6c 063e cdeb 98bc
-0.047684543 -0.00960995 0.0010005158 -0.007225569 -0.01725253 0.20173441 0.06956324 -0.00751542
0.013852831 0.19503012 -0.0014287933 -0.0378249 0.12601006 -0.05812732 0.10441412 0.17178632
0.10001351 -0.07008563 0.043901384 -0.053453688 0.17048717 -0.10926119 -0.024121113 0.02221527
0.025743013 0.0028277903 0.022503499 -0.008566288 -0.0037492088 -0.015733697 0.046788875 -0.021975897
0.08145937 -0.0045602056 -0.019984823 0.037450194 -0.0011277264 -0.025291285 0.16659032 0.058668427
0.08555395 -0.027008347 0.014746484 0.024628678 0.12991744 0.012615533 -0.11394297 0.08537512
-0.005683381 0.010484433 0.02433514 0.035403583 -0.042008992 0.0015878156 0.04204994 0.05138458
0.0065141646 -0.01647619 -0.078168675 -0.092260994 0.08737288 0.045183 0.005032877 0.016971735
0.0038402888 0.06931081 -0.024351785 0.10054067 0.043897014 -0.122260086 0.09331667 0.06477565
-0.036547586 -0.009721761 0.013628613 -0.12342367 0.10167485 -0.05746308 -0.01658756 0.073180094
0.10587083 -0.040076654 0.011518214 -0.047476493 -0.038116623 0.08150967 0.0398053 0.11333608
-0.018499121 0.15366928 -0.023759421 0.32049885 0.0920909 0.063597955 -0.039655752 0.0010020303
0.0013224807 0.2456218 0.076935016 0.2576294 0.076665886 -0.040433414 -0.041555416 -0.010650147
0.018235222 0.1184476 0.087588444 0.053683903 -0.023618987 -0.0030720846 -0.028297998 0.09141354
-0.0143554425 0.025383929 -0.02760944 -0.08912496 0.037918907 -0.08197787 0.07567588 0.22916214
0.02178287 0.0049329344 0.082417 -0.1708778 -0.018491074 -0.066702284 0.13127153 -0.018667126

fc2.weight f4 [64, 128]
00000000: 859f 8d3d 948f 5e3d a98d bfbc f64e 123c
00000010: 24d2 89bd 3933 fabb a378 acbd 702e a93d
00000020: e718 a2bd f297 0fbe c8c6 683d 0647 5ebd
00000030: 93bc cbbd 25b1 d73d 07c9 04bd bf51 fc3d
00000040: 5860 803d dce5 593d e371 70bd cae5 323e
00000050: 23f1 88bb a1a7 bc3c 1a9f c3bc 75bf 303d
00000060: 9ba7 883d b5cf 0ebd 63e8 01be d5b8 9b3d
00000070: dc1f bebc 7e26 96bd f808 e93d 1212 c93b
00000080: 4cb1 f8bd 4c0f 003e a66e 4b3d 81eb 45bc
00000090: 9eb3 6d3d a22d 86bd e87b c03d 9c46 cd3d
000000a0: 673b 1abd 234c d13d 4197 d9bc 7824 27bb
000000b0: 4166 343c 8284 65bd b74e d3bd 3e2e 6f3d
000000c0: b7b3 73bd 5cee 3a3c d70f 1abd c239 8cbd
000000d0: 238e 9cbc 2776 8cbd 4be7 a0bd bcaf 823d
000000e0: 329f 033e b9a6 56bd 9ea4 ac3d a219 423d
000000f0: 3aed 493e 9cb6 8c3d f464 2d3d 21c5 78bc
00000100: b75c 8ebd b55c c83d f8f0 863c c97e d8bd
00000110: ed93 e8bb cacc 9a3d 2725 e83d 50bd 143d
00000120: df4c 9d3c 749c 35bd ade7 23bd b5e7 0fbd
00000130: 5821 a03c d6be 883d 8c1b b13d aed8 a6bd
00000140: 6058 523d eeb0 ff3c 2d5e 7e3c 055c 8a3c
00000150: 32de 65bc 9b71 88bb 2b7a 49bc 460c 6dbd
00000160: 0fa7 b03d e2c5 693d c49b 673d 4c52 123e
00000170: e9d0 d0bd 2dad bebc 4482 ab3d f683 97bd
00000180: 50fa 0e3d 22b0 f23c e8e7 0cbd 35fb 1a3d
00000190: c6a2 223d 8b62 87bd d5d3 b33c 3bd4 8e3d
000001a0: 9ae7 2bbd c9bc 8fbd 3d6a 863c 43f3 b13d
000001b0: ff84 daba 374f a53d bb56 ef3a 8ee2 023d
000001c0: 8701 3fbc fd11 99bd 67a5 2e3c 2d27 1e3e
000001d0: 682d da3d 57d5 763d e333 9cbd cb4e 4d3d
000001e0: bd71 3f3c d8d7 a73d 43ef 99bd 5941 6f3e
000001f0: 9131 3e3d d679 fd3d afe1 213c 20cb abbd
00000200: adf3 8b3d 84ee 4fbd 74d4 763d 0821 04bd
00000210: 0db9 ddbc 35d3 81bd 2d92 533e 494b c1bb
00000220: 20a2 313c a066 8fbd 4d8f 33bd e057 833d
00000230: 5a35 813c 7eea 0d3d 9c12 363e f014 813c
00000240: f9b0 1bbe 3635 d53d 3aec 38bc 0817 3cbc
00000250: a4bd 393e b722 09bd 8ce0 1b3d d04a bf3b
00000260: efe5 9ebd c453 fdbb 2fbc b33d d0ac 26bd
00000270: b00b 08be 0ce0 203a e8bc 13be 29ee 033e
00000280: 9d3b cbbd 0462 d2bd 3bd8 783c cab7 0abe
00000290: cd5a 96ba be60 33bd 0d07 adbd c8d4 723d
000002a0: e855 763e c7dc f43c 66d8 15bd b363 24be
000002b0: eacc 17be f894 8c3d d814 9abc ba90 bcbd
000002c0: 6fcd 6c3d 81d8 39be dbbc 28be 22c3 fd3c
000002d0: 785e d03c 6c95 333d 8b9e 14bb 62c7 aa3b
000002e0: ffdb eebc 2706 093d d2ac 013e ae18 0dbe
000002f0: f4bc 87bd bed3 e4bd fec8 633c 8c2c dcbd
00000300: 7af7 3cbd cf4b b03d 8de9 9b3c 5960 05bd
00000310: 403c 1fbe 4fca 1abe 841b b73d a15e f3bc
00000320: 1eee f93d 1f31 a13d 3e0e c5bb 9b72 1f3e
00000330: 4b4f 0bbd b964 db3d 934c 913d 8bfe 9fbd
00000340: 1086 de3d ce9a 25bd 8fdb 0dbd d36d 3bbe
00000350: f745 80bd b663 143d 1e02 233e 20e4 97bd
00000360: c69a 063c 564c e0bd fe99 26bd 78f1 07be
00000370: 035a 863d 39e8 0fbe afde 8a3c d69b 59bd
00000380: 7c85 88bd 3da3 f03d 9fe0 ca3d 1469 ccbd
00000390: bde3 303c 4334 253c 7e27 e6bd a2dc afbc
000003a0: f900 153d bdbe 793d 319f 4bbd 1304 853c
000003b0: d68b 41bd 02a5 0e3d 0d4c 8d3d 7c17 57bd
000003c0: 8814 bb3c db6c 393d 0465 773d 112b cbbd
000003d0: 7cc3 42bd ad39 013e 868d f83d 9d74 2e3e
000003e0: 2316 f33c cfdb 9d3d 6a89 583d 11b6 8d3e
000003f0: b777 23ba 3055 63bd e229 d93d f82d 5a3d
0.069151916 0.054336146 -0.023382979 0.008929959 -0.06729534 -0.0076355007 -0.08421447 0.082608104
-0.07914906 -0.14022806 0.056830198 -0.054266952 -0.09948077 0.105318345 -0.032418277 0.12320279
0.06268376 0.053197727 -0.05870236 0.1747047 -0.0041791364 0.02302915 -0.023879576 0.043151338
0.06672593 -0.034866054 -0.12686305 0.07603613 -0.023208551 -0.073315606 0.11378664 0.0061361874
-0.12143192 0.12505835 0.04966607 -0.012080074 0.058032624 -0.065516725 0.09398633 0.10023233
-0.037654307 0.102196 -0.026561381 -0.0025503915 0.011010707 -0.056034572 -0.10317748 0.05839371
-0.05949756 0.011409368 -0.037612762 -0.06846954 -0.019110745 -0.06858473 -0.07856616 0.06381175
0.12853697 -0.052405093 0.08429836 0.047387727 0.19719401 0.068707675 0.042332605 -0.015183718
-0.06951278 0.097833075 0.016472325 -0.10571057 -0.0070977123 0.07558592 0.11335211 0.036313355
0.019201694 -0.04433866 -0.040015865 -0.035133082 0.01954715 0.06677024 0.08647832 -0.08146797
0.051353812 0.031212296 0.015525383 0.016889581 -0.014030026 -0.0041639335 -0.0122971935 -0.057873033
0.08625614 0.05707348 0.056545034 0.14289206 -0.101960965 -0.023275936 0.083744556 -0.073982164
0.034906685 0.029625002 -0.03440085 0.037837226 0.039706014 -0.066105925 0.021951595 0.069740735
-0.04196892 -0.0701843 0.01640808 0.086889766 -0.0016671716 0.0807175 0.0018260101 0.03195434
-0.011658079 -0.07474134 0.010659552 0.15444632 0.10653192 0.06026205 -0.07627084 0.05012397
0.011684832 0.08195466 -0.07516339 0.23364772 0.04643399 0.12376754 0.009880467 -0.083883524
0.06833587 -0.050764576 0.060261205 -0.032258064 -0.027065778 -0.06339113 0.2066123 -0.0058988673
0.010841876 -0.07001996 -0.043837834 0.06413245 0.01577251 0.034647457 0.17780536 0.015757054
-0.15204228 0.1041054 -0.01128679 -0.0114801 0.18138748 -0.033480372 0.03805594 0.0058377758
-0.077587 -0.007730933 0.087761275 -0.04069215 -0.13285708 0.0006136901 -0.14427531 0.1288382
-0.0992348 -0.10272601 0.015188272 -0.13546672 -0.0011471153 -0.043793432 -0.084486105 0.059284955
0.24056208 0.029890431 -0.036583327 -0.16053657 -0.14824262 0.06864351 -0.018808767 -0.09207292
0.057813104 -0.18148996 -0.16478293 0.030976836 0.025435671 0.04384367 -0.0022677507 0.0052117566
-0.029157637 0.033453133 0.12663582 -0.13778946 -0.06627837 -0.11173199 0.013902901 -0.10750684
-0.04613445 0.08608209 0.019032264 -0.032562587 -0.15550327 -0.15116237 0.08940795 -0.029708209
0.122036204 0.07870697 -0.0060136607 0.15571062 -0.034011167 0.10712571 0.070946835 -0.07812222
0.10865414 -0.040430836 -0.034633216 -0.18303613 -0.06263345 0.036227904 0.15918776 -0.07416558
0.008215612 -0.1095206 -0.040674202 -0.13275707 0.06560137 -0.1405343 0.016951887 -0.053127132
-0.06666085 0.11749885 0.09906124 -0.099809796 0.010796485 0.010083261 -0.11238001 -0.02146751
0.03637788 0.060972918 -0.049712364 0.016237294 -0.0472525 0.034825332 0.06899271 -0.05251263
0.022836939 0.04526983 0.06039907 -0.09920324 -0.04754971 0.12619658 0.121363685 0.17036672
0.029673642 0.07707941 0.052865423 0.27677968 -0.00062357954 -0.055501163 0.10603692 0.053266495

fc2.bias f4 [64]
00000000: 6215 54be 7998 9e3d 17c4 b2bd f9f0 f03d
00000010: 4ceb 953e 697f 08be ad1e b43d 8837 45bd
00000020: 9200 2c3e ead2 a5bd 6b49 d0bd 6dab 23be
00000030: 855a b2bb 58c3 b1be 7f5d 2fbd 6277 24bd
00000040: e60c 63be 5c30 80bd 9aa5 97bc 44b1 583e
00000050: f988 50be 9a28 35bd 69ee 7f3d ae25 043e
00000060: c28b bdbd d0a0 2c3e 8269 f63b c215 90bd
00000070: c038 a53d 6d32 6dbc 5b4c 423d 0d0d f43d
00000080: eb01 d63d 08c3 fc3d a88f 2fbd f43d 14be
00000090: 64b4 283d 9f91 4c3e ab10 0a3d 5339 8c3d
000000a0: 6ea1 4fbe 14b3 953e a618 abbd 0591 623c
000000b0: 54d7 2b3e 346c 9e3d c0ad 9a3e 3600 27bd
000000c0: c27a afbd f55b 0f3e 9feb 943d d039 7dbc
000000d0: 0d91 293e 97d7 163e 4b80 96bd 16fe a7bd
000000e0: 6611 373d a7d6 42be b68b ec3e a435 9cbd
000000f0: 7854 b8bd b7dd 63bd 5b9d 2cbc adef 92be
-0.20711282 0.077439256 -0.087288074 0.11764712 0.2928108 -0.13329853 0.087949134 -0.04814866
0.16797093 -0.08096869 -0.10170253 -0.15983362 -0.0054429197 -0.34719348 -0.042813774 -0.040152915
-0.22172889 -0.06259224 -0.018511582 0.21161371 -0.20364751 -0.044228174 0.062483225 0.12904999
-0.09255172 0.1685822 0.0075199017 -0.070354 0.08067465 -0.0144773545 0.0474361 0.11916552
0.104495846 0.12341887 -0.04286161 -0.14476758 0.04118766 0.19977425 0.033707302 0.06846871
-0.20276424 0.29238188 -0.08354311 0.013828521 0.1678136 0.07735482 0.30210686 -0.040771686
-0.08568336 0.13999923 0.07271504 -0.015455678 0.16559239 0.14730678 -0.07348689 -0.0820276
0.044694327 -0.19027196 0.4620034 -0.07627419 -0.09000486 -0.055631366 -0.010535563 -0.28698483

fc3.weight f4 [32, 64]
00000000: de5a 2e3e e3ef e03e 0bc2 ddbd 2305 743d
00000010: 036a 273e 1dd3 04bd c6d9 313e f4b4 8dbc
00000020: fdb6 c83e f106 1ebe eff5 293e 56fa 023e
00000030: 8274 b13d ccdc bbbe 2862 fd3d 2bba bc3d
00000040: 9291 a53b 51a2 44be fa8e bdbd 31a5 cdbd
00000050: 9560 59be 49c7 643d f5d6 c93d 76c5 4fbe
00000060: 187c 193b f95f 06bd 6137 a43c 8e2b c9ba
00000070: 1ccd 86bd 6d90 8b3d 6876 b5bd 0886 d6bd
00000080: 7b42 9abc c774 bfbc 796f 1dbd d15a 253c
00000090: c41b 833d e93c c23e cb68 1dbe c3b1 cd3d
000000a0: ef9f 893c 586c c53e 03de 2d3c d2e0 bc3a
000000b0: 2603 503e 4208 883c a001 983e 3325 09bd
000000c0: 3d4e fcbd eede 233c b3db 9ebd 1417 0a3c
000000d0: c6dc 2c3e 2724 ad3e 7a84 bd3d c346 f83d
000000e0: 97cc d23c 2e64 8e3d ac39 683e c866 6a3e
000000f0: fe9c 9b3c 2d66 8f3d a056 9dbd 482a 92be
00000100: c9f3 663e 5aec 803d 269b 363d 40e5 04bd
00000110: a8f8 1dbd c326 65be 864f c23d e2e9 b53d
00000120: 890d 67be c291 ffbd 6611 513e 116e a3bb
00000130: f1e4 2d3e 247d 73be 0d97 1f3d fdc7 963d
00000140: 2515 3bbd 9e88 db3c c94a 013d 7d00 003e
00000150: 8057 ab3d 042c d13d af18 893d 35e7 b43d
00000160: bf32 ce3e 2a34 703e 25c2 c93d 774e b2bd
00000170: fec3 0bbe 0a83 09bd 8b92 c5bd f5c9 39be
00000180: 69b6 e8bd 15a6 81bd 05db c1bd 5fc5 25bd
00000190: 12db 2e3d a380 043e a3a0 be3d 901a 7fbc
000001a0: a3ad 653e f27c f6bd 1e4c 70bd d780 9a3c
000001b0: 633d 1a3d 93aa 1bbd 5936 04be 7b2f 4cbd
000001c0: 8073 593d e64e d33e e2ec f4bd 3ae6 d03d
000001d0: 735d 4b3e 194a 9a3d 5b22 eabc 4e92 703d
000001e0: 94c4 a9bd c571 333e 40e3 5b3e 31ff 503e
000001f0: 8085 ef3d 70ee bbbc bcbe c73d aa8b 7a3e
00000200: f13b 7dbd 1c07 ecbd dd0d 76be e775 013e
00000210: fdf5 0abe 7324 2b3e 01d6 c43e 89f3 7e3c
00000220: 3d46 563e f283 653e fb44 693e 3ff6 ed3c
00000230: 8593 e1bd f4e7 d63e 2d1e f1bd 60a6 c9bd
00000240: 5a8b b2bc f7e6 c2bd d715 19bd cc97 0b3e
00000250: 2aef 3e3d a4ed 42bd 6a99 05bd 9a4f 813e
00000260: 06ab c33d dc5a e63d d8db 1c3d 4edf d83d
00000270: e10f 5f3e 31f8 cfbd a330 623e 350d 553d
00000280: 2ca1 3abe 9da0 393e 4842 24be f4ad 553d
00000290: 7500 f7bd 2c0c a7bc 73af 603d 519c dbbd
000002a0: 438b ed3d b7ac 45be 771b a83d 7d4d db3d
000002b0: be48 ba3d 8460 cfbd d56a 0dbe 9ef7 cdbd
000002c0: 0dcf 43bd 1abb 8a3d 28a1 593d 016a fbbd
000002d0: 5d19 cc3d 639f c23e bd63 43bd 75cb a9bd
000002e0: bbe6 683e a87b e0bd 2ba3 53be 79ca db3d
000002f0: bc29 fcbb 5527 62bd 222a efbd d0dc 443e
00000300: b98a 2c3e e720 52be b965 72be 5fcd a03d
00000310: da24 353e b71a 2d3e 1ddb 213e a6d4 c4bd
00000320: 496d 103d a4e8 213e 9f84 de3c 6d76 84bd
00000330: b372 c93d 1894 813e 43e2 6fbd 0346 93bd
00000340: c7bb 96be a5ff 183b 02af e5bd 9762 543e
00000350: 7d20 c2bd 1151 dd3d dd7b 813d 8121 033e
00000360: 6aa7 e2be 5458 183e ede9 21be a0e2 97bd
00000370: 5fbe 2b3e f5f7 813d c5bb a43d ceed 2abd
00000380: e4a7 123e 0cb4 fc3d f754 813d 6f55 443d
00000390: 13a1 e23d 5136 7b3d 96c9 f7bc a8b9 c0bd
000003a0: 77c2 0d3d 569b d23d d463 a93d a935 cd3c
000003b0: 9492 863d cb3e 32be 5499 3c3d 5994 06bd
000003c0: 5c88 b33d 6fbb 9d3e b386 fcbc e0f7 70bd
000003d0: ab89 b63e 877d 283d 5752 81bd 9faa c9bd
000003e0: dbd7 c8bd 8b1e 18bd 1f3e 1bbe f332 4abe
000003f0: 898f 77bc c3b3 6d3d 30f6 5dbd 10a1 87bc
0.1702685 0.4393302 -0.108280264 0.05957521 0.16349034 -0.032427896 0.1736823 -0.0172982
0.3920211 -0.15432335 0.16597722 0.12790808 0.086648 -0.36691892 0.123722374 0.09215196
0.0050527537 -0.19202544 -0.09255786 -0.100412734 -0.2122825 0.055854116 0.09855453 -0.20290169
0.0023419913 -0.03280637 0.020045938 -0.0015348063 -0.0658209 0.068146564 -0.08860475 -0.10474783
-0.018830528 -0.023371113 -0.038436387 0.010092453 0.0640178 0.37937096 -0.15372007 0.10043671
0.016799895 0.38559222 0.010612014 0.0014410263 0.20313701 0.0166055 0.2968874 -0.03348274
-0.1231961 0.010001881 -0.07756748 0.008428354 0.16881093 0.33816645 0.092537835 0.12122872
0.025732322 0.069527015 0.2267825 0.2289077 0.018995758 0.0700191 -0.07682538 -0.28547883
0.22553934 0.062950805 0.044581555 -0.032445192 -0.038567215 -0.22378068 0.09487824 0.088825
-0.22563757 -0.12478973 0.20416793 -0.004987486 0.16981865 -0.23778206 0.038962413 0.073623635
-0.045674462 0.026798543 0.03156546 0.12500186 0.08366299 0.102134734 0.06694161 0.08833162
0.4027309 0.23457399 0.09851483 -0.08706372 -0.13648984 -0.033572234 -0.096470915 -0.18143447
-0.11362917 -0.06330506 -0.09465603 -0.04047143 0.04268939 0.12939696 0.09307983 -0.015570298
0.22429518 -0.1203555 -0.05866634 0.018860264 0.0376562 -0.03800447 -0.12911357 -0.04984997
0.053088665 0.41271132 -0.11959244 0.10200162 0.19859867 0.07533664 -0.028580835 0.058733277
-0.082894474 0.17523868 0.21473408 0.20409848 0.11695385 -0.022940844 0.097531766 0.2446734
-0.061824743 -0.115247935 -0.24028726 0.12642632 -0.135704 0.16713123 0.38444522 0.015560993
0.20925231 0.22413614 0.2278022 0.029048083 -0.11014465 0.4197384 -0.11773334 -0.09846187
-0.021794964 -0.09516709 -0.037374344 0.13632125 0.046614803 -0.047589913 -0.03261701 0.25256044
0.095541045 0.11247799 0.038295597 0.10589467 0.21783401 -0.10154761 0.22088866 0.05201455
-0.18225545 0.18127675 -0.1604091 0.052167848 -0.12060634 -0.020391546 0.05485482 -0.10723174
0.11598828 -0.19304167 0.082083635 0.10708139 0.09095906 -0.10125831 -0.13810284 -0.10056995
-0.04780488 0.06773968 0.053132206 -0.12276078 0.09965775 0.38012227 -0.04770254 -0.082907595
0.22744267 -0.109610856 -0.20667712 0.10731978 -0.007695405 -0.05521329 -0.11677958 0.19224858
0.16849793 -0.20520364 -0.23671617 0.078516714 0.17689839 0.16904722 0.15806241 -0.09610872
0.035260472 0.15811402 0.027162848 -0.064679004 0.0983633 0.253083 -0.05856539 -0.07191088
-0.29440138 0.0023345735 -0.11215021 0.20740734 -0.09478853 0.10806478 0.06322453 0.1280575
-0.44268352 0.14877445 -0.15811892 -0.07416272 0.1677184 0.06346122 0.08043627 -0.041730694
0.14321858 0.12339029 0.06315034 0.04793304 0.11065879 0.061331097 -0.03024749 -0.09410411
0.034609284 0.10283534 0.08270994 0.025050001 0.06570926 -0.17406766 0.046044663 -0.03285632
0.08766243 0.30807063 -0.030825948 -0.058830142 0.35651907 0.041135337 -0.06314533 -0.098469965
-0.09806796 -0.037138503 -0.15160416 -0.19745998 -0.015109905 0.058032762 -0.05418986 -0.016556293

fc3.bias f4 [32]
00000000: a684 353f b964 efbe 6457 88bc f765 b03e
00000010: f6e9 a53e 4b31 57bd 3f25 e1bd 0131 993d
00000020: 7a99 5d3e 7ffa e2bc d25d 78bd 60a3 ac3e
00000030: 2767 debd 31e0 b53e 9d22 0a3e 0721 f0bd
00000040: c5fe 02be 4222 debd 8890 033d 26dc 43be
00000050: 8a76 82be 8e16 0abd 189e 653b 17b1 9e3e
00000060: 5e16 27be 2abf 34be 4975 15be 4d7e cebd
00000070: 8843 113e 48e2 98bd 7136 24bc 297d 823c
0.7090553 -0.46756533 -0.016643234 0.34452793 0.3240506 -0.052537244 -0.10993432 0.0748005
0.21640578 -0.027707336 -0.06063635 0.33718395 -0.108595185 0.35522607 0.13489766 -0.117250495
-0.127925 -0.10846378 0.032120258 -0.19126949 -0.25481063 -0.033712916 0.0035036858 0.30994484
-0.16317126 -0.17651048 -0.14595522 -0.10082684 0.14185917 -0.07465035 -0.0100227455 0.015928822

fc4.weight f4 [10, 32]
00000000: 5d7f f0be 56b1 c2bd 3990 803e d517 833e
00000010: 1df1 b23e d6c5 863e 3619 4ebe 598d 303d
00000020: d00b 683e 22d2 343d d5b1 2ebe e576 0c3e
00000030: 7d5d b0be 37df d73e 8c66 87be 24c8 133e
00000040: 5d3d 133e 7a8b 49be beea 103f 8387 4a3e
00000050: 181c 81bd d295 64bd 60d7 553d bb5e 723d
00000060: fef8 1dbe e327 91be 0e7e 84be c7c9 0c3e
00000070: 183e 88bd c3f2 c4bd 9568 e7bd c069 943d
00000080: a9c7 1dbf 9581 f4be edc9 59be 16f2 d7bc
00000090: 06af d2be ad59 ad3e 9041 153e 706f ca3d
000000a0: b6f0 643f 9d63 52bd 451c 2fbe a95e f1bd
000000b0: ee9a 683e a498 2c3e 4539 ac3e 1159 553e
000000c0: f59f f33d 995d 5ebd 33f0 333d 094d 2dbe
000000d0: 389f 5f3e 1ed1 3c3d 1d13 e43d a19c 22bf
000000e0: d346 803f 4f1f 433d d358 673e 50e9 41bd
000000f0: 6a27 a2bc 7e3d a9bd 8743 dcbc 8449 223e
00000100: ec3a 4ebe b26e b4be d165 0b3f 985c 87bd
00000110: 9219 2abe b0a8 12bd d768 bd3d 1a19 69bd
00000120: 562f f8bd 5993 003e dd05 1f3d 41b8 f13d
00000130: 8c31 01be 6496 36bc 9251 88be 824c b93e
00000140: 3760 c0bd b420 04bd 3eac b63e 9d3b a13e
00000150: 01d2 4dbe 5e26 4c3d ea28 f4bd 57a9 a03c
00000160: 8aec 433d 7165 14be 02e3 f83e e011 2cbe
00000170: e177 9b3d 663b dcbd dd17 81bd 7791 2cbf
00000180: 7462 86be 9e4b 733c 6e3c e53e 938e 283f
00000190: 6b01 acbe ad25 e33d b6eb 83be ef6b e13b
000001a0: f7ad 823e 663d 08be c268 323e 0919 e53e
000001b0: a02b 0fbd c3ae 9ebd f5ce 72be 5a45 d23e
000001c0: 0581 133e 6d30 0cbe a19f 87be ad17 1bbe
000001d0: 3305 6fbe 32c3 d8bd c2ba 003e 0e53 a0be
000001e0: c167 923d 0f40 943e a471 05be 22d1 223d
000001f0: 8ba1 c63e ef26 14be 98da 253e 9c2e 17bc
00000200: efe4 5abe 876e 6e3e 1f5b 973e ae9a 24be
00000210: 5b99 a7be 4276 01bf 7f90 343d 6c4c 8abd
00000220: b48a dabd aadc dd3d 4e6d f0bd 350e a83e
00000230: 33ea 25bd 3805 b83e 5873 86be 3774 513e
00000240: 90ff e7bd 835e 213e 4fc3 c73e 5e51 7dbe
00000250: e816 4abe 00c5 563d 63a1 d6bd e4fb ab3b
00000260: 84f5 233e b8ec d1bd fdbd e83e a235 213e
00000270: 1026 35be 6c98 de3d 1ea1 2d3e e5d5 41bb
00000280: 41fb 853f b38b edbe 3096 0ebf 104e 92bd
00000290: 92c3 ec3e b624 f7bd 4c60 cf3e d43e c43c
000002a0: 1a7a abbe d38b e9bd 9349 1c3e 1e0a ca3e
000002b0: 7449 113e 0eda f5bd ff3a ab3d bfc0 65bf
000002c0: f1ed 71be b82a 323e 48c1 18be 61cd a3bd
000002d0: 4865 07be 4d66 25be 5ff3 153e d612 0d3d
000002e0: cf66 91be ea1c 0d3e 8f70 cebe e4cb 40bd
000002f0: 1851 233e c347 cd3d fc38 edbd 36c3 b1bd
00000300: 9303 89be 0d8c 37be d125 6e3e 5ff9 d63e
00000310: b46e ca3d e1cb 5dbd 11bf 3ebc 2984 75bd
00000320: 3e55 02be 5cfb 08be 2a0b bcbd 4d6f 33bd
00000330: c13f 3bbe 32f2 e83e a21f 86be 3646 e33c
00000340: 9ae6 30bd 2c3a 05be 402e 1e3e b195 253f
00000350: 3c2f c6bd 9e7d c3bd 20dd 0fbe ce5b ce3d
00000360: 207b 2e3d 70a4 f03e 1fa4 023f f4fd 05be
00000370: 3f2e cb3d 81f4 a1bc a716 96bc d245 0f3d
00000380: 993e 133f 4d81 1f3c aa31 36bf d834 96be
00000390: e320 693d b110 22be 96d8 b9bd b712 243f
000003a0: e978 b2be 0318 0c3e 7d24 f9bc 7e89 1cbf
000003b0: 24dd 943d a889 00be e53e 283f e395 833d
000003c0: f7f0 41be 3033 333e 7939 d4be df48 ee3b
000003d0: 5144 623e 7709 1a3d de2d 0fbe ae2b dd3e
000003e0: cc9e 96be da16 3dbc bc6c 1abf 0801 17be
000003f0: 447e eabd c4c4 ce3d 9ef9 0d3e e889 823b
-0.4697217 -0.095064804 0.25110033 0.2560412 0.3494958 0.26322812 -0.20126805 0.04310355
0.22660756 0.04414571 -0.17060025 0.1371723 -0.34446326 0.42162487 -0.26445425 0.14431816
0.14378877 -0.19682112 0.5660819 0.19778256 -0.063041866 -0.055806942 0.05220735 0.059172373
-0.15427014 -0.28350744 -0.25877422 0.13748847 -0.066524684 -0.096166156 -0.11299244 0.07246733
-0.6163278 -0.47755113 -0.21268435 -0.026360553 -0.41149157 0.3385748 0.14575791 0.09884536
0.89429796 -0.05136453 -0.17100628 -0.11785633 0.22715351 0.16855103 0.33637443 0.20834757
0.11895744 -0.05428848 0.043930244 -0.16923918 0.21838081 0.046097867 0.11136458 -0.63520247
1.0021614 0.04763728 0.22592478 -0.047341645 -0.019794185 -0.08263682 -0.026887668 0.15848356
-0.20139664 -0.35240704 0.54452235 -0.06609458 -0.16611317 -0.035805404 0.09248512 -0.056908704
-0.121184036 0.12556209 0.03882395 0.11802722 -0.12616557 -0.011144254 -0.26624733 0.36191183
-0.093933515 -0.03225775 0.35678285 0.31490794 -0.20099641 0.049841277 -0.11921866 0.019611998
0.047833003 -0.14491822 0.48610693 -0.16803694 0.075912245 -0.10753517 -0.0630338 -0.6740946
-0.2624699 0.0148495715 0.44772667 0.6584255 -0.33594832 0.110911705 -0.2576577 0.0068793218
0.2552335 -0.13304672 0.17422774 0.44745663 -0.034953713 -0.07748177 -0.2371176 0.41068536
0.14404686 -0.13690348 -0.26488975 -0.1514575 -0.23341827 -0.105841056 0.12571242 -0.31313366
0.07148696 0.28955123 -0.13031632 0.039750226 0.38795123 -0.14467977 0.16196668 -0.009227421
-0.21376394 0.2328435 0.29561707 -0.1607463 -0.32734188 -0.5057107 0.044083115 -0.067528576
-0.10670987 0.10833104 -0.11739598 0.3282334 -0.040506553 0.35941482 -0.26259875 0.20454489
-0.113280416 0.1575871 0.39016196 -0.2473807 -0.197353 0.052433968 -0.10480001 0.0052485336
0.16011626 -0.10250229 0.4545745 0.15743116 -0.17690301 0.10868916 0.16955993 -0.0029576954
1.0467302 -0.46395645 -0.5569792 -0.071437955 0.46242958 -0.12067549 0.40503156 0.02395574
-0.33491594 -0.114036225 0.15262441 0.39460844 0.14188176 -0.12004481 0.08360862 -0.8974723
-0.23625924 0.17399108 -0.14917481 -0.07998157 -0.1322223 -0.16152306 0.1464362 0.03444179
-0.2839875 0.13780561 -0.4032025 -0.047069445 0.15948904 0.10023453 -0.115831345 -0.08679812
-0.2676054 -0.17924519 0.23256613 0.4198713 0.09884396 -0.054149512 -0.0116422335 -0.05994049
-0.1272783 -0.13377136 -0.09181817 -0.043807317 -0.18286039 0.4549728 -0.2619601 0.02774344
-0.04318867 -0.13010472 0.1544733 0.64681536 -0.09676978 -0.09545444 -0.14049196 0.10076104
0.04259789 0.47000456 0.5103168 -0.13085157 0.0992093 -0.019769909 -0.018321348 0.034978695
0.5751739 0.009735418 -0.7116953 -0.29337192 0.05691613 -0.1582668 -0.090745136 0.64091057
-0.34857872 0.13681035 -0.030412907 -0.61147296 0.07268742 -0.12552512 0.6572097 0.06425073
-0.18939577 0.17499995 -0.41450098 0.0072718705 0.22096373 0.037606683 -0.1398234 0.43197387
-0.29418027 -0.011541093 -0.60322165 -0.14746487 -0.114498645 0.10096124 0.13864753 0.003983725

fc4.bias f4 [10]
00000000: 97d5 98bd e403 243d fcf2 403d 0328 18be
00000010: 796f 8abe eb6e 8b3f 15a9 55bd 614d cf3e
00000020: d9d0 03bf 7813 e8be
-0.07462614 0.040042773 0.047106728 -0.14859013 -0.27038172 1.0893224 -0.052163202 0.40488723
-0.5149055 -0.45327353
