COMP 219 Advanced Artificial Intelligence /Resilience-to-Adversarial-Attack-main/201676262.pt (torch, 446799 bytes, 8 tensors)

fc1.weight f4 [128, 784]
0.01840226 -0.01576351 -0.0069236252 0.016763177 -0.03362275 0.021418475 -0.0073473323 0.018169425
0.004964892 -0.0043730065 0.009905748 0.00176185 0.013043866 -0.013917893 -0.0026038848 -0.0032152608
0.0051765703 -0.00014267117 0.031220239 0.011113934 -0.013300223 -0.02157005 -0.0059862733 -0.015405025
-0.011444591 0.0017100573 0.021290276 0.019412026 -0.034912534 0.022140019 0.009977281 0.03387698
0.023573566 -0.032540634 -0.033957444 -0.017226148 0.031361137 -0.0059488937 0.015284266 -0.016596837
0.035043504 -0.01511066 0.02678303 0.0004229173 -0.01881491 0.018357676 -0.018957863 0.010503739
-0.010312758 -0.003915515 -0.034335293 -0.01702792 0.019379787 -0.008681331 0.035573196 0.02862816
-0.0016722716 -0.023838684 0.02174865 0.011084184 -0.023086421 0.023198023 0.021682207 0.03167482
-0.020019988 -0.0058787856 -0.00069185346 0.0052163377 -0.027104225 -0.025343657 0.019428734 -0.008374713
0.017445479 0.0020360686 0.011726603 0.007853169 0.012985695 0.017703954 -0.033075433 0.01797684
-0.025111545 -0.02694675 0.002171941 -0.0060859714 0.020975858 -0.020683417 -0.031749357 0.025991742
-0.0052957796 0.02008776 0.011481591 -0.026781261 0.007174939 0.0085784495 -0.02391281 -0.01694544
0.012177702 0.006397236 -0.015191879 -0.010811282 0.0327101 -0.006607903 0.020135418 0.015464399
-0.02308597 -0.030372486 0.03428174 0.001864884 0.024480645 0.0074011236 0.011486527 0.026677094
0.033864807 -0.023699323 0.004465319 0.02665205 0.025872681 0.022187088 -0.025847103 -0.02571801
-0.021598987 0.0044867285 0.035595175 -0.022559844 0.019031461 -0.019767433 -0.033579133 -0.0075907037
0.020577535 0.03315625 -0.022179957 0.0077503994 0.03081644 0.0236662 0.022257969 0.025379736
0.022589874 0.009224869 -0.024422148 -0.029991377 -0.016365021 -0.0041587837 -0.021891152 0.013066202
0.0110531375 -0.008086976 0.013726458 0.011542313 0.021804962 0.024051562 -0.012094742 0.034893777
-0.0041288473 -0.0012269989 -0.033710003 -0.022986293 -0.020864412 -0.015275819 0.025391772 -0.0116707515
-0.026688615 0.013741069 0.01143463 0.02313181 -0.018481148 0.007743392 -0.013001809 -0.0080240965
-0.028461372 -0.016277177 -0.010937776 0.015272692 0.0065246224 0.008822016 0.035646614 0.034808125
0.024358828 0.0011372678 -0.024706837 0.027911063 -0.008930838 -0.0028873347 -0.03076782 -0.0070545934
-0.02303528 0.032818075 -0.030875752 -0.02783867 -0.0012127236 -0.019311268 0.01277899 -0.013747344
-0.016774558 0.002022773 0.0258535 -0.025122277 0.016771652 0.022944335 0.03493562 -0.024997532
0.00864964 -0.026408102 0.03049108 -0.013853798 0.021512598 0.0010632649 -0.0027815215 -0.0011395626
0.0060712323 0.016835574 0.0057278536 0.01089482 -0.032125883 0.026019197 0.031138 0.02952164
0.026400808 -0.025772551 -0.013239287 0.031490188 -0.027202092 0.03240076 -0.028089145 -0.025157448
0.017459929 -0.025660325 -0.008182168 0.025981855 0.02828889 0.033776995 -0.007247053 -0.027759314
0.03516468 -0.0076080784 -0.014694111 0.008706208 -0.024975875 0.023474295 0.022383314 -0.028338617
-0.02933473 -0.003128443 0.01500091 -0.0010343604 -0.018109914 0.0008165166 -0.033569008 -0.025241464
-0.02377462 0.029411796 0.03148235 -0.012130955 0.0016017966 0.015927784 0.0042791925 -0.017884022
00000000: 56c0 963c 7a22 81bc 94df e2bb ee52 893c
00000010: 02b8 09bd cc75 af3c e4c1 f0bb 0cd8 943c
00000020: 88b0 a23b 704b 8fbb b84b 223c e0ed e63a
00000030: f0b5 553c e007 64bc f0a5 2abb 20b7 52bb
00000040: 38a0 a93b 009a 15b9 96c1 ff3c 3817 363c
00000050: 2ee9 59bc acb3 b0bc 8028 c4bb 5c65 7cbc
00000060: 1882 3bbc 0024 e03a f268 ae3c f805 9f3c
00000070: 7200 0fbd fc5e b53c c077 233c 97c2 0a3d
00000080: 5a1d c13c 5449 05bd f616 0bbd da1d 8dbc
00000090: 8974 003d f0ee c2bb dc6a 7a3c 17f6 87bc
000000a0: c789 0f3d b492 77bc 1668 db3c 00bb dd39
000000b0: ba21 9abc d662 963c 854d 9bbc e017 2c3c
000000c0: d8f6 28bc b84d 80bb 2aa3 0cbd 237e 8bbc
000000d0: 5cc2 9e3c 243c 0ebc 33b5 113d 9a85 ea3c
000000e0: 2030 dbba 5849 c3bc 3a2a b23c 709a 353c
000000f0: bc1f bdbc c809 be3c e29e b13c 75bd 013d
00000100: f500 a4bc d4a2 c0bb 805d 35ba d0ed aa3b
00000110: ae09 debc 809d cfbc 0229 9f3c 1836 09bc
00000120: d2e9 8e3c 906f 053b f020 403c 94aa 003c
00000130: f4c1 543c e207 913c 1b7a 07bd 2a44 933c
00000140: bab6 cdbc 6ebf dcbc 2057 0e3b d46c c7bb
00000150: 90d5 ab3c 4570 a9bc 9d0b 02bd a2ec d43c
00000160: 3888 adbb 168f a43c 481d 3c3c 6064 dbbc
00000170: c01b eb3b a08c 0c3c cce4 c3bc 2ad1 8abc
00000180: fc84 473c e89f d13b 5ce7 78bc ce21 31bc
00000190: 07fb 053d 1c87 d8bb 08f3 a43c 645e 7d3c
000001a0: ca1e bdbc b8cf f8bc 036b 0c3d 206f f43a
000001b0: a28b c83c 2085 f23b fc31 3c3c ec89 da3c
000001c0: d3b5 0a3d 1525 c2bc d051 923b 6655 da3c
000001d0: f2f2 d33c b2c1 b53c 4ebd d3bc 93ae d2bc
000001e0: 5cf0 b0bc 6805 933b 3fcc 113d 6ccf b8bc
000001f0: dee7 9b3c 50ef a1bc 468a 09bd 70bb f8bb
00000200: 3892 a83c d9ce 073d beb2 b5bc 10f7 fd3b
00000210: c272 fc3c 9edf c13c 5856 b63c 2ae9 cf3c
00000220: 660e b93c e823 173c f510 c8bc 7ab0 f5bc
00000230: f00f 86bc 6846 88bb 1355 b3bc a013 563c
00000240: 3818 353c 3c7f 04bc f0e4 603c f81b 3d3c
00000250: 52a0 b23c c807 c53c 0629 46bc c7ec 0e3d
00000260: 484b 87bb 40d3 a0ba 8013 0abd c04d bcbc
00000270: d8eb aabc 6e47 7abc 6802 d03c ae36 3fbc
00000280: 15a2 dabc 3822 613c 5058 3b3c ec7e bd3c
00000290: c765 97bc 48bc fd3b 8a05 55bc 8077 03bc
000002a0: d327 e9bc b757 85bc 5c34 33bc 503a 7a3c
000002b0: 80cc d53b 388a 103c 2f02 123d f792 0e3d
000002c0: 2a8c c73c 6010 953a fe65 cabc bea5 e43c
000002d0: a652 12bc 7039 3dbb cc0c fcbc 382a e7bb
000002e0: 7cb4 bcbc 3f6c 063d 25ef fcbc ec0d e4bc
000002f0: 40f4 9eba aa32 9ebc f85e 513c 8a3c 61bc
00000300: cc6a 89bc 8090 043b b8ca d33c 3ccd cdbc
00000310: b464 893c c2f5 bb3c a718 0f3d a0c7 ccbc
00000320: 38b7 0d3c ce55 d8bc 6ec8 f93c 0afb 62bc
00000330: 303b b03c 405d 8b3a 304a 36bb 605d 95ba
00000340: 30f1 c63b c2ea 893c b8b0 bb3b 3080 323c
00000350: 6e96 03bd 3626 d53c 1e15 ff3c 5ed7 f13c
00000360: 8246 d83c f520 d3bc 98e9 58bc dbfb 003d
00000370: ecd6 debc a9b6 043d 351b e6bc fe16 cebc
00000380: 2008 8f3c 9a35 d2bc 800e 06bc e6d7 d43c
00000390: 1abe e73c bf59 0a3d b078 edbb 8067 e3bc
000003a0: d708 103d 304d f9bb 92bf 70bc 7ca4 0e3c
000003b0: 359a ccbc 2a4d c03c 365d b73c 6326 e8bc
000003c0: 634f f0bc 9006 4dbb 60c6 753c 6093 87ba
000003d0: 3e5b 94bc 800b 563a a87f 09bd 30c7 cebc
000003e0: fec2 c2bc 02f1 f03c a3f3 003d eac0 46bc
000003f0: 60f3 d13a fc7a 823c 7838 8c3b 8381 92bc

fc1.bias f4 [128]
-0.025041752 0.0070676096 0.011473946 0.0007119663 -0.012147045 0.02083756 0.0022371523 -0.007107105
-0.0036884025 0.028624963 0.005082965 -0.03302361 0.01677012 0.007052377 -0.011105312 -0.025924526
0.022747144 -0.034901172 0.026467852 -0.018238898 -0.012710372 -0.030329892 -0.010316348 0.027744796
0.031665187 0.004786674 -0.012223756 0.0015561618 -0.032769173 -0.004666321 0.03521275 0.0009508729
-0.005302936 0.010480151 -0.011899179 0.0032671131 0.0025550798 -0.014933735 -0.0032036826 0.009513903
0.02050173 -0.0002242513 0.029956277 -0.018966373 -0.018078638 0.017371707 0.012995429 0.0162496
0.00020197779 -0.017230434 -0.007923339 0.007973522 -0.029448446 0.016445674 -0.02808264 0.010946736
0.030313294 -0.004991932 -0.02970046 0.019769698 0.01637685 -0.004452955 0.01828833 -0.030594483
0.01308547 0.016880948 -0.012710249 -0.02200079 0.022945505 0.0038510263 -0.02985331 -0.031406242
-0.033989653 0.00062347203 0.022637274 0.017315272 0.02466172 -0.017410059 -0.00962905 -0.0038538612
0.031528983 -0.03364434 -0.028919341 0.009000473 -0.027676221 0.0123196505 -0.013906293 -0.013163328
0.014301483 0.017882463 -0.023551384 -0.007384777 0.024350692 -0.024862397 -0.029629955 0.013432801
0.0108681545 0.022717606 0.008759264 0.02190419 0.027562272 -0.027368605 -0.03179708 -0.0012718476
0.03009415 0.030335378 -0.004066743 -0.02719975 -0.010012822 0.004724793 -0.019642575 -0.002692528
0.00944414 -0.033536583 -0.021315455 0.005231943 -0.026034331 0.0062075146 0.016392805 0.024913508
-0.011636684 0.01689776 0.031571414 0.0042784847 -0.013071934 -0.00878375 0.005411707 -0.002328854
00000000: 5c24 cdbc 6897 e73b 38fd 3b3c 40a3 3a3a
00000010: 6604 47bc 88b3 aa3c 309d 123b b8e2 e8bb
00000020: 20b9 71bb e67e ea3c 008f a63b c443 07bd
00000030: 7e61 893c a017 e73b 0ef3 35bc ac5f d4bc
00000040: 3858 ba3c 88f4 0ebd 1cd3 d83c be69 95bc
00000050: 2a3f 50bc 6576 f8bc e605 29bc 0e49 e33c
00000060: 5bb3 013d 88d9 9c3b 2646 48bc 20f8 cb3a
00000070: f838 06bd f0e7 98bb 3f3b 103d 0044 793a
00000080: 40c4 adbb f0b4 2b3c c6f4 42bc 101d 563b
00000090: 2073 273b a0ac 74bc e0f4 51bb 34e0 1b3c
000000a0: 3ef3 a73c 0025 6bb9 de66 f53c 5e5f 9bbc
000000b0: a719 94bc 1c4f 8e3c c8ea 543c e21d 853c
000000c0: 00ca 5339 d726 8dbc e4d0 01bc 60a3 023c
000000d0: de3d f1bc 14b9 863c 910d e6bc f059 333c
000000e0: 9653 f83c 5c93 a3bb 614e f3bc 10f4 a13c
000000f0: be28 863c 18ea 91bb 68d1 953c 48a1 fabc
00000100: 7064 563c ea49 8a3c a63e 50bc 003b b4bc
00000110: 36f8 bb3c 8061 7c3b ee8e f4bc d5a3 00bd
00000120: bc38 0bbd 8070 233a ce71 b93c c2d8 8d3c
00000130: 6007 ca3c 8a9f 8ebc 2ac3 1dbc 1091 7cbb
00000140: 8924 013d a6ce 09bd 41e8 ecbc b876 133c
00000150: 3eb9 e2bc 5cd8 493c 38d7 63bc 00ab 57bc
00000160: c450 6a3c 3e7e 923c d5ee c0bc 00fc f1bb
00000170: 1a7b c73c 3aac cbbc 85ba f2bc 4015 5c3c
00000180: 5810 323c 461a ba3c 0483 0f3c 6a70 b33c
00000190: 46ca e13c 2034 e0bc a83d 02bd 20b4 a6ba
000001a0: 0288 f63c e681 f83c 5042 85bb 03d2 debc
000001b0: d20c 24bc 70d2 9a3b 77e9 a0bc 2075 30bb
000001c0: 98bb 1a3c a85d 09bd c09d aebc b870 ab3b
000001d0: f345 d5bc 6868 cb3b 344a 863c 6a17 cc3c
000001e0: caa7 3ebc 2c6d 8a3c 0751 013d 8832 8c3b
000001f0: aa2b 56bc b8e9 0fbc b054 b13b b09f 18bb

fc2.weight f4 [64, 128]
0.033115946 0.053357445 -0.023889728 0.0085439235 -0.066202395 0.026933901 -0.012357011 0.069027744
-0.08330964 -0.047582295 0.056339495 -0.055370454 -0.07922651 0.074004926 -0.02373857 0.04624892
0.07667055 -0.017377242 -0.055156387 0.08519659 0.054319166 -0.025687143 -0.02490078 0.043266125
0.066225044 -0.036133114 -0.08549116 0.07804265 -0.029001456 -0.074562535 0.06752349 -0.039217338
-0.06764691 0.016971134 0.05070316 -0.022545643 0.04532329 -0.065607086 0.085728206 0.08431169
-0.021293417 0.061766706 -0.058820963 0.004180774 0.037777416 -0.05685553 0.020394795 0.08701111
-0.06235209 -0.0320402 -0.07241257 -0.041656353 -0.020100191 -0.06920766 -0.078418344 0.020809628
0.04011228 -0.053395167 0.07981645 0.012890644 0.080105506 0.05394449 0.04195703 -0.07141502
-0.07111764 0.06741644 0.016744152 -0.05978646 0.008832149 0.027004078 0.05323579 0.027864516
0.060602672 -0.04723218 -0.03990999 -0.03288827 0.03011255 0.07638451 0.08662724 -0.06807982
0.033284776 0.028765582 0.018954523 -0.04604604 -0.0141150355 -0.034177944 0.0533342 -0.046638668
0.056803934 0.07263944 0.058726095 0.08207267 -0.015061609 -0.034585945 0.08293461 -0.072800264
0.03635744 0.073355265 -0.004267432 0.08520036 0.03136243 -0.067036934 -0.021575004 0.06904804
-0.04177621 -0.03671826 -0.002238974 0.070574425 -0.0033991635 0.080534734 0.0009449348 0.06617903
-0.050913088 -0.07413821 0.010123104 0.0853856 0.07857738 0.041155644 -0.06522682 0.065643184
-0.0007033646 0.08038277 -0.035903014 0.06186249 0.04586024 0.038926013 0.025747918 -0.084573194
0.088209055 -0.053092267 0.058591746 -0.033481773 -0.02719285 -0.045185056 0.064264946 -0.0006291717
0.014017008 0.0017874613 -0.043320004 0.0645503 0.014248446 0.079600774 0.04400509 0.03617227
-0.07788741 0.07167914 -0.07387929 -0.07019767 0.059720747 -0.017557144 0.036752157 -0.05983157
-0.07923152 -0.009193875 0.039831646 -0.04444919 -0.077026136 0.0004886538 -0.07398072 0.05806724
0.023148917 -0.05403305 0.015459061 -0.08562328 -0.073303744 -0.043893106 -0.03828092 0.04056468
0.08085521 -0.031036053 -0.053516425 -0.022685781 -0.044517692 0.069695435 -0.0051289797 -0.047569547
0.07499682 -0.034662854 -0.07334273 0.036041066 0.020923823 0.04255704 0.029895857 0.04515738
0.017099343 0.03325887 0.034694776 -0.05222281 -0.06101854 -0.06974983 0.012625217 -0.07150277
-0.04719209 0.050892018 0.019175954 -0.019887127 -0.05894518 -0.024563543 0.062676646 -0.015447423
0.037481867 0.07690974 -0.0068721697 0.050724454 -0.04205575 0.05453726 0.072283335 -0.061781198
0.052831523 -0.051268257 0.060214095 -0.057622403 -0.06632391 0.0033504218 0.024682008 -0.07514196
0.03826376 -0.0742763 -0.040929615 -0.08572161 0.06468133 -0.056888953 0.016899548 -0.05699315
-0.06525856 0.05341261 0.054026537 -0.02299527 -0.024543114 0.008084647 -0.06692048 -0.022888191
0.034131393 0.01712083 0.012462668 0.0022347197 -0.05120237 0.03533212 0.06846701 -0.022250898
0.078355394 0.036700614 0.06088435 -0.07048659 -0.02058746 0.08505144 0.07849633 0.0036848858
0.0032056645 0.07602065 -0.02215413 0.045475982 0.0003215596 -0.08024227 -0.010776423 0.05188132
00000000: 96a4 073d 568d 5a3d 64b4 c3bc d0fb 0b3c
00000010: 1f95 87bd 7ca4 dc3c 1075 4abc 6b5e 8d3d
00000020: 3f9e aabd a7e5 42bd 3ec4 663d 21cc 62bd
00000030: 8241 a2bd e58f 973d 6477 c2bc 826f 3d3d
00000040: 7305 9d3d b85a 8ebc aaeb 61bd 8d7b ae3d
00000050: c67d 5e3d d86d d2bc b8fc cbbc d237 313d
00000060: ffa0 873d 5100 14bd fd15 afbd d3d4 9f3d
00000070: 7694 edbc 3eb4 98bd c149 8a3d 5ca2 20bd
00000080: 778a 8abd 0c07 8b3c 1eae 4f3d a4b1 b8bc
00000090: eaa4 393d 025d 86bd 4592 af3d 9bab ac3d
000000a0: 886f aebc 16ff 7c3d 40ee 70bd e0fe 883b
000000b0: 7ebc 1a3d 58e1 68bd fc12 a73c e132 b23d
000000c0: e864 7fbd 963c 03bd 0b4d 94bd da9f 2abd
000000d0: 28a9 a4bc bfbc 8dbd cc99 a0bd f478 aa3c
000000e0: c64c 243d e4b4 5abd cf76 a33d 4833 533c
000000f0: 5b0e a43d e6f4 5c3d 22db 2b3d 0a42 92bd
00000100: 20a6 91bd a111 8a3d 082b 893c a6e2 74bd
00000110: b8b4 103c a837 dd3c c60d 5a3d 2044 e43c
00000120: 823a 783d 8876 41bd a878 23bd dab5 06bd
00000130: 98ae f63c 7b6f 9c3d 9f69 b13d 6f6d 8bbd
00000140: 9e55 083d cca5 eb3c 8446 9b3c c69a 3cbd
00000150: c042 67bc 2cfe 0bbd f674 5a3d 3008 3fbd
00000160: 3eab 683d fdc3 943d c68a 703d b715 a83d
00000170: f8c4 76bc fea9 0dbd 9fd9 a93d 4e18 95bd
00000180: 8aeb 143d 493b 963d d0d5 8bbb 877d ae3d
00000190: e475 003d a94a 89bd 10be b0bc 0f69 8d3d
000001a0: 881d 2bbd e365 16bd c0bb 12bb 5389 903d
000001b0: 80c4 5ebb 65ef a43d 80b5 773a df88 873d
000001c0: 3e8a 50bd c6d5 97bd 60db 253c a5de ae3d
000001d0: 2ded a03d d292 283d a495 85bd ef6f 863d
000001e0: 0062 38ba b99f a43d 0a0f 13bd 8663 7d3d
000001f0: f2d7 3b3d e270 1f3d 4ced d23c b634 adbd
00000200: f3a6 b43d 4777 59bd e6fd 6f3d 2f24 09bd
00000210: 8ac3 debc f713 39bd 579d 833d 00ef 24ba
00000220: 98a7 653c 4049 ea3a 5170 31bd f332 843d
00000230: 5072 693c bb05 a33d ae3e 343d 6029 143d
00000240: 6f83 9fbd 83cc 923d 064e 97bd ccc3 8fbd
00000250: be9d 743d 00d4 8fbc 6e89 163d f311 75bd
00000260: 2344 a2bd e8a1 16bc 8226 233d 5b10 36bd
00000270: e1bf 9dbd 0019 003a 3483 97bd ead7 6d3d
00000280: cca2 bd3c c251 5dbd 0048 7d3c 425b afbd
00000290: 4620 96bd 42c9 33bd 74cc 1cbd 2627 263d
000002a0: 6b97 a53d 523f febc 0a34 5bbd 88d7 b9bc
000002b0: 2f58 36bd 7bbc 8e3d 0011 a8bb 49d8 42bd
000002c0: ef97 993d a3fa 0dbd b734 96bd cc9f 133d
000002d0: 7068 ab3c 4a50 2e3d 28e8 f43c f2f6 383d
000002e0: ec13 8c3c 743a 083d 1c1c 0e3d 96e7 55bd
000002f0: 94ee 79bd 00d9 8ebd 00da 4e3c 0b70 92bd
00000300: 7e4c 41bd 2674 503d e416 9d3c 54ea a2bc
00000310: 8070 71bd 7c39 c9bc 9d5c 803d 3017 7dbc
00000320: 9686 193d db82 9d3d f02f e1bb 72c4 4f3d
00000330: a642 2cbd 7662 5f3d 4909 943d 480e 7dbd
00000340: de65 583d aafe 51bd 0ea3 763d 7805 6cbd
00000350: d5d4 87bd c092 5b3b ec31 ca3c 07e4 99bd
00000360: 76ba 1c3d 2c1e 98bd d0a5 27bd d08e afbd
00000370: a577 843d 6404 69bd ec70 8a3c a671 69bd
00000380: 48a6 85bd 2ec7 5a3d ee4a 5d3d 9460 bcbc
00000390: a40e c9bc 7875 043c 9b0d 89bd 0480 bbbc
000003a0: 5ccd 0b3d fc40 8c3c 3830 4c3c 6074 123b
000003b0: 94b9 51bd 6ab8 103d 6f38 8c3d 8447 b6bc
000003c0: cb78 a03d 6253 163d de61 793d 465b 90bd
000003d0: 08a7 a8bc 732f ae3d afc2 a03d 207e 713b
000003e0: 2016 523b b7b0 9b3d 947c b5bc 0645 3a3d
000003f0: 0097 a839 0f56 a4bd 988f 30bc 8281 543d

fc2.bias f4 [64]
-0.08444968 -0.02294702 0.046023317 0.07332056 0.0757811 -0.037569523 -0.00487715 -0.047435928
-0.035983842 0.0035067871 -0.053272046 -0.05239042 0.0047923177 -0.056397635 0.014671005 -0.0282266
-0.075602606 -0.07534559 -0.008187503 0.07288755 -0.053406935 -0.043363605 0.06311982 0.012547173
-0.038741816 0.08610388 -0.05648138 -0.06600737 0.014845438 0.065384455 -0.058380485 0.0128695
0.061535485 -0.005989909 -0.06088499 -0.049540028 0.045397438 0.0317386 0.08373674 0.07209944
-0.0835016 0.086368196 -0.081933096 0.02186989 0.03638632 0.019805774 0.05235701 -0.04070786
-0.08383741 0.021108933 0.010700092 -0.0110917315 -0.014590554 0.0049695224 -0.07411968 -0.08089467
0.023475215 -0.06452851 0.0735063 -0.029677618 -0.0152729 -0.053196907 0.013967179 -0.049479682
00000000: f4f3 acbd 64fb bbbc f282 3c3d 1729 963d
00000010: 1f33 9b3d 80e2 19bd 80d0 9fbb 2d4c 42bd
00000020: cb63 13bd 20d2 653b ca33 5abd 5697 56bd
00000030: e008 9d3b 3501 67bd a85e 703c 783b e7bc
00000040: 8ad5 9abd ca4e 9abd e024 06bc 1146 953d
00000050: 3bc1 5abd 099e 31bd f744 813d a892 4d3c
00000060: bdaf 1ebd 3b57 b03d 0559 67bd df2e 87bd
00000070: 483a 733c 49e8 853d 6020 6fbd 98da 523c
00000080: a20c 7c3d 0047 c4bb 8a62 79bd 7cea 4abd
00000090: aaf2 393d 5600 023d 2b7e ab3d dfa8 933d
000000a0: e302 abbd cfe1 b03d 8acc a7bd 7c28 b33c
000000b0: d209 153d b83f a23c 4e74 563d 49bd 26bd
000000c0: f3b2 abbd a4ec ac3c 704f 2f3c 18ba 35bc
000000d0: 380d 6fbc 60d7 a23b 0fcc 97bd 1bac a5bd
000000e0: 184f c03c 8627 84bd 798a 963d 7a1e f3bc
000000f0: 303b 7abc 00e5 59bd 98d6 643c 35ab 4abd

fc3.weight f4 [32, 64]
0.052280456 0.056528553 -0.074984 0.014111608 0.022398666 0.026240602 0.06377868 -0.017367646
0.08935176 -0.066171974 0.06566119 0.02955921 0.017736763 -0.0842246 0.10478613 0.0941463
0.011694983 -0.07933967 -0.096982315 -0.12412971 -0.098365605 0.055773467 0.09835409 -0.115921035
-0.053180814 -0.04196988 0.00858371 -0.00881426 -0.11144632 0.030301377 -0.06166573 -0.100469396
-0.018120036 -0.02693297 0.020214394 -0.033327 0.06336965 0.11234845 -0.10024452 0.10092127
0.0406754 0.06675239 0.010594249 0.0018897355 0.09804009 -0.03355117 0.05586958 -0.07060067
-0.12341347 0.05751902 -0.010008529 0.008446425 0.07897988 0.06481066 0.09355374 0.121231034
0.027888149 0.10546312 -0.030521631 0.05494611 0.015733227 0.06938906 -0.08604802 -0.11523412
0.10436426 0.058335602 -0.0124139935 -0.03642331 0.015819728 -0.115182236 -0.033094063 0.08882558
-0.11795877 -0.11552198 0.005382359 -0.03909819 0.08353622 -0.12267585 0.02082853 0.07394385
-0.0469328 0.067387104 0.03090918 0.051224634 -0.034923717 0.10223682 0.066949636 0.027312279
0.11357847 0.10510665 0.08198656 -0.08331901 -0.106274426 0.043850914 -0.1154179 0.011901274
-0.04264231 -0.09226994 -0.052516878 -0.0891761 0.04283017 0.095233515 -0.08144614 -0.015570298
0.11033192 0.012229383 -0.058858663 0.018268034 -0.05202298 -0.013681382 -0.049921885 -0.01828508
0.05300817 0.074759126 -0.10234463 0.103139505 0.124684244 0.049338862 -0.029068619 0.059047803
-0.08921209 0.007927626 0.101789415 0.09494375 0.05378534 -0.022205576 0.09890443 0.11866507
-0.100142404 -0.09670898 -0.10918373 0.05007644 -0.12499295 0.06383647 0.120400324 0.015605211
0.045212477 0.08972573 -0.024583846 0.018849507 -0.07915349 0.06475739 -0.07209188 -0.1008784
-0.02222845 -0.0757626 -0.03722745 -0.00830628 0.0778783 -0.047550768 -0.032379568 0.07777825
0.096505806 0.09982076 0.0027464181 0.1131666 0.083985135 -0.09761071 0.06663458 -0.029082194
-0.084711954 0.027429163 -0.10559216 0.07064897 -0.12038189 -0.096719354 0.01714626 -0.10780655
0.051942438 -0.10651106 0.08225334 0.10894166 -0.009998798 -0.041922882 -0.072130814 -0.11411327
-0.047424376 -0.008024499 -0.009762913 -0.12411119 0.0046330094 0.10464965 -0.047502562 -0.083293006
0.12065199 -0.10883044 -0.12245245 0.0123960525 -0.029154986 -0.05601901 -0.11320828 0.09730366
0.09742372 -0.12399413 -0.06959027 -0.09250997 0.12023951 0.12386148 0.07851978 -0.096190274
-0.051530004 0.0070905834 0.009853885 -0.033627123 0.11757822 0.085338175 0.008244142 -0.072651714
-0.112920254 0.025232509 -0.11203112 0.030520186 -0.031310573 0.10803701 0.06305319 0.013475731
-0.07561162 0.08170086 -0.1008317 -0.075170845 0.08046448 0.014266908 0.04264903 0.025504872
0.055889815 0.11839464 0.032065943 -0.05571623 0.11078894 0.039851606 0.07165012 -0.0943107
-0.0324737 0.046008646 0.08272882 0.025889426 0.027823344 -0.11777936 0.08837512 -0.108146384
0.08805618 0.12034097 0.030401528 -0.059760913 0.1180269 0.0012628138 -0.0627953 -0.09886585
-0.09997909 -0.035697967 -0.097363636 -0.102751344 -0.09344916 0.05878906 -0.05534312 -0.08831829
00000000: 0824 563d 7c8a 673d 3691 99bd 6034 673c
00000010: 687d b73c 88f6 d63c 669e 823d 9846 8ebc
00000020: 0efe b63d 2c85 87bd 6079 863d 2826 f23c
00000030: b04c 913c f27d acbd 1c9a d63d c6cf c03d
00000040: 509c 3f3c d67c a2bd aa9e c6bd b837 febd
00000050: e873 c9bd b872 643d de6d c93d 0268 edbd
00000060: 20d4 59bd 9ce8 2bbd b0a2 0c3c b069 10bc
00000070: f83d e4bd 983a f83c 3495 7cbd e6c2 cdbd
00000080: 7870 94bc 88a2 dcbc a898 a53c e481 08bd
00000090: f2c7 813d f216 e63d 004d cdbd d0af ce3d
000000a0: 409b 263d 7ab5 883d 8093 2d3c 00b1 f73a
000000b0: 3ec9 c83d f46c 09bd 80d7 643d 1697 90bd
000000c0: 34c0 fcbd 1099 6b3d d0fa 23bc e062 0a3c
000000d0: 34c0 a13d 74bb 843d 1a99 bf3d fa47 f83d
000000e0: b075 e43c 0cfd d73d 8008 fabc 2c0f 613d
000000f0: f8e2 803c da1b 8e3d f239 b0bd deff ebbd
00000100: eebc d53d 50f1 6e3d 1064 4bbc 9c30 15bd
00000110: 6098 813c aae4 ebbd a48d 07bd 30ea b53d
00000120: 5e94 f1bd ca96 ecbd 805e b03b 6c25 20bd
00000130: 0a15 ab3d 7a3d fbbd 98a0 aa3c e06f 973d
00000140: 9c3c 40bd 4002 8a3d 4035 fd3c ecd0 513d
00000150: 2c0c 0fbd 8a61 d13d e41c 893d 00be df3c
00000160: d49b e83d 2842 d73d 92e8 a73d 28a3 aabd
00000170: 68a6 d9bd 049d 333d 3860 ecbd 90fd 423c
00000180: b4a9 2ebd 06f8 bcbd f01b 57bd f6a1 b6bd
00000190: b06e 2f3d ca09 c33d 3ccd a6bd 901a 7fbc
000001a0: b4f5 e13d c05d 483c c815 71bd d8a6 953c
000001b0: 0c16 55bd e027 60bc e47a 4cbd 98ca 95bc
000001c0: 181f 593d 501b 993d 109a d1bd ce3a d33d
000001d0: 745a ff3d 8c17 4a3d 5021 eebc 1cdc 713d
000001e0: d4b4 b6bd e0e2 013c f876 d03d de71 c23d
000001f0: 044e 5c3d 78e8 b5bc 688e ca3d ac06 f33d
00000200: 7617 cdbd 5c0f c6bd b89b dfbd f41c 4d3d
00000210: 4efc ffbd b2bc 823d 7294 f63d 00ad 7f3c
00000220: b830 393d 20c2 b73d 1064 c9bc 486a 9a3c
00000230: 3a1b a2bd 869f 843d e8a4 93bd 5699 cebd
00000240: 7018 b6bc 6c29 9bbd d07b 18bd 1017 08bc
00000250: a87e 9f3d 98c4 42bd 70a0 04bd 344a 9f3d
00000260: d6a4 c53d d46e cc3d 40fd 333b e4c3 e73d
00000270: 6600 ac3d 20e8 c7bd b677 883d c83d eebc
00000280: 767d adbd 20b3 e03c b440 d8bd 68b0 903d
00000290: c88a f6bd cc14 c6bd 5076 8c3c aec9 dcbd
000002a0: 98c1 543d 7822 dabd 7074 a83d ce1c df3d
000002b0: 00d2 23bc 54b7 2bbd 52b9 93bd 38b4 e9bd
000002c0: 1040 42bd 3079 03bc a0f4 1fbc 022e febd
000002d0: 80d0 973b 8e52 d63d 0c92 42bd 8695 aabd
000002e0: 6418 f73d 7ee2 debd 5ac8 fabd d018 4b3c
000002f0: 70d6 eebc 3074 65bd bed9 e7bd 2447 c73d
00000300: 1686 c73d a2f0 fdbd 5885 8ebd de75 bdbd
00000310: 2240 f63d 16ab fd3d face a03d 68ff c4bd
00000320: 2011 53bd 2058 e83b 3072 213c 98bc 09bd
00000330: dacc f03d c8c5 ae3d 7012 073c 6cca 94bd
00000340: bc42 e7bd 68b4 ce3c 9270 e5bd 7805 fa3c
00000350: 843f 00bd 8242 dd3d 0822 813d 50c9 5c3c
00000360: 44da 9abd c852 a73d da80 cebd 2cf3 99bd
00000370: 90ca a43d c0bf 693c c0b0 2e3d 98ef d03c
00000380: b8ec 643d e478 f23d 9457 033d b436 64bd
00000390: 50e5 e23d 703b 233d 4cbd 923d f825 c1bd
000003a0: 2403 05bd 9073 3c3d ba6d a93d 1016 d43c
000003b0: c8ed e33c 4e36 f1bd 04fe b43d da7b ddbd
000003c0: cc56 b43d 5475 f63d a00c f93c dcc7 74bd
000003d0: 16b8 f13d 0085 a53a d29a 80bd 2e7a cabd
000003e0: d6c1 ccbd 0838 12bd 9666 c7bd 4c6f d2bd
000003f0: 4662 bfbd cccc 703d 78af 62bd 38e0 b4bd

fc3.bias f4 [32]
0.099537045 -0.09842099 0.09013972 0.07188228 0.04008335 0.04527761 -0.009096026 -0.070727706
0.10078141 0.0006432086 -0.041060343 0.027157351 -0.057539657 0.03792143 0.055781975 -0.079382226
-0.10202716 -0.11090097 -0.046527192 -0.06897001 0.10738911 -0.033701897 0.034849346 0.111514896
0.06641404 -0.122157946 0.029444411 -0.10079345 -0.021074504 -0.074083775 0.030967548 -0.061696053
00000000: 14da cb3d f290 c9bd 2c9b b83d 0437 933d
00000010: 702e 243d 0475 393d 8007 15bc b0d9 90bd
00000020: 7c66 ce3d 009d 283a e42e 28bd 1879 de3c
00000030: b4ae 6bbd 8053 1b3d a47b 643d 2693 a2bd
00000040: 9ef3 d0bd 0c20 e3bd 4c93 3ebd 2640 8dbd
00000050: d2ee db3d 000b 0abd 30be 0e3d ec61 e43d
00000060: 1604 883d f22d fabd 6835 f13c cc6c cebd
00000070: 70a4 acbc 3cb9 97bd a8af fd3c 00b5 7cbd

fc4.weight f4 [10, 32]
-0.17486095 -0.11653888 0.15302621 0.0948322 0.06240329 0.16949217 -0.036559016 0.14368354
0.111587 0.04489857 -0.17637345 0.009658262 -0.08495245 0.15614901 -0.13608655 0.1194966
-0.09902265 -0.16821368 0.16940863 0.11839859 -0.15248531 -0.055806704 0.047512263 -0.010550365
-0.12653144 -0.13220419 -0.16811056 0.13701518 0.16267969 -0.09622332 -0.113353185 -0.06652853
-0.11232525 -0.15090059 -0.069575846 -0.04562536 -0.01630634 0.10666986 0.15156747 0.12504707
0.11229004 -0.05077699 -0.17345907 0.017973885 0.05060941 0.02533339 -0.027979746 -0.010068327
0.12003131 -0.06956554 0.046159506 -0.009915367 0.083632156 0.046098143 0.11166917 -0.14141434
0.1635363 0.16918756 0.003702134 -0.047332138 0.0875368 -0.08260059 -0.03010425 -0.06396284
-0.16109155 -0.15120468 0.16724385 -0.0021605939 -0.0066266656 0.14336245 -0.119151756 0.024473727
-0.1752929 0.12643795 0.040673986 0.03437327 -0.15613651 0.021538138 -0.09909993 0.049824804
0.12277384 -0.015365079 0.16717322 0.12209116 0.03137946 0.049841553 -0.14460166 -0.050012454
0.0994523 -0.04941021 0.15888377 -0.16796924 0.110739276 -0.10772545 -0.06552214 -0.1703704
0.053863496 0.05473599 0.057182014 0.13779594 -0.11815418 -0.032264933 -0.14710331 0.064257085
0.10426162 -0.13324313 0.17529212 0.14518161 -0.03150247 -0.04984583 -0.0255405 0.1665159
0.16731279 -0.11855255 -0.033434942 0.024985075 0.03096959 -0.10584081 0.13110922 -0.13526443
0.05418609 0.08013843 0.09828393 0.039756805 0.17033397 -0.14470178 0.1642075 -0.04668589
0.052517414 0.16702692 -0.045924574 -0.105585165 -0.13113853 -0.17230828 0.04466383 -0.01548551
0.12942217 0.10924171 -0.11678013 0.13125719 -0.060942277 0.12375228 -0.03709081 0.14484255
0.003428474 0.036174506 0.037484348 0.14048176 0.028403714 0.052434236 -0.07408419 -0.018146515
0.13813372 0.1001081 0.14694358 0.15744148 0.033427566 0.10869376 0.17124508 -0.11889845
0.08509903 -0.10145134 -0.12362115 0.050148338 0.08472903 -0.0016592443 0.17431886 0.12706088
-0.14016797 -0.1164462 0.13213487 0.13524063 0.16597022 0.13362975 0.026928172 -0.049097627
-0.05680552 0.17616062 -0.06408854 -0.17465256 -0.09170423 -0.16152562 0.1377451 -0.11916079
-0.09108311 0.116052136 -0.036172315 -0.04706739 0.04041931 0.10025178 -0.11726861 0.061269596
-0.015040666 -0.13500467 0.08541198 0.0010710806 0.1541201 0.025195345 -0.032580838 -0.15336208
-0.13516863 -0.13554037 -0.090835854 -0.1708952 -0.16133355 0.13711251 -0.023237512 -0.1220607
-0.094155155 -0.06201584 0.054301783 0.11251803 0.14385898 -0.09545416 -0.14726432 0.06622681
0.08715917 0.14177199 0.14079018 -0.13086537 -0.018010065 -0.019579679 -0.019132197 -0.16187152
0.16447385 -0.011571825 -0.13541058 -0.13185239 0.017784014 0.041961104 0.07813279 0.17655386
-0.1168825 0.13754363 -0.029570356 -0.08359661 0.07864101 0.031531468 0.14463465 0.0039796084
-0.077623494 0.17531078 0.013745397 0.037900135 0.10529588 0.03760706 -0.1604415 0.05193147
-0.10547952 -0.0055395663 -0.08748487 -0.14746487 -0.022558674 0.10096203 0.14082883 0.11046632
00000000: c00e 33be f0ab eebd e7b2 1c3e 6237 c23d
00000010: 989a 7f3d 5b8f 2d3e e8be 15bd c721 133e
00000020: ba87 e43d 90e7 373d 3e9b 34be b03d 1e3c
00000030: 8dfb adbd 87e5 1f3e 465a 0bbe a2ba f43d
00000040: 63cc cabd 3540 2cbe 7579 2d3e f67a f23d
00000050: 1c25 1cbe 9295 64bd 389c 423d 70db 2cbc
00000060: 7591 01be 8960 07be 2d25 2cbe b54d 0c3e
00000070: 8195 263e bb10 c5bd b725 e8bd 1c40 88bd
00000080: c80a e6bd af85 1abe c87d 8ebd a8e1 3abd
00000090: e094 85bc ba75 da3d 8134 1b3e 570c 003e
000000a0: 52f8 e53d 88fb 4fbd 419f 31be f83d 933c
000000b0: d04b 4f3d f887 cf3c c835 e5bc a0f5 24bc
000000c0: fad2 f53d 6178 8ebd c011 3d3d 1074 22bc
000000d0: 5647 ab3d 68d1 3c3d ceb2 e43d ecce 10be
000000e0: 0f76 273e 813f 2d3e 809f 723b 58df 41bd
000000f0: 7e46 b33d 802a a9bd 309d f6bc f3fe 82bd
00000100: 2ff5 24be 66d5 1abe f941 2b3e c098 0dbb
00000110: 8024 d9bb 9bcd 123e d605 f4bd 207d c83c
00000120: fb7f 33be f378 013e c499 263d fcca 0c3d
00000130: 40e2 1fbe c070 b03c e7f4 cabd 1815 4c3d
00000140: da70 fb3d d0bd 7bbc 752f 2b3e ee0a fa3d
00000150: c087 003d a826 4c3d 7512 14be dcd9 4cbd
00000160: a6ad cb3d 5c62 4abd 6db2 223e 2100 2cbe
00000170: 46cb e23d 299f dcbd 7930 86bd 9475 2ebe
00000180: f89f 5c3d d832 603d b037 6a3d 611a 0d3e
00000190: d2fa f1bd 3c28 04bd 40a2 16be 3899 833d
000001a0: 1e87 d53d e370 08be c77f 333e 7daa 143e
000001b0: bc08 01bd 242b 4cbd 503a d1bc 2583 2a3e
000001c0: 0b54 2b3e aecb f2bd 14f3 08bd 80ad cc3c
000001d0: f0b3 fd3c 11c3 d8bd 7f41 063e c282 0abe
000001e0: 3cf2 5d3d 9e1f a43d 1649 c93d 08d8 223d
000001f0: 076c 2e3e b42c 14be 0326 283e b439 3fbd
00000200: 801c 573d 1b09 2b3e 681b 3cbd 093d d8bd
00000210: 2e49 06be 9571 30be 6cf1 363d f0b6 7dbc
00000220: 3f87 043e 1eba df3d 6c2a efbd 4968 063e
00000230: 9c9e 79bd d671 fd3d 88ec 17bd 9b51 143e
00000240: 40b0 603b b82b 143d 3089 193d 73da 0f3e
00000250: e8ae e83c 48c5 563d 74b9 97bd 00a8 94bc
00000260: ed72 0d3e 7a05 cd3d 6178 163e 5738 213e
00000270: 58eb 083d d69a de3d df5a 2f3e 0881 f3bd
00000280: 6648 ae3d b8c5 cfbd 162d fdbd 5868 4d3d
00000290: 6a86 ad3d 007b d9ba a580 323e 3f1c 023e
000002a0: 3188 0fbe 587b eebd 5d4e 073e 857c 0a3e
000002b0: 19f4 293e 3dd6 083e 7898 dc3c 981a 49bd
000002c0: e8ac 68bd 7363 343e da40 83bd 1fd8 32be
000002d0: 6dcf bbbd f966 25be 0d0d 0d3e 930a f4bd
000002e0: c889 babd beac ed3d 6c29 14bd bcc9 40bd
000002f0: b88e 253d ce50 cd3d 862a f0bd d4f5 7a3d
00000300: 206d 76bc aa3e 0abe 7aec ae3d 8063 8c3a
00000310: a9d1 1d3e 7866 ce3c 7c73 05bd f30a 1dbe
00000320: a569 0abe 18cb 0abe 2608 babd 27ff 2ebe
00000330: 9f34 25be 3967 0c3e 985c bebc f6fa f9bd
00000340: 6bd4 c0bd 5204 7ebd 8c6b 5e3d da6f e63d
00000350: c54f 133e 787d c3bd 75cc 16be eca1 873d
00000360: 8280 b23d ad2c 113e 4d2b 103e 9201 06be
00000370: d889 93bc 9065 a0bc 20bb 9cbc a6c1 25be
00000380: d56b 283e c097 3dbc 12a9 0abe 5004 07be
00000390: c8af 913c 68df 2b3d 1604 a03d 89ca 343e
000003a0: 1860 efbd 3dd8 0c3e 883d f2bc b334 abbd
000003b0: 8a0e a13d 2427 013d 1b1b 143e 6067 823b
000003c0: 11f9 9ebd ab84 333e 6034 613c 2c3d 1b3d
000003d0: 5ea5 d73d dc09 1a3d c74a 24be 18b6 543d
000003e0: a605 d8bd 4085 b5bb 442b b3bd 0801 17be
000003f0: f8cc b8bc 2ec5 ce3d 6f35 103e 2a3c e23d

fc4.bias f4 [10]
-0.1222875 0.11567311 0.17306603 -0.098833725 0.021799847 -0.14883941 -0.0094233155 0.13071845
-0.090237476 0.09579204
00000000: de71 fabd 06e6 ec3d 3938 313e 5669 cabd
00000010: 9895 b23c 5c69 18be 4064 1abc 0fdb 053e
00000020: 6dce b8bd 9e2e c43d
