COMP 219 Advanced Artificial Intelligence /Resilience-to-Adversarial-Attack-main/ep0.06num30epoch10batch32_64.pt (torch, 446863 bytes, 8 tensors)

fc1.weight f4 [128, 784]
000000 62 e0 b0 3c 67 60 97 bc 77 de 23 bc 66 2d 9c 3c
       0.021591369 -0.018478585 -0.01000177 0.019064616
000010 db a2 92 bc cc 14 9c 3c 64 d6 12 ba 29 9e 42 3c
       -0.017899921 0.019052885 -0.00056014047 0.011878529
000020 76 f7 a7 ba 3e 30 c4 bb 7b 54 18 ba b5 ed c5 bb
       -0.0012814838 -0.005987196 -0.00058109284 -0.0060403
000030 ca 4a 45 3c 0a 4a b0 bc 60 21 d6 bc 44 c1 13 bc
       0.012041757 -0.02151968 -0.026138961 -0.009018246
000040 dc 1a 10 ba 10 30 1f bc aa 58 a6 3c aa 98 90 3b
       -0.00054971664 -0.009716049 0.02030595 0.00441273
000050 74 ad 29 bb ee 69 70 bc ed 29 e7 bb 70 91 95 bc
       -0.002589074 -0.014673693 -0.0070545585 -0.018257827
000060 e6 10 3a bc a0 35 fc 3b f5 42 96 3c 31 29 2b 3c
       -0.011356568 0.0076968223 0.018342474 0.0104468325
000070 55 34 c2 bc 02 74 cb 3c 74 eb 92 3b fb 50 02 3d
       -0.023706594 0.02483559 0.0044836346 0.03181551
000080 d5 1c a3 3c d9 15 f2 bc f9 91 0c bd f0 83 ac bc
       0.01991121 -0.029551433 -0.034318898 -0.021059006
000090 45 86 9a 3c 5c 9d d8 bc 74 40 32 bc d2 a9 82 bb
       0.018862853 -0.026442222 -0.010879625 -0.0039875293
0000a0 0f 80 00 3d 63 dd bc bc 61 ad 51 3c bc 56 c0 bb
       0.031372126 -0.023054784 0.012797684 -0.0058697145
0000b0 be 88 bb bc 1a d3 7d 3c 31 87 16 bd 51 f8 87 3b
       -0.022892352 0.015492225 -0.036750022 0.0041494747
0000c0 a1 c2 06 bc 24 9b d4 3b 48 ed 98 bc e9 bc a4 bb
       -0.008225114 0.0064882208 -0.018667832 -0.0050274027
0000d0 c4 be 9e 3c 6d 31 83 bc da 09 03 3d 2c 97 b5 3c
       0.019378074 -0.016014779 0.031991817 0.02216681
0000e0 59 66 ab bb 8b 40 a4 bc 6e d3 9d 3c 63 a2 bb 3c
       -0.0052307067 -0.020050308 0.019265857 0.02290458
0000f0 75 aa 43 bc d0 ea be 3c 4b 32 cb 3c b4 0c f8 3c
       -0.011942496 0.023305327 0.024804255 0.030279495
000100 de ea b6 bc f2 89 98 bb 56 a6 2d 3c 70 b0 33 3c
       -0.02232879 -0.0046551162 0.01059874 0.010967359
000110 d7 5a ab bc 26 02 d0 bc d1 62 e9 3c fe 53 e3 bb
       -0.02091734 -0.02539165 0.028489502 -0.006937503
000120 5d 0e c2 3c ca 0a 5b 3b 55 c6 05 3c fc a8 62 3b
       0.02368849 0.0033423179 0.008164962 0.0034585586
000130 dd 5e 05 3c ad a4 0d 3d 3a c5 9e bc b0 63 c5 3c
       0.008140293 0.034580875 -0.019381154 0.024095386
000140 c5 e0 b4 bc ed 9a f3 bc 11 d2 5e 3a 03 82 fd 3b
       -0.022079835 -0.02973696 0.000849993 0.007736446
000150 f8 40 47 3c 5c 2f c6 bc 84 8c c8 bc e8 58 cb 3c
       0.012161486 -0.024192505 -0.024481066 0.024822667
000160 e7 2b ee b9 2a 18 e2 3c 8e 25 c9 3c 21 37 f7 bc
       -0.00045427607 0.027599413 0.02455404 -0.030177655
000170 fe 8d 99 3c 0e f5 3e 3c 3a b0 a7 bc 87 94 32 bc
       0.018744465 0.011655105 -0.020469774 -0.0108996695
000180 61 53 ab 3c 33 5b 64 3c 27 1e 95 bb 24 97 98 bb
       0.020913782 0.013937759 -0.0045507136 -0.0046566892
000190 ee 4a 28 3d 68 1c 8e 3a 61 c9 02 3d 54 b8 af 3c
       0.041087084 0.0010842206 0.03193033 0.0214502
0001a0 a5 73 95 bc 18 e5 7b bc 21 6b 67 3d a9 29 6a 3c
       -0.01824362 -0.015374444 0.05649865 0.014292159
0001b0 a0 da 04 3d 15 32 4f 3c d3 a3 f2 3b da aa 98 3c
       0.03243506 0.012646218 0.0074047833 0.018636156
0001c0 f5 24 e6 3c bc 27 4a bc c4 cb 2d 3c e5 e9 b1 3c
       0.028093794 -0.012338575 0.010607664 0.021717975
0001d0 f7 ea 1d 3d a1 d0 4b 3d c1 2a 33 bb a4 89 81 bc
       0.038554158 0.04975951 -0.0027338716 -0.015812702
0001e0 25 cb 1c bc d9 b3 57 3c be 6d 23 3d dc f7 85 bc
       -0.009569918 0.013165438 0.03989958 -0.01635354
0001f0 59 bc df 3c 74 e7 98 bb 91 4e 50 bc 57 16 09 3c
       0.02731149 -0.0046662632 -0.012714044 0.008367143
000200 f8 27 a3 3c 64 35 23 3d 96 6e 8f bc e4 9b 59 3c
       0.01991652 0.03984584 -0.017508786 0.013281796
000210 35 b5 2b 3d d1 8c c3 3c cf 11 5f 3d 6e ce 38 3d
       0.04192086 0.023870857 0.054460343 0.04511874
000220 0f a5 c1 3c 45 fd d1 3b 51 8e 3e bc 04 9e e3 bc
       0.023638276 0.006408366 -0.011630611 -0.027785309
000230 c3 c5 95 bc 79 25 c2 bb 75 8d 97 ba 00 92 70 3c
       -0.018282777 -0.0059248772 -0.0011562543 0.014683247
000240 11 fc 7f 3c 44 15 c7 3c 69 f8 11 3d 0d a3 66 3c
       0.015624062 0.024302132 0.035637293 0.01407696
000250 1b d4 cf 3c 9c 75 aa 3c d8 c6 72 bc 3e af 00 3d
       0.025369694 0.020808034 -0.014817916 0.031417124
000260 f7 f7 72 3b 3b 5c 59 3c 62 d5 69 bc 88 02 91 bc
       0.0037074068 0.013266618 -0.014272066 -0.017701402
000270 de 8b 4e bc 87 a3 48 bb 48 30 23 3d d5 cc c4 ba
       -0.012606589 -0.0030615048 0.039840966 -0.0015014658
000280 52 7f 15 bc 64 45 c5 3c 88 87 3a 3d 80 6d 49 3d
       -0.009124594 0.02408094 0.04553941 0.049176693
000290 35 38 41 bb 9a ce 8f 3c ca 05 30 bc fb f6 c1 bb
       -0.0029482965 0.01755457 -0.010743568 -0.005919335
0002a0 a5 2f b0 bc 88 e9 b2 bb ab 1f c5 bb 61 c0 70 3c
       -0.021507094 -0.005459968 -0.006015738 0.014694304
0002b0 d7 04 ae 3c 45 5f 2c 3d b9 e4 62 3d ab 74 34 3d
       0.021242542 0.042083044 0.05539391 0.044056576
0002c0 e5 1b fe 3c b6 d4 21 3b 54 68 8c bc 00 82 bf 3c
       0.03101916 0.0024693436 -0.017139591 0.023377419
0002d0 98 57 2d bc 08 c7 8d 3c 4e bc f4 bb dd 64 80 3c
       -0.010579966 0.01730682 -0.0074687367 0.015673095
0002e0 80 74 91 bc 4e 32 0e 3d 6d f4 59 bc dd 65 6c bc
       -0.017755747 0.034715943 -0.013302905 -0.014428583
0002f0 ba 57 fc 3b 89 e4 12 bc 07 dc 39 3d 69 bc a1 3c
       0.0077008875 -0.00896562 0.04537585 0.019743161
000300 04 ca 9d bb 5d 43 0d 3c 69 66 df 3c 8c 54 55 bc
       -0.004815342 0.008622018 0.027270513 -0.013020646
000310 d7 39 9a 3c ed cf 88 3c 1a fb af 3c eb 2d 0c bc
       0.018826408 0.01670071 0.02148204 -0.00855587
000320 19 60 d6 3c 48 c1 2b 3c 46 d7 56 3d 41 e5 f1 bb
       0.02616887 0.010483094 0.052451394 -0.0073820655
000330 68 13 f8 3c 72 60 00 3c 6e 7f 8a 3b 5d 8c 8f bb
       0.030282691 0.007835494 0.0042266166 -0.0043807463
000340 f2 15 36 3b 02 35 00 3d 20 c4 ab 3c bd cf 91 3c
       0.0027784077 0.031300552 0.020967543 0.017799253
000350 1a 16 0b bd 00 50 ee 3c 99 0d 07 3d e3 5e fe 3c
       -0.033956625 0.029090881 0.032971952 0.031051105
000360 35 c5 f1 3c cc 20 83 bc 28 5d 07 3c 57 89 6f 3d
       0.029512981 -0.01600685 0.008261956 0.058480587
000370 14 7e 9a bc f0 4c 81 3c 4a d9 1a bd 6b 37 80 bc
       -0.018858947 0.015783757 -0.03780488 -0.015651425
000380 bf eb ee 3b 7d 89 89 bc 87 fe 3b bb 8e 1c 0c 3d
       0.0072912867 -0.016789192 -0.0028685646 0.03420692
000390 0f 2e 47 3d a1 4d 8c 3d 27 ed 6e 3c 7c 08 35 bc
       0.04862791 0.06850744 0.014582909 -0.011049386
0003a0 b5 2d 21 3d fd 72 f6 bb 01 6c b8 bc cd 1e 87 3c
       0.03935023 -0.007521032 -0.022512438 0.01649418
0003b0 60 f8 a1 bc 7d 1f c3 3c cd 3b e3 3c f7 c2 91 bc
       -0.019771755 0.023818726 0.027738476 -0.017793162
0003c0 f8 8b f0 bc cd fa 28 3c bd 5e 98 3c 52 26 4b 3b
       -0.029363617 0.010313702 0.018599862 0.0030998182
0003d0 b9 62 5b 3b e9 aa 9b 3b 13 a3 93 bc 1e a8 bc ba
       0.0033475591 0.0047505987 -0.018022096 -0.0014393365
0003e0 fc 8a 80 bc 7c 92 92 3c 9f 86 e6 3c 14 42 90 bc
       -0.015691273 0.017892115 0.028140364 -0.017609634
0003f0 66 12 cc 3b 2d c0 39 3c 8a 29 97 3c 93 31 70 bc
       0.006227779 0.011337322 0.018452425 -0.014660257

fc1.bias f4 [128]
000000 a2 ad f5 bc e2 9b cd bb 76 a7 9d 3b 34 8e 92 bb
       -0.029990021 -0.006274686 0.0048112227 -0.0044725183
000010 37 dc 64 bc aa 6c fb 3d e1 c1 1b 3d 71 ac 12 3d
       -0.013968519 0.122765854 0.038026694 0.035808984
000020 d5 dc 13 3c df 9c 0f 3e 28 c9 20 3a 35 d4 1a bd
       0.009024818 0.14024685 0.000613349 -0.037800033
000030 e7 89 b4 3d 3d 98 ab 3d 5e 13 04 3d a0 3e 9b 3c
       0.08815365 0.083786465 0.032245032 0.01895076
000040 9a 66 e6 3d e1 98 a0 3c 2d b5 70 3c 75 15 3f bd
       0.112500384 0.019604148 0.014691633 -0.046651322
000050 69 ba 7a 3c 02 5a b3 bd 2c c6 b1 bc 1f c4 05 bc
       0.015303233 -0.08757402 -0.021700941 -0.008164435
000060 46 a7 dc 3c 09 1b 6f 3b dd 0f bc bc 6e bf a6 bb
       0.026935231 0.003648462 -0.022956783 -0.005088738
000070 7a 63 5a 3c cd 93 69 bc 16 4c 19 3d 8f 6d ef bb
       0.013329381 -0.01425643 0.037426077 -0.0073067616
000080 e3 a8 33 bc 5d 21 78 ba 44 1a 86 bc b5 19 e4 ba
       -0.010965559 -0.0009465421 -0.016369946 -0.0017402681
000090 49 e7 25 bd 64 90 b8 bc 87 fc 9d 3c 3f c1 e3 3c
       -0.040503774 -0.022529788 0.019285453 0.027802108
0000a0 b4 84 4d 3d f6 6d 03 bd 77 83 e5 3c be c5 09 bd
       0.050175384 -0.03208729 0.028016789 -0.033635847
0000b0 03 af 77 3c 52 26 1c 3d dc 77 4c 3c 3e 02 e6 3d
       0.01511741 0.038122483 0.012479749 0.112308964
0000c0 e8 e1 f2 3b 28 7a 4c bd 4a ca eb 3c ee 44 d3 3b
       0.007412184 -0.049921185 0.028782982 0.006447426
0000d0 fc c7 02 be 68 f8 9e 3b 19 7c b2 3c fe 53 5c 3b
       -0.127716 0.0048513897 0.02178769 0.00336194
0000e0 5d d4 23 3d 43 09 61 bc ae eb c5 bc 04 3e 3e bc
       0.039997447 -0.013735118 -0.024160232 -0.011611465
0000f0 ab 89 9d 3d 90 7e 5f 3d 25 a6 c4 3b a0 68 6a 3d
       0.07692274 0.05456406 0.0060012513 0.057228684
000100 08 61 d4 3b ad 32 12 bd 48 de bd bc 11 09 73 3d
       0.0064812936 -0.03569286 -0.023177281 0.05933482
000110 a2 45 9f bb cc 9c cc bd bc a5 4e 3c 44 0b bd 3d
       -0.004860596 -0.09990844 0.012612756 0.09230664
000120 d2 aa 35 bd 91 7b fd bb 94 6d 74 3c 74 e3 8d bd
       -0.04435236 -0.0077356775 0.014918704 -0.06928149
000130 d7 94 eb 3d a9 b5 9e bd ab 41 4e bc 8d ad 75 3d
       0.11502998 -0.07749493 -0.012588899 0.059979964
000140 2c 36 cf 3d 52 5f 08 bd f7 80 65 3b fd b4 21 bd
       0.10117754 -0.03329403 0.0035019496 -0.039479245
000150 42 ce f3 bc e4 0a b3 3d 38 c3 d3 3c 77 f7 0d 3d
       -0.029761437 0.087423116 0.025849923 0.03465983
000160 2a 02 39 bc db d4 d7 3d 80 ac 93 bc d0 03 29 3d
       -0.01129202 0.10538646 -0.01802659 0.0412634
000170 cc 5b 8c 3d 21 9d 41 3d b2 1e 18 bd a8 ac 51 3c
       0.06853446 0.04726899 -0.03713865 0.012797512
000180 44 40 10 3c 8a e8 1f 3e 6b e6 4e 3c a9 0c 64 3d
       0.008804385 0.1561605 0.012628178 0.055676136
000190 01 d4 2a 3d ab 8d fe 3c 62 18 1d bd 4a 6d f6 bb
       0.04170609 0.031073412 -0.03835333 -0.0075203525
0001a0 7f fb b5 3c 68 39 df 3d 1d a8 b4 3d f2 3f 29 3d
       0.02221465 0.10899621 0.088211276 0.04132075
0001b0 c7 f8 57 bc b3 75 60 ba 76 d5 e5 bc 19 89 f5 3c
       -0.013181872 -0.00085624604 -0.028055888 0.0299726
0001c0 6e 3a 2e b8 2b 31 3b bc 7c c8 d7 bc 8a c5 f3 bb
       -4.153925e-05 -0.011425297 -0.026340716 -0.00743932
0001d0 5c 07 7f 3d d5 d1 4b bc da 00 68 bc 31 69 df 3d
       0.062262878 -0.012440165 -0.014160359 0.109087355
0001e0 28 49 16 3c c6 2e dd 3b e4 04 05 3d 3b ff 88 bd
       0.009172715 0.0067499606 0.032475367 -0.06689306
0001f0 b2 ba 8c bc 04 5e bd bb 6c 0a db 3d 47 ed 87 bc
       -0.017178867 -0.00577903 0.10695347 -0.016592635

fc2.weight f4 [64, 128]
000000 30 2a 95 3d c7 2b 5d 3d 59 b7 c0 bc fd 48 0c 3c
       0.07283437 0.053996827 -0.023524927 0.008562324
000010 00 e7 87 bd 4e 6c c9 3c 4b 2d 6d bd 07 d6 40 3d
       -0.06635857 0.024587777 -0.057904523 0.047079112
000020 0c fc 8b bd cf 3f aa bd 03 b2 67 3d 4d df 5f bd
       -0.068351835 -0.08312952 0.05656625 -0.054656316
000030 f8 a0 d5 bd a3 08 1c 3e 3d a7 a6 bd b3 19 62 3d
       -0.10431093 0.1523767 -0.08137367 0.05520029
000040 d7 87 bf 3d c3 2e df bc ad 45 b2 bc 69 3b e5 3d
       0.09352081 -0.027243977 -0.02176174 0.11192972
000050 91 d9 51 3d 16 0e 80 bd 16 a8 c7 bc 97 b6 0a 3d
       0.051232878 -0.06252687 -0.024372142 0.033865537
000060 75 57 88 3d 44 4d 12 bd 0f 02 bf bd 74 41 a0 3d
       0.06657306 -0.035718217 -0.093265645 0.07824984
000070 26 14 61 bd 34 1c 97 bd 5d 0b cd 3d 53 f8 3e bd
       -0.054950856 -0.07378426 0.10011933 -0.04662354
000080 08 e0 ed bd a4 07 8b 3d fb c4 4e 3d 0a 7f 86 bc
       -0.11614996 0.06788567 0.050480824 -0.016417999
000090 b6 39 2e 3d 89 d6 86 bd 5b 90 86 3d 6d 66 38 3e
       0.042535506 -0.06583888 0.06570502 0.18007822
0000a0 5d 36 f6 bc 0a 27 c7 3d 48 92 3d bd 6e db a8 3c
       -0.03005522 0.09724243 -0.046282083 0.020612445
0000b0 73 df 7a 3d 4f e6 84 bd c1 bf 64 bd 46 d2 b7 3d
       0.061248254 -0.064892404 -0.055846933 0.08975653
0000c0 86 bc 21 bd d3 32 2c bc 1f 2d a4 bd fa c8 9d bd
       -0.03948643 -0.010510164 -0.08016419 -0.07704349
0000d0 ad b0 27 bd f5 e0 8c bd cd ff 81 bd 5d 95 ab 3c
       -0.040939976 -0.06878845 -0.06347618 0.020945245
0000e0 5e f2 53 3d ff 31 58 bd 85 46 bb 3d 33 1d 70 3d
       0.05174481 -0.052782055 0.0914431 0.058621597
0000f0 1b e5 e8 3d a4 c4 6e 3d 0a 0b 2d 3d 38 84 79 bd
       0.113718234 0.058293 0.042246856 -0.06091711
000100 4b 35 8f bd 7a fc ca 3d 16 49 8f 3c fb 1f 83 bd
       -0.06992587 0.09911437 0.017490905 -0.06402584
000110 2c 2b 2c 3d b1 bd 76 3d c6 df b1 3d 64 1d 85 3d
       0.04203336 0.060239498 0.086852595 0.064997464
000120 7f 8f c5 3d 22 99 3d bd 81 63 1c bd 9c ef 0a be
       0.0964651 -0.046288617 -0.03818083 -0.13567966
000130 1f 05 87 3d c3 df 99 3d 5e 56 b2 3d 9d f0 39 bd
       0.06592774 0.07513382 0.087078795 -0.045395482
000140 e3 2f db 3c 2f a5 f1 3c 2e ae 68 3d 8e c1 f1 bc
       0.026756233 0.029497711 0.056806736 -0.02951124
000150 8c 67 57 bc 06 5b d0 bc 82 1f f8 3c 73 36 38 bd
       -0.013147246 -0.025434028 0.030288462 -0.0449738
000160 9d 35 0a 3e 1e f5 8e 3d 63 a4 71 3d fb 67 9e 3d
       0.13497014 0.06980346 0.058994662 0.077346765
000170 c2 c8 52 bd 90 5f 8a bc fc d8 a9 3d e5 f4 93 bd
       -0.05146099 -0.01689127 0.082933396 -0.07224444
000180 f7 e2 17 3d e9 63 d8 3d f8 a9 ad 3b 18 e5 db 3d
       0.037081685 0.10565931 0.005299803 0.107370555
000190 42 f8 92 3d 40 05 9b bd 5f ba 46 3c d9 88 8e 3d
       0.07176258 -0.07569361 0.012129395 0.06959695
0001a0 26 22 2b bd 73 1c a8 bd 48 21 9f 3c ac 5a db 3d
       -0.041780613 -0.08208551 0.01942505 0.10710654
0001b0 d8 6b 91 3b 82 d7 a4 3d 64 68 c3 3a 14 c5 5d 3d
       0.004437905 0.08048917 0.001490843 0.054143026
0001c0 66 e6 ee bc 4f 98 97 bd 92 48 29 3c 45 75 b4 3d
       -0.029162597 -0.074020974 0.0103322435 0.0881143
0001d0 0a d8 d4 3d 4a 4e 1f 3b 7b 8f a8 bd b5 bd 65 3d
       0.10392769 0.0024308139 -0.08230492 0.05608912
0001e0 52 f3 98 b9 5b f2 a6 3d 9d c3 84 bd 3b 0f e5 3d
       -0.00029172987 0.081516944 -0.06482623 0.111845456
0001f0 3d db 3c 3d 62 f8 81 3d 06 d2 1f 3c 08 0e ac bd
       0.04610752 0.063462034 0.009754663 -0.08401114
000200 a7 5b 94 3d 96 45 53 bd 3d 2a 74 3d 3c a3 03 bd
       0.07244044 -0.051580034 0.059610594 -0.032138094
000210 ec 0e da bc 44 67 08 be 74 f7 3c 3e 6a ab 20 bb
       -0.026618443 -0.13320643 0.18453771 -0.0024516233
000220 ae 54 34 39 eb ca 63 bd 05 02 33 bd e3 5c 83 3d
       0.00017197683 -0.05561344 -0.043703098 0.06414201
000230 52 d1 0b 3d a5 61 3e 3d 86 d1 13 3e b3 66 d5 3c
       0.03413517 0.04647984 0.14435396 0.026049947
000240 9c 68 18 be 36 8b c1 3d d1 2e 1d bd ac 02 9d bd
       -0.14883655 0.094503805 -0.038374726 -0.07666525
000250 fa 3e ba 3d 5f f5 0b bb 3f 57 19 3d 70 6f 8c bc
       0.09094043 -0.002135597 0.03743672 -0.017142981
000260 60 0c a1 bd 99 36 11 bc 99 17 77 3d 77 35 2f bd
       -0.078636885 -0.008863115 0.06032524 -0.042775597
000270 f9 ef b6 bd 0e 3c 1b 3a 21 84 e2 bd a1 bb 16 3e
       -0.0893249 0.00059217296 -0.11060358 0.14720012
000280 88 cf 58 bd 6c 3d 0a be 28 2a 80 3c 5e 05 b7 bd
       -0.052932292 -0.13499993 0.015645102 -0.089365706
000290 d8 06 bd bc c7 7e 34 bd 42 f4 25 bd 52 53 a0 3d
       -0.023074552 -0.044066217 -0.040516146 0.07828392
0002a0 4b b5 38 3e 01 e8 29 3a 90 8a 5f bd 64 1c 1c be
       0.18037908 0.00064814097 -0.054575503 -0.15245205
0002b0 9d 54 2e bd 1a 68 46 3d a4 20 30 bd b6 c7 a8 bd
       -0.042561162 0.048439123 -0.04299988 -0.08241217
0002c0 a8 e3 56 3d 57 28 22 be dc 36 0e be 47 5d 7a 3c
       0.052463204 -0.15835701 -0.13888115 0.015281028
0002d0 e4 b0 94 3d 9a 3f 32 3d 54 0b b9 3c 2f 5b 38 3d
       0.07260302 0.043517686 0.02258841 0.045008834
0002e0 71 61 98 3c b6 b2 07 3d fb 16 4a 3e 38 2e 2f bd
       0.018601151 0.033129416 0.19735329 -0.042768687
0002f0 e0 64 35 bd c4 70 bf bd f1 08 5e 3c e1 0c 12 bd
       -0.044285655 -0.0934768 0.0135519365 -0.035656814
000300 9a db 3e bd cb 3b 46 3d 32 e8 9b 3c 97 70 7e bd
       -0.046596147 0.048396867 0.019031618 -0.062119093
000310 e3 bf f8 bd 7c e2 f0 bd 0b 27 86 3d 49 c2 8f bd
       -0.121459745 -0.117619485 0.065504156 -0.07019479
000320 2b 72 84 3d 37 41 9e 3d 20 7c c2 bb 8a 6e c1 3d
       0.06467088 0.077272825 -0.005935207 0.09444912
000330 ff 9d 99 bd 39 8e 1a 3e 6b 65 91 3d 92 3a b8 bd
       -0.075008385 0.15093316 0.07099422 -0.089955464
000340 ae f9 bb 3d 6c 73 47 bd 8f 6c 25 bd a1 ff b5 bd
       0.09178482 -0.04869406 -0.040386733 -0.08886648
000350 60 28 6d bd d2 49 d5 3c b9 d5 b4 3d d9 89 b0 bd
       -0.057899833 0.026036177 0.08829827 -0.08620042
000360 39 b4 86 3c 9d cd c9 bd 4a 69 28 bd cc 10 cf bd
       0.016443359 -0.09853671 -0.041116036 -0.101106256
000370 83 98 99 3d d8 ff d3 bd 39 5a 89 3c a2 5d 32 bd
       0.074997924 -0.10351533 0.016766654 -0.043546326
000380 e2 01 87 bd 4b 79 1f 3d ea 2e 9a 3d 75 03 e9 bc
       -0.06592156 0.038934033 0.075284794 -0.028444031
000390 84 4b cd bb 54 ac 9a 3b 5c df fa bd 7f b3 b2 bc
       -0.0062651057 0.00472025 -0.12249634 -0.021814106
0003a0 85 dc 14 3d ff 72 5c 3d be 8f be bc 12 70 8a bb
       0.036343116 0.053820606 -0.023261901 -0.0042247856
0003b0 84 0a 3f bd dd ba 0f 3d 6c 86 8c 3d cc 6e 0f bd
       -0.046640888 0.035090316 0.068615764 -0.035017774
0003c0 e0 c5 92 3d dd bd 27 3d 59 f4 76 3d 79 cb ad bd
       0.07166648 0.040952552 0.06029162 -0.08486075
0003d0 12 05 6b bd d4 8a f4 3d 21 20 10 3e d9 76 10 3d
       -0.057377882 0.11940542 0.14074756 0.035269592
0003e0 f4 19 5f 3c 4a 74 9c 3d 4d 27 5a 3d de a3 0f 3e
       0.013617028 0.07639368 0.053260136 0.14027354
0003f0 8b 88 f9 b9 e4 07 ae bd 2f 50 3a 3d 43 de 59 3d
       -0.00047594713 -0.08497599 0.045486625 0.05319048

fc2.bias f4 [64]
000000 e5 bc bd bd 63 2b 2d 3d 7d 7c 2f bd e9 d9 02 3e
       -0.092645444 0.042277705 -0.04284333 0.12778439
000010 90 26 42 3e f7 52 20 bd ae 72 c7 3c 3a d5 46 bd
       0.18960023 -0.03914162 0.024346676 -0.048543192
000020 fe 1f 54 3e ac e6 27 bd 80 ab 23 be 05 a5 41 bd
       0.20715329 -0.04099147 -0.15983391 -0.047276516
000030 aa 1e f5 bb 28 e9 67 be c3 fb 8c bd 58 75 0c bd
       -0.007480462 -0.22647536 -0.06883957 -0.034291595
000040 a1 7d 75 be 7d 82 cb bd 4b 2e 8e bc 15 57 e1 3d
       -0.23973705 -0.09936998 -0.017356059 0.11002938
000050 be 88 55 be 3c 92 33 bd c3 17 80 3d 8b 5b 81 3d
       -0.20852944 -0.04384063 0.06254532 0.063162886
000060 07 fd 3d bd 0a 7e 2d 3e 67 43 75 bd ef 01 97 bd
       -0.046383884 0.16942611 -0.059878733 -0.07373416
000070 ac 32 87 3d b4 12 87 3d a9 b6 93 bb 03 05 cd 3d
       0.06601462 0.06595364 -0.004507859 0.100107215
000080 c2 e4 23 3e 48 11 8c 3d 0c 1a 8b bc 59 3f f4 bd
       0.16005233 0.06839234 -0.016980194 -0.11926145
000090 4f 2a 32 3d 4f b3 c8 3d d7 09 ef 3c 44 c7 8d 3d
       0.04349738 0.097998254 0.029179497 0.069227725
0000a0 2f d4 07 be e3 07 b1 3e 1d 80 a8 bd 9c b4 6a 3c
       -0.13264535 0.3457633 -0.08227561 0.014325287
0000b0 5c 1c 06 3e 6e bd f9 3d 40 de a6 3e 7f e7 47 bd
       0.13096756 0.12194334 0.32591438 -0.048804756
0000c0 92 9f b1 bd 86 e6 07 3e ae d4 25 3d b0 f4 86 bc
       -0.08673014 0.13271531 0.04048603 -0.016474098
0000d0 ab c4 41 3e 27 1d 03 3e 8e 09 95 bd 3a 0d a8 bd
       0.18922679 0.1280409 -0.07277213 -0.08205648
0000e0 ec cc 1f 3d cf 62 29 be 6d 3f 54 3e 95 6c 88 bd
       0.039013788 -0.16541599 0.2072732 -0.066613354
0000f0 46 89 b6 3a 2d 60 60 bd 0d b1 e1 bd 19 ac 7c be
       0.0013926409 -0.05477922 -0.11020098 -0.24675025

fc3.weight f4 [32, 64]
000000 70 7c 3a 3e ed 04 84 3e 33 75 0d be d7 53 41 3d
       0.18211532 0.25785008 -0.13814239 0.047199097
000010 78 cd 71 3e c7 ca db 3c b5 42 2e 3e 0a 50 8c bc
       0.23613536 0.02683009 0.17017634 -0.01712801
000020 d0 93 92 3e ef 01 a1 bd 2b 1a 0d 3e 5c f5 18 3d
       0.28628397 -0.07861697 0.13779514 0.037343368
000030 de 3a b0 3c 6f 02 12 be 97 1c 1f 3e 9a 8b c0 3d
       0.021512445 -0.14258741 0.1553825 0.09401627
000040 51 f3 99 bd 8c 46 24 be ae c4 c0 bd 4a 9c 5f bd
       -0.07517112 -0.16042536 -0.09412514 -0.05459241
000050 38 6f 49 be 85 aa 64 3d a7 0a ca 3d 17 7c ff bd
       -0.19671333 0.055826683 0.09865313 -0.1247484
000060 b2 9e 5a bd 19 c4 30 bd 0e 6b 11 3c 36 f2 b7 bb
       -0.053374 -0.043155763 0.0088756215 -0.0056135906
000070 f1 5d fe bd c9 8b 6c 3d aa 09 19 bd 4f 4c da bd
       -0.12420262 0.057750497 -0.037362732 -0.10659086
000080 52 7f f1 bc 12 55 00 bd 3c 36 b7 bc 9e 80 45 3d
       -0.029479656 -0.03133113 -0.022364728 0.048218362
000090 2c ca 82 3d 66 7c b5 3e a6 2f fd bd 43 fc cd 3d
       0.063862175 0.3544647 -0.12362604 0.10057881
0000a0 8a 55 05 3c 55 47 ac 3e f3 3a 2e 3c 4d 1f a2 3a
       0.00813807 0.33648172 0.010634172 0.0012368948
0000b0 4d fb 55 3e 50 7c 45 3d 81 73 8e 3e 46 91 90 bd
       0.20896645 0.048214257 0.27822497 -0.07058959
0000c0 3c 89 fc bd a9 d3 b7 3d ec 71 f4 bc 62 6a 13 3c
       -0.12330863 0.08975918 -0.029839478 0.008997532
0000d0 e6 39 5f 3e ce 0b b0 3e 34 13 bf 3d af b3 f8 3d
       0.2179943 0.34384006 0.093298346 0.12143647
0000e0 61 a0 87 bc ad 1a 36 3e 55 a3 c8 3d a3 d1 2d 3e
       -0.016555967 0.17783614 0.09796778 0.16974501
0000f0 79 df b7 3c b1 ec 8d 3d 13 3c 74 be 79 89 8e be
       0.022445427 0.06929911 -0.23851041 -0.27839258
000100 f5 49 6e 3e 0a ce e9 3d 41 19 41 3d da 93 da 3b
       0.232704 0.11416252 0.047143225 0.0066704573
000110 09 93 d8 bc cd 8c eb bd 77 dc e5 3d 68 17 b6 3d
       -0.0264373 -0.11501465 0.11223691 0.08891183
000120 4e 1e 5d be df 03 d2 bd 0c 1e 63 3e 1f 15 53 3b
       -0.21593592 -0.102546446 0.2217943 0.0032208634
000130 22 9f aa 3d a0 bc fc bd b7 56 5f bc 0e 02 94 3d
       0.083311334 -0.12340665 -0.013631514 0.072269544
000140 58 e3 9f bc bb c4 5c 3d 1d 51 f9 3c 48 21 be 3d
       -0.019517586 0.053898554 0.030434186 0.09283692
000150 34 7a 12 3d 0a 5d d1 3d 92 19 89 3d 5c 7a af 3d
       0.035761073 0.10222824 0.0669433 0.0856826
000160 a7 c5 e8 3d ea ca 88 3e bc 91 a5 3d 91 8a ab bd
       0.11365824 0.2671731 0.08084437 -0.08376039
000170 eb 26 80 bd 1c 89 8b b9 fb 23 26 be 27 4b 90 bc
       -0.06257423 -0.000266143 -0.16224663 -0.01761396
000180 86 1c b7 bd 30 a1 89 bd 9d 06 45 bd db f8 15 be
       -0.08940987 -0.06720197 -0.04810201 -0.14645712
000190 02 18 2e 3d 1b 32 2b 3e c8 56 38 3d 90 1a 7f bc
       0.042503364 0.16718332 0.045004636 -0.015570298
0001a0 3d a5 47 3e bf 72 c0 bd 87 29 71 bd dd f7 91 3c
       0.19496627 -0.09396886 -0.058877494 0.017818386
0001b0 c7 55 4c 3d ae 2d e4 3c ca b8 11 be d0 23 9c bc
       0.04988649 0.027853813 -0.14230648 -0.019060045
0001c0 e6 57 58 3d a6 d5 bc 3e b1 0a 1d be f5 68 d1 3d
       0.0528182 0.3688175 -0.1533611 0.10225097
0001d0 16 d8 30 3e 70 ef a9 3d 67 24 eb bc f5 6b 70 3d
       0.1726993 0.08297622 -0.028703881 0.058696706
0001e0 8c 98 06 be 6f 37 0f 3e 74 76 3d 3e 53 ca 20 3e
       -0.1314413 0.1398599 0.18502218 0.1570218
0001f0 c3 6e a1 3d f3 9f b5 bc 20 21 c6 3d 16 56 80 3e
       0.07882454 -0.022170996 0.09674287 0.25065678
000200 ec 49 84 bd 27 d3 a7 bd 36 05 68 be f0 1a 4b 3e
       -0.06459412 -0.08194571 -0.22658238 0.19834495
000210 37 3d fb bd cb d6 81 3d 05 e4 b4 3e 5c 7e 7b 3c
       -0.12267535 0.06339797 0.35330215 0.015349951
000220 44 39 4c 3e 43 e3 16 3e e3 20 39 3e 36 86 52 3d
       0.1994372 0.14735131 0.18078952 0.051397525
000230 b3 16 a3 bd c4 35 2e 3e 22 4f 00 be ea 23 cc bd
       -0.07963314 0.17012697 -0.12530187 -0.099677876
000240 4a 12 9b bc 47 13 45 bd b8 e9 19 bd ef 61 a6 3d
       -0.01892962 -0.048114087 -0.037576407 0.08124148
000250 35 29 d2 3c 0d f5 42 bd dc 18 06 bd d7 2d 54 3e
       0.025654415 -0.04759698 -0.03273855 0.20720612
000260 cf e8 c5 3d 83 6c e8 3d 50 a0 69 3b 14 fc df 3d
       0.09663545 0.11348822 0.0035648532 0.10936752
000270 11 49 56 3e 54 13 c2 bd ad 8d d1 3d a0 3b 17 bd
       0.2092631 -0.09476343 0.10232101 -0.036922097
000280 43 b0 0c be 19 1a 37 3e 2d 64 0f be 55 20 ad 3d
       -0.13739114 0.17881049 -0.14003058 0.084534325
000290 e1 af f6 bd 6f 57 9c 3b 7a b2 a4 3d 2f e6 db bd
       -0.12045265 0.004771165 0.08041854 -0.107372634
0002a0 2e 0f cd 3d 9c 15 45 be c2 5a a8 3d 47 37 dc 3d
       0.10012661 -0.19246525 0.08220436 0.10752731
0002b0 98 58 33 bd ff 18 a9 bd 38 03 b9 bd c6 d6 e9 bd
       -0.04378566 -0.08256721 -0.09033817 -0.11417918
0002c0 7c eb 41 bd a1 56 20 3e a1 c5 10 bb 3d 2d fd bd
       -0.047343716 0.15658046 -0.0022090452 -0.12362144
0002d0 a9 1f 0d 3e 31 1c 92 3e a1 1e 43 bd b6 69 aa bd
       0.13781609 0.28537133 -0.047636632 -0.08320944
0002e0 a9 26 83 3e bd 82 16 bc f5 84 ed bd b5 66 54 3e
       0.25615433 -0.009186444 -0.11597625 0.20742305
0002f0 d3 1b 80 bc 07 70 64 bd 57 4a 36 be e4 fc 5b 3e
       -0.015638268 -0.0557709 -0.17801796 0.21483189
000300 61 24 dc 3d b3 8d 2b be 54 51 08 be 60 1c 61 bd
       0.10749126 -0.16753273 -0.13312274 -0.0549587
000310 35 22 06 3e 7f ee fd 3d 7e 61 58 3e 40 3d c5 bd
       0.13098986 0.12399005 0.2113094 -0.09630823
000320 98 cf 84 3c d8 99 43 3d 4f 95 80 3b 0b db ef bb
       0.01621227 0.04775414 0.003924049 -0.007319813
000330 a4 3b ee 3d b7 6d b7 3d 59 7a db bc b4 72 92 bd
       0.11632469 0.08956473 -0.026791738 -0.07150784
000340 aa 02 67 be 20 f9 a6 bc ee 43 e5 bd b5 07 de 3d
       -0.2255961 -0.020382464 -0.11194597 0.10841314
000350 fd 35 5c bd 29 3a dd 3d f2 7c 81 3d 4a 88 a2 3d
       -0.053762425 0.10802109 0.063226596 0.07936151
000360 d9 aa 98 bd 55 6c 41 3e 20 1c ce bd fa 93 9b bd
       -0.074544616 0.18888982 -0.10063958 -0.07596584
000370 50 1a 3d 3e d1 c1 08 3d e8 c0 1e 3e 50 80 8a 3d
       0.18467069 0.033387963 0.15503275 0.06762755
000380 0b f5 9d 3d 64 60 31 3e bc 7a e8 bc 48 84 10 bd
       0.07712754 0.17321926 -0.028378837 -0.035282403
000390 66 f0 e2 3d 88 07 8e 3c d6 fc bb 3d b3 cb c0 bd
       0.110810086 0.017337576 0.09179084 -0.094138525
0003a0 3a 04 e7 bd b4 e1 98 3d 6e 6e a9 3d 86 36 d1 3c
       -0.11280103 0.074649245 0.08273016 0.025538694
0003b0 99 c4 74 3d 76 97 35 be 2b 6b 20 3e 10 75 de bd
       0.059757803 -0.17733559 0.15665881 -0.10862172
0003c0 99 5e b4 3d 19 41 97 3e 9c 0b 82 3d 19 79 73 bd
       0.088071056 0.29541853 0.063498706 -0.05944166
0003d0 88 df 99 3e 57 a9 3e 3d 4e 61 81 bd 01 2d ca bd
       0.30053353 0.046548214 -0.063173875 -0.09871865
0003e0 2f 2a aa bc 63 8a 09 bd ce 2e 16 be 13 88 db bd
       -0.020772068 -0.03357924 -0.14666292 -0.107193135
0003f0 bb 48 56 bd a1 45 70 3d 8c 43 49 bd 1c 6f 25 bd
       -0.052315455 0.058660153 -0.049136683 -0.040389165

fc3.bias f4 [32]
000000 27 a6 3d 3f 9c aa 08 bf 37 cd a8 bd 3d a5 bd 3e
       0.74081653 -0.5338533 -0.082422666 0.3704013
000010 c3 c9 ba 3e 53 e0 42 3e 21 12 cc 3c f4 9d 98 bd
       0.36482057 0.19030885 0.024910988 -0.07452002
000020 c2 14 61 3e 8d 5e c6 bc 5b 01 86 bd a7 9d dd 3e
       0.21980575 -0.024215007 -0.06543227 0.43284342
000030 1e f7 c6 bd bf e9 86 3e 36 a9 52 3e 9c 6f 47 be
       -0.097151026 0.2635021 0.20572361 -0.1947617
000040 e4 ee 2b be c2 65 f0 bd ef d6 3c 3c b7 38 9f bd
       -0.16790348 -0.11738159 0.011525854 -0.077744894
000050 bd 4e 5f be 00 0b 0a bd 23 ad e9 3b 6e 3c 3a 3e
       -0.2180738 -0.033701897 0.007131235 0.18187115
000060 dd 61 80 bd 04 37 45 be 9f e5 13 be 49 c0 d4 bd
       -0.06268666 -0.19259268 -0.14443062 -0.10388238
000070 4d dd d3 bc 6d c3 97 bd 04 a7 eb bb e2 73 2b bd
       -0.02586236 -0.074103214 -0.0071915407 -0.04185856

fc4.weight f4 [10, 32]
000000 5d 0d d8 be ca 7c 3b bd b0 b2 aa 3e 60 5f 74 3e
       -0.42197695 -0.045773305 0.33339453 0.23864508
000010 2e 03 8f 3e 1a f8 9b 3e 03 3d 37 bd 0b 4e a3 3d
       0.27932113 0.30462724 -0.04473592 0.0797387
000020 f3 84 54 3e 03 c0 35 3d 5e b8 32 be 67 e2 3b 3e
       0.20753841 0.04437257 -0.17453143 0.18348084
000030 9c 36 46 be 16 a0 95 3e 14 8c 4b be 74 31 73 3e
       -0.1935677 0.29223698 -0.19877654 0.23749334
000040 28 e7 6b be 75 55 24 be 5a 21 d5 3e 47 6c 82 3e
       -0.23037398 -0.16048224 0.41627008 0.25473234
000050 70 65 56 bd 92 95 64 bd db a4 3d 3d df e7 91 3b
       -0.052342832 -0.055806704 0.046299797 0.00445269
000060 65 72 e4 bd 56 b4 3e be 9f 62 3f be a7 3c 0c 3e
       -0.111546315 -0.1862348 -0.18689965 0.13695012
000070 00 3c f4 bb a0 06 c5 bd 58 03 e8 bd ce 03 21 be
       -0.0074534416 -0.09620404 -0.11328763 -0.15724108
000080 81 ee 37 bf 48 a0 ea be 7c 82 5c be 67 2b c9 ba
       -0.71848303 -0.4582541 -0.21534151 -0.0015348018
000090 22 1d c0 be 87 98 19 3e ac 51 23 3e ef b0 ca 3e
       -0.37522227 0.14999591 0.15949124 0.39588115
0000a0 f9 92 5d 3f 63 fb 51 bd 8d 37 31 be ee 01 a3 bd
       0.8655239 -0.05126513 -0.17306347 -0.079593524
0000b0 db 67 17 3e cb ac 65 3e 71 95 b3 3d bc ed 5f 3e
       0.14785711 0.22429197 0.08768738 0.21868032
0000c0 5f fc 96 3e 43 ef 94 bd 02 4b d6 3d c7 72 c6 bd
       0.2948942 -0.07272198 0.10463525 -0.09689861
0000d0 29 db 50 3e 68 d1 3c 3d 6d 0c e1 3d 6c 82 2b bf
       0.20396103 0.046098143 0.10988698 -0.66995883
0000e0 96 a6 3d 3f 26 f9 5d 3d 84 88 67 3e 4c e5 3f bd
       0.74082315 0.054192685 0.2261067 -0.046849534
0000f0 5b 95 fa 3d 13 2b a9 bd 94 c5 de bc 0f 93 a5 3d
       0.122355185 -0.08260169 -0.027193822 0.0808469
000100 f2 20 0d be 60 5a 96 be 14 fb d7 3e 37 3a 3d 3d
       -0.13782099 -0.29365826 0.42183745 0.046198096
000110 30 f5 a7 bd 89 7f 07 3e 08 bd eb bd c2 92 28 bc
       -0.08201063 0.13232245 -0.11510664 -0.010288896
000120 19 cf 01 be a5 d1 00 3e c0 a1 21 3d 88 10 03 3d
       -0.12676658 0.12579973 0.039460897 0.031998187
000130 14 86 21 be bf c0 1b 3d b3 a2 ba be b2 c6 a8 3e
       -0.15773803 0.038025614 -0.36452255 0.32964092
000140 38 05 27 3e 5e ab 3f bd 33 7a bc 3e 6f 06 78 3c
       0.16310585 -0.046794288 0.3681198 0.015138253
000150 17 83 35 be a8 26 4c 3d 0a 83 0f be 55 6b 5b 3d
       -0.17725788 0.049841553 -0.14014831 0.053569157
000160 98 ac 97 3d 21 db 96 bd dd 38 d1 3e d7 6b 2c be
       0.074059665 -0.07366014 0.40863696 -0.16838013
000170 dc c6 24 3d 7d a2 dc bd 4a 34 83 bd cc d4 0f bf
       0.04022871 -0.1077318 -0.06406458 -0.5618408
000180 62 1f 12 be 8c c0 e3 bc 72 ae ad 3e 86 2b 10 3f
       -0.14269784 -0.027801774 0.33922154 0.5631641
000190 2f 26 c9 be 3c 8a 0c bd 07 09 27 be 6b 27 82 bd
       -0.39286944 -0.034311518 -0.16312037 -0.06355175
0001a0 6c 1a 2b 3e a9 28 08 be c0 91 31 3e 39 8e d2 3e
       0.16709298 -0.1329676 0.17340755 0.41124132
0001b0 df 8b 8a bd c4 07 c4 3b 60 33 64 be 5e e1 ab 3e
       -0.067649595 0.005982371 -0.22285223 0.3357038
0001c0 12 43 88 3e 69 17 01 be 2f ab d6 bd 1a 32 32 bd
       0.2661367 -0.12606587 -0.104818694 -0.04350481
0001d0 4b 0c a3 be 11 c3 d8 bd b4 81 04 3e 6f 66 94 be
       -0.31845316 -0.10584081 0.12940103 -0.289844
0001e0 36 c9 87 3d b9 3a 11 3e 82 89 5a bd f2 9b 22 3d
       0.06630175 0.14182557 -0.053353794 0.039699502
0001f0 72 e5 79 3e af 2d 14 be 96 12 27 3e 25 3e aa 3b
       0.24403933 -0.14470552 0.16315684 0.0051953965
000200 00 7d c7 bd 30 06 54 3e 27 c8 53 3e 8e 8a 67 bd
       -0.09740639 0.20705485 0.20681821 -0.05652862
000210 5d 0b 83 be cb f9 e3 be 9d 65 03 3d 78 df ab bd
       -0.25594607 -0.44526514 0.032079328 -0.08392233
000220 c9 73 bc bc 53 46 de 3d 85 b0 f0 bd 28 91 4d 3e
       -0.02300443 0.10853257 -0.117524184 0.20074904
000230 6b 98 43 bb 28 cc 88 3e bb 14 c1 be 6d ae 46 3e
       -0.0029845487 0.2671826 -0.3771113 0.19402476
000240 6a 9d 17 be 62 66 88 3d b4 95 7f 3e 62 5b 97 bc
       -0.14806142 0.06660153 0.24959451 -0.018476192
000250 41 2e d3 bd 48 c5 56 3d 3a 2f 9a bd 78 80 0f 3d
       -0.103115566 0.052434236 -0.07528539 0.035034627
000260 81 ce 82 3e 2b c5 85 bd 62 65 ed 3e cb 4b 21 3e
       0.25548175 -0.065317474 0.4636641 0.15751569
000270 f3 57 b0 bd 92 9a de 3d b0 0c 2d 3e 43 48 c7 3d
       -0.08610525 0.10869326 0.16899371 0.0973058
000280 aa 26 71 3f 77 37 06 bf b0 6e 01 bf fe df 78 bd
       0.9419962 -0.5242838 -0.5055952 -0.06076049
000290 64 f6 d9 3e ec 21 cd bc f4 5c 8b 3e 8a a5 ed 3d
       0.42570794 -0.02504059 0.27219355 0.1160384
0002a0 cf fd b3 be 81 a1 e9 bd 3f e7 06 3e a3 57 ab 3e
       -0.35154578 -0.114077576 0.13174151 0.334653
0002b0 22 dd 24 3e 7d 76 87 bd c2 3b 87 3e 19 41 4b bf
       0.1609998 -0.06614397 0.2641278 -0.79396206
0002c0 57 1d 6f be da ec 33 3e 3c 7a 98 be 21 48 31 be
       -0.23351036 0.1757082 -0.29780757 -0.17312671
0002d0 d4 9d e6 bd f9 66 25 be 04 b1 0b 3e 8a 7e 35 bc
       -0.11260572 -0.16152562 0.13641745 -0.011077533
0002e0 17 5b a4 be 9c 32 0f 3e 78 26 c8 be 7d ba 3f bd
       -0.32100746 0.1398415 -0.3909185 -0.04680871
0002f0 10 77 50 3e 3a 4e cd 3d 64 bf e8 bd c0 e2 ab bc
       0.20357919 0.10024686 -0.1136463 -0.020982146
000300 99 92 7c be 6b 87 ae bd e8 18 7d 3e 71 d7 52 3e
       -0.24665298 -0.08521923 0.24716532 0.20589997
000310 a4 11 21 bb 93 18 4b 3e 15 39 4f bd f2 df 00 be
       -0.0024577165 0.19833593 -0.050591547 -0.12585428
000320 bf d6 3f be 78 de 09 be 51 1f b9 bd 8c 73 d7 3d
       -0.18734263 -0.13463771 -0.09039176 0.10520086
000330 c8 9e 7e be 0c 24 bd 3e 00 25 8a be ad 7d a4 3d
       -0.24865258 0.36941564 -0.26981354 0.08031783
000340 64 54 9f bd bd 4d 71 bd 7a 7b 48 3e 04 a6 cc 3e
       -0.07779768 -0.058912028 0.19578353 0.3997041
000350 c5 57 ee bc 78 7d c3 bd dc ab 13 be f5 cd 87 3c
       -0.029094586 -0.09545416 -0.14421028 0.0165777
000360 54 d3 2b 3e 1c a8 f4 3e 34 0e dd 3e 2c f2 04 be
       0.16779834 0.47784507 0.431749 -0.12983006
000370 1d 56 17 bc 5d 67 a0 bc 29 70 9b bc f1 5b 9d bc
       -0.00923684 -0.019580537 -0.01897438 -0.01920888
000380 39 4f 1a 3f ca 23 be 3d 85 df 51 bf d2 28 97 be
       0.60277134 0.0928417 -0.8198169 -0.2952333
000390 58 f8 11 3e 5e c0 bd bd dd 16 de 3c da 08 32 3e
       0.14254892 -0.09265207 0.027110511 0.17386189
0003a0 fd 06 91 be ab 39 0c 3e 4b c2 f9 bc 8e e1 0c bf
       -0.28325644 0.13693874 -0.030488154 -0.5503167
0003b0 ce 96 9c 3d 89 90 0c be 5d 96 29 3f 4b 84 a8 bd
       0.07645951 -0.13727011 0.6624506 -0.08228358
0003c0 91 99 c2 bd 2d 4d 33 3e 6d ba a7 be db 24 12 3d
       -0.09501947 0.17509909 -0.3275942 0.03567968
0003d0 aa 7a 54 3e dc 09 1a 3d 81 54 23 be e9 be de 3e
       0.20749918 0.03760706 -0.15950204 0.43505028
0003e0 ac d0 9a be c4 4b 8b bc ca 11 15 bf 3f f6 16 be
       -0.3023733 -0.017003901 -0.5823027 -0.14742373
0003f0 b6 f2 1b be 21 c5 ce 3d e2 e9 0e 3e 64 53 b5 3d
       -0.15229306 0.10096193 0.13956407 0.08853796

fc4.bias f4 [10]
000000 dd fc 32 bd 1b d8 e2 3d 9a 3a bd 3c 22 bf e5 bd
       -0.04369818 0.11076375 0.023099232 -0.11218096
000010 88 a4 c5 be ac 66 94 3f 9e 9e 81 bc 23 9c 90 3e
       -0.3860209 1.1593833 -0.015822705 0.28244123
000020 71 ff e1 be 3d 56 02 bf
       -0.441402 -0.5091284
