COMP 219 Advanced Artificial Intelligence /Resilience-to-Adversarial-Attack-main/ep0.06num30epoch10batch16_32.pt (torch, 446863 bytes, 8 tensors)

fc1.weight f4 [128, 784]
0	0x3c7488f1	0.0149252275
1	0xbc9129b2	-0.017720077
2	0xbc23990a	-0.009985218
3	0x3ca90379	0.020631539
4	0xbc210de4	-0.009829972
5	0x3c5ceff6	0.0134849455
6	0x3bb9e2ba	0.00567278
7	0x3bc7c32e	0.0060962653
8	0xba7d28c2	-0.00096572575
9	0xbb85ea85	-0.004086795
10	0xbbd882af	-0.0066073756
11	0xbc8bbb6a	-0.01705714
12	0x3c20c41b	0.00981238
13	0xbc5050ae	-0.012714548
14	0xbc9fff9d	-0.019531066
15	0xbb1088ee	-0.0022054273
16	0xbb853b73	-0.004065925
17	0xbd0030f6	-0.031296693
18	0x3c1ed5f8	0.009694569
19	0x3afdd5fb	0.0019366139
20	0xbada7d86	-0.0016669489
21	0xbc3bce07	-0.011462695
22	0xbc340f5e	-0.010989992
23	0xbc274f2e	-0.010211749
24	0xbc3e4fc1	-0.0116156945
25	0x3b71fdea	0.0036925026
26	0x3c3dfe76	0.011596313
27	0x3c29f8fc	0.010374304
28	0xbc3a837b	-0.011383886
29	0x3ca685d8	0.020327494
30	0x3bda77c4	0.006667109
31	0x3ce62523	0.02809388
32	0x3c7b92d5	0.015354832
33	0xbcd9ca43	-0.026585704
34	0xbd090b42	-0.033458002
35	0xbc929483	-0.017893082
36	0x3c5fb74f	0.013654544
37	0xbd8d9afd	-0.06914327
38	0xbccd0500	-0.025026798
39	0xbb38faf7	-0.0028225759
40	0x3c8805ae	0.01660427
41	0xbd3ae8bb	-0.045632105
42	0xbc676b8f	-0.014124765
43	0xbca7b843	-0.020473605
44	0xbcd0fa0f	-0.025509862
45	0x3cafab0f	0.021443872
46	0xbd7ff3c8	-0.062488347
47	0xbc80dd23	-0.015730446
48	0xbc049312	-0.008091705
49	0x3c046341	0.008080305
50	0xbc6ce327	-0.014458454
51	0x3bb62c85	0.0055595064
52	0x3cc615c8	0.024180308
53	0xbc59f4ca	-0.013302991
54	0x3cca7c86	0.02471758
55	0x3c98aa94	0.018636025
56	0xbc1dfd5d	-0.009642926
57	0xbcb34b79	-0.021886574
58	0x3cd31707	0.025767816
59	0x3cdc3e63	0.026885217
60	0x3b6984db	0.0035632167
61	0x3c980136	0.018555265
62	0x3ca780bf	0.020447133
63	0xbbfe71d0	-0.0077650324
64	0xbd0a8978	-0.033822507
65	0xbb8552f8	-0.0040687285
66	0x3bc9db2d	0.006160161
67	0x3c1f2d6e	0.009715421
68	0xbc16ec43	-0.009211603
69	0xbccba870	-0.02486059
70	0x3ca3f300	0.020013332
71	0xbac3e570	-0.0014945697
72	0x3cb84644	0.022494443
73	0x3aaf2a32	0.0013364016
74	0x3b7bd4ee	0.0038426477
75	0x3bd88479	0.006607589
76	0xbc7b2c0e	-0.015330328
77	0x3cec3335	0.028833011
78	0xbbf7c0ae	-0.007560811
79	0x3cf117d1	0.029430302
80	0xbc308dc8	-0.010775991
81	0xbca40bb0	-0.020025104
82	0xbabbab30	-0.0014317986
83	0x3c4fb8a4	0.012678299
84	0x3bede70b	0.0072602085
85	0xbca704e2	-0.02038807
86	0xbce3d76d	-0.027812684
87	0x3c98cc53	0.018652117
88	0x3a3717f7	0.0006984467
89	0x3d065e75	0.032804925
90	0x3c5eb3ed	0.013592702
91	0xbd22f926	-0.039788388
92	0x3c363516	0.011121055
93	0x3c34e1a2	0.011040123
94	0xbc9d2dc8	-0.01918687
95	0xbc7891b3	-0.015171456
96	0x3cdd9bf4	0.027051903
97	0x3c2cdf99	0.010551357
98	0xbbc9a0ae	-0.0061531877
99	0xbb25a557	-0.0025275552
100	0x3d1a1729	0.037619743
101	0x3b88350e	0.0041567152
102	0x3d027c37	0.03185674
103	0x3c25c239	0.010117107
104	0xbce1231c	-0.027482562
105	0xbcd0715f	-0.025444685
106	0x3d912edc	0.07089016
107	0x3cbd9582	0.02314258
108	0x3d03d474	0.032185033
109	0x3c4dae58	0.012553774
110	0x37b4d0cc	2.15549e-05
111	0x3cb90fbd	0.022590512
112	0x3ce26444	0.027635701
113	0xbbc3360f	-0.005957372
114	0x3c0c5857	0.008565984
115	0x3c8556d1	0.016276749
116	0x3d08d0a0	0.033402085
117	0x3d6f31f8	0.058397263
118	0xbb05edff	-0.0020436046
119	0xbca038f4	-0.019558407
120	0xba153a17	-0.0005692555
121	0x3c1631bd	0.009167132
122	0x3d3de54f	0.046361264
123	0xbc0aef50	-0.008479908
124	0x3ce3a596	0.027788918
125	0xb97726d3	-0.00023570219
126	0xba1dda54	-0.0006021608
127	0x3b917525	0.0044390135
128	0x3c96d782	0.018413309
129	0x3d12eac2	0.035868414
130	0xbc8a3ee9	-0.016875701
131	0x3c3f4bb3	0.011675763
132	0x3d087f9e	0.03332483
133	0x3c10779e	0.008817581
134	0x3d9b5254	0.07584062
135	0x3d6347f4	0.05548854
136	0x3c9db3ab	0.019250711
137	0x3ca569a5	0.020191977
138	0xbb82afbf	-0.0039882357
139	0xbcd9e2a5	-0.02659733
140	0xbc7f4c80	-0.015582204
141	0xbbca33fa	-0.006170747
142	0x3ba14bca	0.004922365
143	0x3bf0cd63	0.0073487028
144	0x3c50e262	0.012749286
145	0x3d27cb7c	0.040965542
146	0x3cc5f6bc	0.024165504
147	0x3bf75c9f	0.007548883
148	0x3cd50575	0.026003579
149	0x3c8f11b0	0.017464489
150	0xbb9a930a	-0.0047172355
151	0x3d05664a	0.032568254
152	0x3c7275a8	0.014798559
153	0x3c9d648f	0.01921299
154	0xba4d607b	-0.0007834506
155	0xbc3346c9	-0.010942169
156	0xbc9298a5	-0.017895052
157	0x3b855735	0.004069234
158	0x3d12e529	0.035863075
159	0xba5a5982	-0.0008329378
160	0xbc821001	-0.015876772
161	0x3c6ee37b	0.014580603
162	0x3d746d17	0.05967435
163	0x3d8c1289	0.06839473
164	0x3b8faaa6	0.0043843566
165	0x3ce33fd7	0.027740402
166	0xbb2e8146	-0.0026627346
167	0xbbab8c10	-0.0052352026
168	0xbcacd972	-0.02109978
169	0xbc162f9b	-0.0091666235
170	0xbc208157	-0.009796462
171	0x3c4f40bb	0.01264971
172	0x3ca57417	0.020196958
173	0x3d908647	0.07056861
174	0x3d4760b2	0.0486762
175	0x3d28f9c7	0.04125383
176	0x3ceb73d2	0.02874175
177	0xbbb75629	-0.005594988
178	0xbc608725	-0.013704096
179	0x3c94eba3	0.018178767
180	0xbc63f85b	-0.013914193
181	0x3c9cd05f	0.019142328
182	0x3a66077e	0.000877492
183	0x3c8e6e64	0.017386623
184	0xbbef1e32	-0.0072973007
185	0x3d086cb2	0.033306785
186	0xbbff7aef	-0.0077966372
187	0xbbd98a03	-0.0066387667
188	0x3b837a03	0.0040123477
189	0xbb8e5d48	-0.004344616
190	0x3d6c3eaa	0.05767695
191	0x3d138e43	0.036024343
192	0x3a5fb860	0.0008534249
193	0x3c116fae	0.008876724
194	0x3cc7aa9c	0.024373345
195	0xbc366547	-0.011132545
196	0x3c86bb29	0.016446667
197	0x3c729494	0.014805932
198	0x3c9f86a2	0.019473378
199	0xbaca1c81	-0.0015419872
200	0x3d05f97f	0.03270864
201	0x3d162d03	0.03666402
202	0x3d1c14fe	0.038105957
203	0xbb82f9ab	-0.003997048
204	0x3d1058ef	0.035241064
205	0xbae763d0	-0.0017653648
206	0xbb39b05e	-0.0028333883
207	0xbb649f4c	-0.0034884987
208	0xbbcfb98b	-0.006339257
209	0x3c90f6a9	0.017695742
210	0x3c292375	0.010323395
211	0x3c1dace3	0.009623739
212	0xbd0f5f20	-0.035002828
213	0x3ce02174	0.027359702
214	0x3d2de5b8	0.042455405
215	0x3d19a302	0.037508972
216	0x3d0a206d	0.03372233
217	0xbc5d347e	-0.013501285
218	0x3c3b034a	0.011414358
219	0x3d84b168	0.0647915
220	0xbcc3d0bc	-0.023903243
221	0xba5bef00	-0.0008389801
222	0xbd26e122	-0.040742047
223	0xbc8ed854	-0.017437138
224	0x3b0465c8	0.0020202268
225	0xbc21671b	-0.009851242
226	0x39ac9d86	0.0003292376
227	0x3ceeb61d	0.029139573
228	0x3d388a63	0.04505385
229	0x3da6fd37	0.08153766
230	0x3bb8bb50	0.0056375638
231	0xbb5e27f3	-0.0033898323
232	0x3d0ea8c7	0.034828927
233	0xbcb23418	-0.021753356
234	0xbcc963fd	-0.024583811
235	0x3c5c11fb	0.013432021
236	0xbcc0fb5f	-0.023557363
237	0x3c0f3fef	0.00874327
238	0x3c1102df	0.008850782
239	0xbcc36737	-0.023852928
240	0xbd0ae572	-0.033910222
241	0x3c1dffe0	0.009643525
242	0x3c377745	0.01119787
243	0x3c4ece2e	0.012622399
244	0x3ad2b962	0.0016076977
245	0xba38d9c6	-0.0007051494
246	0xbd04036e	-0.032229833
247	0xbc648142	-0.013946833
248	0xbcce92d3	-0.025216496
249	0x3ab582da	0.0013848201
250	0x3cddb1bb	0.027062288
251	0xbc5bcb42	-0.01341516
252	0x3bc2f4f7	0.0059496122
253	0x3bf2f1dc	0.007414086
254	0x3c669eed	0.014075977
255	0xbc004f64	-0.007831428

fc1.bias f4 [128]
0	0xbd3c6766	-0.045997046
1	0xbc0bbeb1	-0.008529351
2	0x3b5618c6	0.0032668575
3	0xbba38cff	-0.0049911733
4	0xbc8421de	-0.01612943
5	0x3e4d511a	0.20050469
6	0x3daf9d56	0.08574931
7	0x3d70356b	0.058644693
8	0x3ccaa0ca	0.024734873
9	0x3e6b8652	0.23000458
10	0xb996ea69	-0.0002878488
11	0xbd1b701e	-0.03794872
12	0x3e45a61e	0.1930165
13	0x3db0efe4	0.086395055
14	0x3de0a56e	0.10969053
15	0x3d8d899c	0.069110125
16	0x3de394c7	0.111123614
17	0x3caff3da	0.021478582
18	0x3d6f5dd9	0.05843911
19	0xbc3d3504	-0.011548284
20	0x3e0d2038	0.13781822
21	0xbdfa1a6d	-0.122120716
22	0xbcba35bd	-0.022730703
23	0xbd684a53	-0.056711506
24	0x3ccb0eec	0.024787389
25	0x3a48feb9	0.0007667351
26	0x3bc66d18	0.0060554855
27	0xbc06f07f	-0.00823605
28	0xbcd15c8b	-0.025556823
29	0xbc71d2a5	-0.014759694
30	0x3d860907	0.065446906
31	0x3d898106	0.067140624
32	0x3d27b7ca	0.04094676
33	0x3c19aa66	0.009379005
34	0xbc90500d	-0.017616296
35	0xbbcb33d4	-0.0062012468
36	0xbd2fe178	-0.042939633
37	0xbca570a5	-0.020195315
38	0x3d009e67	0.031401064
39	0x3e056072	0.13025072
40	0x3dfc79f3	0.123279475
41	0x3caa99d5	0.020825306
42	0x3d0b0120	0.03393662
43	0xb9a08f86	-0.0003062451
44	0x3dba2402	0.09088899
45	0x3c63bbb3	0.013899731
46	0xbcfeb760	-0.0310933
47	0x3e154646	0.14577588
48	0x3cca4881	0.024692776
49	0xbcba54ae	-0.022745457
50	0x3c433b7c	0.011916038
51	0x3dcc2551	0.09968055
52	0xbe1ddcc3	-0.15416245
53	0x3b6c5524	0.003606149
54	0x3ca07085	0.019584903
55	0x39862e9b	0.00025593195
56	0x3d4bf918	0.0497981
57	0xbc7fde1c	-0.01561692
58	0x3d8cfa6c	0.06883702
59	0xbd947f49	-0.0725084
60	0x3d839c52	0.064263
61	0x3cd13566	0.025538158
62	0x3bb0cb5e	0.005395337
63	0x3dc1fb71	0.09471787
64	0x3baad843	0.0052137687
65	0x3d2670e3	0.040635
66	0xbcc37006	-0.023857128
67	0x3db80f5e	0.08987306
68	0x3b905da8	0.004405696
69	0xbe1fe879	-0.15616025
70	0x3dff3daf	0.12462937
71	0x3dbadd7e	0.091242775
72	0xbbc7fdce	-0.006103254
73	0xbd025e86	-0.031828426
74	0x3c6d3bfa	0.014479632
75	0xbde47e3c	-0.1115689
76	0x3e58ebc0	0.21183681
77	0xbdac8418	-0.084236324
78	0xbc691b86	-0.0142277535
79	0x3d074d58	0.033032745
80	0x3e08986a	0.13339391
81	0xbd1c8a9e	-0.038218133
82	0x3d2474c3	0.040150415
83	0xbd8938d8	-0.06700295
84	0xbd0b0f21	-0.033949975
85	0x3dda9acd	0.10674057
86	0x3d7d8181	0.061891083
87	0x3d02c1c4	0.03192307
88	0x3d9c25c7	0.07624393
89	0x3db07efd	0.08617971
90	0xbc979903	-0.018505579
91	0x3dfc69fc	0.123249024
92	0x3e0b36ad	0.13595076
93	0xbd2f020b	-0.042726558
94	0xbd24ee88	-0.040266544
95	0x3c29f10e	0.010372413
96	0x3c0b8f79	0.008518093
97	0x3e5c41df	0.21509503
98	0x3d22b832	0.039726444
99	0x3e3c2846	0.18374738
100	0x3e1d0605	0.15334328
101	0x3c809bba	0.015699256
102	0xbd6ca4c3	-0.057774317
103	0xbc1b03ba	-0.009461338
104	0x3caace03	0.020850187
105	0x3db01f59	0.08599729
106	0x3dd5f7dc	0.10447666
107	0x3d1fb1cf	0.03898793
108	0xbb220af9	-0.0024725778
109	0xbb1b3bb4	-0.002368671
110	0xbce0e87f	-0.027454613
111	0x3d8a32a2	0.06747939
112	0x3d82d473	0.06388178
113	0x3d205180	0.039140224
114	0xbcdeb5e8	-0.027186349
115	0xbc9eb298	-0.01937227
116	0x3d9b1d35	0.0757393
117	0x3cdb76fc	0.026790135
118	0x3d071eae	0.032988243
119	0x3e56e18f	0.20984481
120	0x3ccbacb9	0.024862634
121	0x3bceeeaf	0.0063150744
122	0x3d083db1	0.03326196
123	0xbe15cdea	-0.14629331
124	0xbc96c9a3	-0.018406695
125	0xbc2f0e6a	-0.010684589
126	0x3e6288b0	0.22122455
127	0xbc8e9fa6	-0.01741011

fc2.weight f4 [64, 128]
0	0x3ac8d571	0.00153224
1	0x3d5bf5be	0.053701155
2	0xbcc0222e	-0.023453798
3	0x3c0cc23b	0.00859123
4	0xbd88204c	-0.06646785
5	0x3c2b54af	0.010457202
6	0xbd313366	-0.043261908
7	0xbbb7aae5	-0.005605089
8	0xbd803d36	-0.06261675
9	0xbdc50784	-0.09620574
10	0x3d675a09	0.05648235
11	0xbd5ff6d9	-0.05467877
12	0xbdc2bc05	-0.09508518
13	0x3dfb1e20	0.12261605
14	0xbd15f2e6	-0.0366086
15	0x3d8b5a30	0.06804311
16	0x3dc59c7a	0.09648986
17	0xbe1e4635	-0.1545647
18	0xbd39b3fc	-0.045337662
19	0x3def318b	0.116793714
20	0x3d3df6f3	0.046378087
21	0xbd6a3d3b	-0.0571873
22	0xbcc87ff1	-0.02447507
23	0xbcd5c95a	-0.026096988
24	0x3d88223e	0.06647156
25	0xbd12a564	-0.03580226
26	0xbe015109	-0.12628569
27	0x3d9f7885	0.07786659
28	0xbde88b93	-0.11354747
29	0xbd9753b1	-0.0738901
30	0x3bcbca3f	0.006219178
31	0xbbb5bc3c	-0.005546121
32	0xbdb7a706	-0.08967404
33	0x3dc8d81f	0.09806847
34	0x3d4e93d0	0.050433934
35	0xbcaf244f	-0.021379618
36	0xbd165e9d	-0.036711324
37	0xbd870afc	-0.06593892
38	0x3d42cc50	0.04755813
39	0x3e27ecd7	0.16398941
40	0xbcc4eb13	-0.024037873
41	0x3e0d24ac	0.1378352
42	0xbd3201c1	-0.043458704
43	0xbd1a8de3	-0.03773297
44	0x3d06eb6e	0.032939367
45	0xbd6865d9	-0.056737754
46	0xbd99fff5	-0.07519523
47	0x3d9a2ac0	0.07527685
48	0xbd33ac6e	-0.043865614
49	0x3cf7d7a1	0.030254187
50	0xbd0c2d6b	-0.034223
51	0xbe1b8abe	-0.15189645
52	0x3b8291cc	0.0039846655
53	0xbd8d3150	-0.06894171
54	0xbdad546d	-0.084633686
55	0x3c1be80d	0.009515774
56	0x3d606404	0.054782882
57	0xbd592d89	-0.05302194
58	0x3daff92c	0.08592448
59	0x3d7651dc	0.06013666
60	0x3e2765ed	0.16347475
61	0x3d45d691	0.04830033
62	0x3d2ce386	0.04220917
63	0xbd46cdd0	-0.04853612
64	0xbd8f0cdd	-0.06984875
65	0x3e384129	0.17993607
66	0x3c8f2d44	0.017477639
67	0xbe00c4f7	-0.12575136
68	0x3d01b622	0.031667836
69	0x3dac9d02	0.08428384
70	0x3dbe5c67	0.09294968
71	0x3c1af7f6	0.009458533
72	0x3d5b4093	0.05352838
73	0xbd9b0e77	-0.07571118
74	0xbd226583	-0.03964759
75	0xbdc2051d	-0.094736315
76	0x3ca70a37	0.020390613
77	0x3dc31978	0.09526342
78	0x3db2ebf0	0.08736408
79	0xbda06c6c	-0.0783318
80	0x3c3de19f	0.011589437
81	0x3cf031e2	0.029320661
82	0x3d5a6927	0.053322937
83	0xbd6832b6	-0.056688987
84	0xbc52fca2	-0.012877615
85	0xbdaa85f6	-0.08326332
86	0x3c9b95ed	0.018992389
87	0xbd92985f	-0.07157969
88	0x3e6077e3	0.21920733
89	0x3c5708b2	0.013124632
90	0x3d6f3ac6	0.05840566
91	0x3d88c4ba	0.066781476
92	0xbe05ce6a	-0.13067022
93	0xbd3ca7d6	-0.0460585
94	0x3da9a12a	0.08282693
95	0xbd967df9	-0.07348246
96	0x3d1a3748	0.037650377
97	0x3da7d4d8	0.081948936
98	0xbbd553e9	-0.006510247
99	0x3ddc4681	0.10755635
100	0x3ddae6e4	0.1068857
101	0xbda48c20	-0.08034539
102	0x3bcee173	0.0063134967
103	0x3d8eb5a2	0.069682375
104	0xbd2b35fb	-0.041799527
105	0xbd05f6d5	-0.0327061
106	0xbca0f4e8	-0.01964803
107	0x3dc6b1fe	0.09701918
108	0x3cc2c848	0.023777142
109	0x3da4be62	0.08044125
110	0x3aad637c	0.0013228501
111	0x3d4d786f	0.050163683
112	0xbd793447	-0.06084087
113	0xbd9969d5	-0.07490889
114	0x3c286841	0.010278762
115	0x3db846df	0.089978926
116	0x3dc90f09	0.09817321
117	0x3b9587bd	0.0045633004
118	0xbd40bf26	-0.047057293
119	0x3ae14877	0.0017187734
120	0xbada7d75	-0.0016669469
121	0x3da718f6	0.08159058
122	0xbda429a6	-0.08015756
123	0x3c115fe0	0.008872956
124	0x3d3c7f50	0.046019852
125	0x3d9c832b	0.07642206
126	0x3b846948	0.004040871
127	0xbdac2f06	-0.084074065
128	0x3db93243	0.0904279
129	0xbd50dbcf	-0.050990876
130	0x3d762cea	0.060101427
131	0xbd02bfc1	-0.031921152
132	0xbcde27ff	-0.027118681
133	0xbe20bc28	-0.15696776
134	0x3e62059e	0.22072455
135	0x3b8d32c8	0.004309032
136	0xbc4ccb7d	-0.012499687
137	0xbd0fe179	-0.035127137
138	0xbd312611	-0.043249194
139	0x3d83e355	0.064398445
140	0x3cbc2409	0.022966402
141	0x3d6a9aed	0.057276655
142	0x3e1cb439	0.15303124
143	0x3cee3ade	0.029080804
144	0xbdd6bcf4	-0.10485259
145	0x3da4bbb1	0.08043612
146	0xbcdf8e70	-0.0272896
147	0xbd855b3e	-0.06511544
148	0x3e56ba4b	0.20969503
149	0xbd0b459b	-0.034001928
150	0x3d1aa1c9	0.037751947
151	0x3cc76259	0.024338888
152	0xbda06caa	-0.07833226
153	0xbc0854c1	-0.008320988
154	0x3d5a86c3	0.053351175
155	0xbd2b83a8	-0.041873604
156	0xbdbdec30	-0.09273565
157	0x3a0d6801	0.0005394221
158	0xbe034cc8	-0.12822258
159	0x3e003906	0.12521753
160	0xbdae14e1	-0.08500076
161	0xbdf9c632	-0.12196006
162	0x3c825c74	0.015913226
163	0xbdadffa7	-0.084960274
164	0xbcaa1a3d	-0.020764465
165	0xbd31f228	-0.04344383
166	0xbd1b04aa	-0.037846245
167	0x3ddf703d	0.1091008
168	0x3e2d7374	0.16938573
169	0xbd07e83f	-0.03318047
170	0xbd3a1288	-0.04542783
171	0xbe53e2bb	-0.2069196
172	0xbc00351b	-0.007825161
173	0x3d8cf74b	0.06883105
174	0xbd0f91c5	-0.035051126
175	0xbdc2292e	-0.09480511
176	0x3cb2356d	0.021753991
177	0xbe527f85	-0.20556457
178	0xbdfc7931	-0.12327803
179	0xbc59be0f	-0.013289942
180	0x3cd5b241	0.026085975
181	0x3d33df52	0.043914147
182	0x3bab11f0	0.005220644
183	0x3d2dc3c3	0.04242302
184	0x3c85b676	0.016322356
185	0x3d086d88	0.033307582
186	0x3e772264	0.24134213
187	0xbd2dc483	-0.042423736
188	0xbd8f3ee3	-0.069944166
189	0xbdcb7fbc	-0.09936473
190	0x3c5d908d	0.013523233
191	0xbb13a586	-0.002252908
192	0xbd3c2ea9	-0.045942936
193	0x3ce85698	0.028361604
194	0x3c9d87c8	0.019229785
195	0xbd7a368b	-0.061087172
196	0xbe1ae5e0	-0.15126753
197	0xbe440e57	-0.19146095
198	0x3dc819f3	0.097705744
199	0x3bec440c	0.0072102603
200	0x3d1265b3	0.03574152
201	0x3d2d7e61	0.042356852
202	0xbbc8595a	-0.006114167
203	0x3d8db072	0.0691842
204	0xbdd42480	-0.10358524
205	0x3e44011a	0.19141045
206	0x3d904759	0.070448585
207	0xbdda08b3	-0.106461905
208	0x3e0321b9	0.12805833
209	0xbd4d395c	-0.05010353
210	0xbd3ab4a6	-0.045582436
211	0xbe1cd18c	-0.15314311
212	0xbd7530b7	-0.05986091
213	0x3d59e82a	0.053199925
214	0x3e08f086	0.13373002
215	0xbd8872a3	-0.0666249
216	0x3c868977	0.01642297
217	0xbdcff1d3	-0.10153546
218	0xbd20bd0f	-0.0392428
219	0xbde626b5	-0.112378515
220	0x3d7b45e0	0.061345935
221	0xbe036084	-0.12829787
222	0x3c8bea9a	0.01707964
223	0xbd3bc4e7	-0.045842078
224	0xbd8975fd	-0.067119576
225	0x3db99c36	0.09062998
226	0x3d9488c8	0.072526515
227	0xbd5d7652	-0.054067917
228	0x3cca866b	0.024722299
229	0x3b1414ff	0.0022595522
230	0xbe1c59a0	-0.15268564
231	0xbcb1dac6	-0.021710765
232	0x3d138d60	0.036023498
233	0x3d60aed1	0.054854218
234	0xbcacb471	-0.021082135
235	0x3ba1b7ac	0.0049352255
236	0xbd0c5725	-0.034262795
237	0x3d0eeebd	0.034895647
238	0x3d8c4a30	0.06850088
239	0xbe28437f	-0.16431998
240	0x3daaf7cb	0.08348044
241	0x3d28d621	0.041219834
242	0x3d782825	0.06058516
243	0xbda573ab	-0.080787025
244	0xbda75111	-0.08169759
245	0x3df526c9	0.11970288
246	0x3e0ab35b	0.13544981
247	0x3d09bbf2	0.033626504
248	0x3c330013	0.010925311
249	0x3d9e459f	0.07728123
250	0x3d231a14	0.039819792
251	0x3e05269d	0.13003011
252	0xb9892645	-0.0002615919
253	0xbd925b96	-0.07146375
254	0x3daae1e0	0.083438635
255	0x3d5943af	0.053043064

fc2.bias f4 [64]
0	0xbd8c0263	-0.06836393
1	0x3e3fea42	0.18741706
2	0xbd503d9d	-0.05084001
3	0x3e6aef9b	0.22942965
4	0x3e642b04	0.22282034
5	0xbd25b78b	-0.040458243
6	0x3daa4b56	0.083151504
7	0xbd599504	-0.053120628
8	0x3e626608	0.22109234
9	0xbd256688	-0.040380985
10	0xbde6ceac	-0.11269888
11	0xbdf6e689	-0.1205569
12	0xbbdd54c0	-0.0067544878
13	0xbea2c3b5	-0.31789938
14	0xbd8d486e	-0.068985805
15	0xbcbe2751	-0.023212107
16	0xbe39ad7f	-0.1813259
17	0xbdc1f8dd	-0.09471295
18	0xbc82b769	-0.015956597
19	0x3e2e3484	0.1701222
20	0xbe31f808	-0.17379773
21	0xbd41b8cf	-0.047295388
22	0x3d801f83	0.062560104
23	0x3db50fca	0.08840902
24	0xbd3c51e3	-0.04597653
25	0x3e21d88c	0.15805262
26	0xbd7cc737	-0.061713424
27	0xbd9e456f	-0.07728087
28	0x3e154d53	0.14580278
29	0x3cf325c0	0.029681087
30	0x3e2048c6	0.15652761
31	0x3dc9a6a1	0.09846235
32	0x3e1d4426	0.15358028
33	0x3dbc44d1	0.09192813
34	0xbdad1969	-0.08452112
35	0xbe015e3b	-0.12633602
36	0x3d137cd0	0.036007702
37	0x3e5a403e	0.21313569
38	0x3e2c9e7f	0.16857336
39	0x3d8cfc80	0.06884098
40	0xbe20900c	-0.1567995
41	0x3ecd64a0	0.40115833
42	0xbdab91ef	-0.08377444
43	0x3c4e6d44	0.012599293
44	0x3da53d9a	0.0806839
45	0x3db6b60d	0.08921442
46	0x3e9ed34f	0.3102059
47	0xbd70d538	-0.05879709
48	0xbdb32028	-0.08746368
49	0x3e64d22d	0.223458
50	0x3d9c4c67	0.0763176
51	0xbc875661	-0.01652068
52	0x3e77289d	0.24136586
53	0x3e116ef2	0.14202479
54	0xbd806507	-0.062692694
55	0xbd95fa8b	-0.07323178
56	0x3dab40b7	0.08361953
57	0xbe08974a	-0.13338962
58	0x3ea3a496	0.31961507
59	0xbde0cf50	-0.10977042
60	0xbc6d6679	-0.014489763
61	0xbd6483ff	-0.055789944
62	0xbde7a100	-0.11310005
63	0xbea30510	-0.318398

fc3.weight f4 [32, 64]
0	0x3d90b408	0.07065588
1	0x3ea3e565	0.32010952
2	0xbe0e83d8	-0.13917482
3	0x3d8bdb89	0.068289824
4	0x3e3f392c	0.18674153
5	0x3cd21e87	0.025649322
6	0x3e2d302a	0.16912904
7	0xbc868a5f	-0.016423402
8	0x3e8bcdf3	0.27305564
9	0xbe0813d7	-0.13288818
10	0x3c254144	0.010086361
11	0x3cc746ba	0.024325717
12	0x3cad2b4d	0.021138811
13	0xbe3edbb3	-0.18638496
14	0x3e3d644c	0.18495291
15	0x3ddd1a53	0.107960366
16	0xbd95c29e	-0.07312511
17	0xbe4685a4	-0.19386917
18	0xbdc207d7	-0.094741516
19	0xbd964952	-0.073382035
20	0xbe3aa436	-0.18226704
21	0x3d66632e	0.05624693
22	0x3dc9fa34	0.098621756
23	0xbe654678	-0.22390163
24	0xbd5a97d7	-0.053367462
25	0xbddb6a22	-0.107136026
26	0x3c05f1eb	0.0081753535
27	0xba9a9ace	-0.0011795403
28	0xbe23af4d	-0.1598484
29	0x3da85334	0.08218995
30	0xbe09aefc	-0.13445657
31	0xbdec450d	-0.11536608
32	0xbcc72ce9	-0.024313407
33	0xbcee637a	-0.029100168
34	0xbd9dab88	-0.076987326
35	0x3da5ea21	0.08101297
36	0x3d84bd90	0.06481469
37	0x3e97014a	0.2949317
38	0xbe395c64	-0.1810165
39	0x3dcdd8cf	0.100511186
40	0x3c83771c	0.016048007
41	0x3ef1a04a	0.47192603
42	0x3c351dfe	0.011054514
43	0x3aa03de7	0.001222548
44	0x3de4426d	0.11145482
45	0x3c6347a4	0.013872061
46	0x3e9635ba	0.29337865
47	0xbd7197ea	-0.058982767
48	0xbdfc6253	-0.12323441
49	0x3bd5c9ea	0.006524314
50	0xbd5ee11d	-0.054413904
51	0x3c261fcc	0.010139417
52	0x3e1322d0	0.14368749
53	0x3e839082	0.25696188
54	0x3da0ae7b	0.078457795
55	0x3df5422a	0.119755104
56	0xbd3d5e26	-0.046232365
57	0x3e63f057	0.22259651
58	0x3e132e42	0.14373115
59	0x3e1fe125	0.1561323
60	0x3d1fa2cc	0.038973615
61	0x3d8dcead	0.06924186
62	0xbe839b13	-0.2570425
63	0xbeba3ed5	-0.36376062
64	0x3e2c84e4	0.16847569
65	0x3d745adc	0.059656963
66	0x3d6b3925	0.057427544
67	0xbcaeec66	-0.021352958
68	0xbcc86ffb	-0.024467459
69	0xbde9fa8b	-0.114247404
70	0x3de32446	0.11090903
71	0x3db59036	0.08865397
72	0xbe36ceab	-0.17852275
73	0xbdf0ccc9	-0.1175781
74	0x3e4e4561	0.20143653
75	0x3cb38aa7	0.0219167
76	0x3da9014a	0.08252199
77	0xbe4b40e2	-0.1984897
78	0x3d001452	0.03126938
79	0x3e1404ca	0.14454952
80	0x3ce0941d	0.027414376
81	0x3da41c01	0.08013154
82	0x3cf9370e	0.03042176
83	0x3d817321	0.06320787
84	0x3d09ecd2	0.033673115
85	0x3dcf2c2d	0.10115848
86	0x3d891a86	0.06694512
87	0x3e11581c	0.14193767
88	0x3de8b456	0.11362521
89	0x3e62ad48	0.22136414
90	0x3da4da05	0.080493964
91	0xbdb61aeb	-0.08891853
92	0xbe058587	-0.13039218
93	0xbcdd3b1e	-0.027005728
94	0xbdc75ba7	-0.09734278
95	0xbd16f65a	-0.036856033
96	0xbdce5c31	-0.10076178
97	0xbc97b3cb	-0.01851835
98	0xbd3d0348	-0.046145707
99	0xbe20b508	-0.15694058
100	0x3d2f860e	0.042852454
101	0x3df34276	0.11877911
102	0x3dda1663	0.10648801
103	0xbc7eb24e	-0.015545441
104	0x3def3bd8	0.11681336
105	0xbde66702	-0.11250116
106	0xbd729258	-0.059221596
107	0x3c906513	0.017626321
108	0x3d5951e4	0.053056613
109	0x3dc450c6	0.09585719
110	0xbdd47c53	-0.103752755
111	0x3d8e84ca	0.06958921
112	0x3d58082d	0.052742172
113	0x3ea0e456	0.31424206
114	0xbe266b83	-0.1625195
115	0x3dce2227	0.10065108
116	0x3e18cd7c	0.14922136
117	0x3e12ea7b	0.1434726
118	0xbc69614d	-0.01424439
119	0x3d7dd7f7	0.06197354
120	0xbd9a73b6	-0.07541601
121	0x3dd326da	0.10310145
122	0x3e9118b1	0.2833915
123	0x3e052f35	0.1300629
124	0x3d590806	0.052986167
125	0xbcb42544	-0.021990426
126	0x3e491d76	0.19640145
127	0x3e6f042e	0.23341438
128	0xbdd5a6fd	-0.10432241
129	0xbe0b65ad	-0.13613005
130	0xbe69021f	-0.22754715
131	0x3e1f9eec	0.15587968
132	0xbd928505	-0.07154278
133	0x3d7da713	0.061926913
134	0x3ea0a258	0.31373858
135	0x3c759b59	0.014990651
136	0x3e419ea6	0.18908176
137	0x3de67fd1	0.11254848
138	0x3e1f4c07	0.15556346
139	0x3da672e5	0.08127383
140	0xbda00c9c	-0.07814905
141	0x3e29d055	0.16583379
142	0xbd05264a	-0.03250722
143	0xbe1466dd	-0.14492364
144	0xbd3dafce	-0.04631024
145	0xbd71481a	-0.058906652
146	0xbd19a9b2	-0.03751535
147	0x3da74c57	0.081688575
148	0x3ca6f6f6	0.020381432
149	0xbd4214cd	-0.04738312
150	0xbd05ec25	-0.032695908
151	0x3e1c2382	0.1524792
152	0x3dc59c57	0.0964896
153	0x3da79429	0.08182556
154	0x3b844e57	0.004037659
155	0x3dd92e24	0.10604504
156	0x3e4f70f9	0.2025794
157	0xbdbb1c36	-0.0913624
158	0x3e274d42	0.16338065
159	0xbc9300d5	-0.017944733
160	0xbe2d30d2	-0.16913155
161	0x3e244009	0.16040052
162	0xbdc8df5d	-0.09808228
163	0x3db0137b	0.085974656
164	0xbdf67505	-0.120340385
165	0x3d534c09	0.051586185
166	0x3e0a7c39	0.1352395
167	0xbddbc097	-0.10730093
168	0x3e203159	0.15643825
169	0xbe57e6c8	-0.2108413
170	0x3da78d1f	0.081812136
171	0x3ddb0f06	0.10696225
172	0xbc82b180	-0.01595378
173	0xbbb6f506	-0.0055834083
174	0xbd23897a	-0.03992603
175	0xbe631624	-0.22176415
176	0xbd4227c3	-0.0474012
177	0x3e034513	0.12819318
178	0x3c84283a	0.016132463
179	0xbdfb4027	-0.122680955
180	0x3dd7f88a	0.10545452
181	0x3ea764c9	0.3269408
182	0xbd3e63b9	-0.04648182
183	0xbda138b2	-0.07872142
184	0x3e6f9a1c	0.23398632
185	0xbd2f74d5	-0.04283603
186	0xbdddde5c	-0.10833427
187	0x3e468fea	0.19390836
188	0xbb8bd299	-0.0042670486
189	0xbd643a8f	-0.05571991
190	0xbdae13cc	-0.0849987
191	0x3e1990a9	0.1499659
192	0x3e452562	0.19252542
193	0xbe127e30	-0.14305949
194	0xbdc9b0b8	-0.098481596
195	0xbd8a158e	-0.067423925
196	0x3e52a028	0.20568907
197	0x3e01485c	0.12625259
198	0x3e0a31fb	0.13495629
199	0xbdc55642	-0.09635593
200	0xbd2274fa	-0.03966234
201	0x3daddf8e	0.08489905
202	0x3d634bfa	0.05549238
203	0xbcfccfd6	-0.030860823
204	0x3deede1c	0.11663458
205	0x3dde7436	0.10862009
206	0xbdbf3d5f	-0.093378775
207	0xbdae062e	-0.084972724
208	0xbe659622	-0.22420552
209	0xbcd28883	-0.02569986
210	0xbde5d81a	-0.11222859
211	0x3ddc53df	0.10758185
212	0xbcecec92	-0.0289214
213	0x3ddf4e81	0.10903645
214	0x3d81792a	0.06321938
215	0xbbc9c938	-0.0061580203
216	0xbd98e99d	-0.07466433
217	0x3e31043c	0.17286772
218	0xbdcd8aea	-0.100362614
219	0xbd9a0f1d	-0.07522414
220	0x3e76ce59	0.24102153
221	0x3d055907	0.032555606
222	0x3e15dc3e	0.14634797
223	0x3d4d943c	0.050190195
224	0x3d86e868	0.06587297
225	0x3dddaee2	0.10824372
226	0xbd0eaf5b	-0.0348352
227	0xbca378d2	-0.019955073
228	0x3de16904	0.11006358
229	0x3d6e4f2f	0.058180984
230	0x3d014944	0.031564012
231	0xbdc0c98a	-0.094134405
232	0x3c733b91	0.014845745
233	0x3d16427d	0.036684502
234	0x3da980aa	0.08276494
235	0x3cce913d	0.02521574
236	0x3dc7a10f	0.09747516
237	0xbe78a154	-0.24280292
238	0x3dbcb03e	0.09213303
239	0xbe3c87e5	-0.18411215
240	0x3db45beb	0.088065945
241	0x3ea226a4	0.31670105
242	0x3ddcfc39	0.10790295
243	0xbd7227c8	-0.05911997
244	0x3eb54e82	0.3541146
245	0xbd5ebf38	-0.05438158
246	0xbd98d334	-0.07462159
247	0xbdc214c2	-0.094766155
248	0xbd39fb07	-0.045405414
249	0xbd94f4df	-0.07273268
250	0xbe3dd56f	-0.1853845
251	0xbe42f471	-0.1903856
252	0xbd81462d	-0.06312213
253	0x3d6f0071	0.05835003
254	0xbc6b4ea0	-0.014362007
255	0xbd1a9e37	-0.03774854

fc3.bias f4 [32]
0	0x3f51f137	0.8200869
1	0xbf041d9c	-0.5160768
2	0xbd83c85e	-0.064347014
3	0x3ecdd29e	0.4019975
4	0x3eb4c744	0.35308278
5	0x3e8a72e1	0.2704077
6	0xbcc327b0	-0.023822635
7	0xbd8b089e	-0.06788753
8	0x3e850837	0.2598283
9	0xbc77bf27	-0.015121258
10	0xbd68e9ee	-0.056863718
11	0x3ee3903c	0.4444598
12	0xbe0c87b8	-0.13723648
13	0x3edcbd6f	0.43113276
14	0x3e9e6017	0.30932686
15	0xbe0b4f3d	-0.13604446
16	0xbd73ebba	-0.05955098
17	0xbddd7a1b	-0.108143054
18	0x3ddf6448	0.10907799
19	0xbe0a4a63	-0.13504939
20	0xbe3a2807	-0.18179332
21	0xbd0a0b00	-0.033701897
22	0x3bdd0c61	0.0067458604
23	0x3e6abe6d	0.22924204
24	0xbd62b974	-0.055352643
25	0xbe30eb46	-0.1727725
26	0xbdff04d2	-0.12452091
27	0xbdd6bbc6	-0.10485034
28	0x3dcc3d32	0.099726096
29	0xbda59294	-0.08084598
30	0xbe6dc0fe	-0.23218152
31	0xbd9bac9c	-0.07601282

fc4.weight f4 [10, 32]
0	0xbef9c203	-0.48780832
1	0xbc62a594	-0.013833422
2	0x3eb407de	0.35162252
3	0x3eb37da6	0.350568
4	0x3ead056d	0.33793202
5	0x3e9da049	0.3078635
6	0xbc886017	-0.016647382
7	0xbd852327	-0.065008454
8	0x3ebc0361	0.36721328
9	0x3d5ca230	0.05386561
10	0xbe329fb5	-0.17443736
11	0x3e50dd10	0.20396829
12	0xbe345ace	-0.17612764
13	0x3eaf45e0	0.34232998
14	0xbea76c4e	-0.32699817
15	0x3e856cf3	0.26059684
16	0xbeb8e89c	-0.36114967
17	0xbe1dceda	-0.15410939
18	0x3edff680	0.43742752
19	0x3e8f332d	0.27968732
20	0xbd00b839	-0.03142569
21	0xbd649592	-0.055806704
22	0x3d3d737f	0.046252724
23	0x3ba1dea9	0.0049398732
24	0x3d7423db	0.059604507
25	0xbe523102	-0.20526507
26	0xbe9334a9	-0.28751114
27	0x3e0c6277	0.13709436
28	0xbd8f265c	-0.06989738
29	0xbe07e6e3	-0.1327167
30	0xbdc2bff0	-0.095092654
31	0xbeb3b923	-0.35102186
32	0xbf32e9df	-0.6988811
33	0xbecce526	-0.40018576
34	0xbeb3d52f	-0.35123584
35	0xbd9178cd	-0.07103119
36	0xbe990ffa	-0.29895002
37	0x3d988a83	0.07448294
38	0x3e1936ee	0.1496236
39	0x3f4b5c41	0.79437643
40	0x3f57c0a0	0.842783
41	0xbd5348b0	-0.051582992
42	0xbe31272a	-0.17300096
43	0xbe19abe7	-0.15006982
44	0x3e60263e	0.21889588
45	0x3dc44df3	0.0958518
46	0x3dc51603	0.09623339
47	0x3e4bbbce	0.1989586
48	0x3eb47879	0.35248163
49	0xbd8bea21	-0.06831766
50	0x3da5e90c	0.08101091
51	0xbdc22adf	-0.09480833
52	0x3e30ddf6	0.17272171
53	0x3d3cd168	0.046098143
54	0x3de0ee20	0.10982919
55	0xbf3076a6	-0.68931043
56	0x3f39f5b6	0.7264055
57	0x3d0ed05b	0.034866672
58	0x3e6a94b2	0.22908285
59	0xbd3ec1b3	-0.046571445
60	0x3d32227a	0.04348991
61	0xbda880af	-0.082276694
62	0x3e1abf60	0.15112066
63	0x3e13336a	0.14375082
64	0xbe0ee23f	-0.13953494
65	0xbe3ccdca	-0.18437877
66	0x3edb4c40	0.42831612
67	0xbd09faf2	-0.033686586
68	0xbe482890	-0.19546723
69	0x3e8778ac	0.26459253
70	0xbe085fe0	-0.13317823
71	0xbdb08f0b	-0.08621033
72	0xbe251411	-0.16120936
73	0x3df7d6f2	0.121015444
74	0x3d22a059	0.0397037
75	0x3d8d64ed	0.06904016
76	0xbe3f6958	-0.18692529
77	0x3e0aecc9	0.13566889
78	0xbed8c54c	-0.42338026
79	0x3e9ba70d	0.30400887
80	0x3e28b0c9	0.16473688
81	0xbbdb389d	-0.0066900984
82	0x3ed2a705	0.4114305
83	0xbdc9d676	-0.09855358
84	0xbe6f38eb	-0.23361556
85	0x3d4c26a8	0.049841553
86	0xbe0ee408	-0.13954175
87	0x3a0623bd	0.000511702
88	0x3e211fe9	0.15734829
89	0x3d59205c	0.053009376
90	0x3f2aeeec	0.66770816
91	0xbe2b49bd	-0.16727348
92	0xbdb6ebc0	-0.089316845
93	0xbde46311	-0.11151708
94	0xbe169497	-0.1470512
95	0xbefbdd30	-0.4919219
96	0xbe56c272	-0.20972613
97	0xbdbf1bc3	-0.09331467
98	0x3ec2ff03	0.38085184
99	0x3f2364f4	0.6382592
100	0xbee1ad1c	-0.44077384
101	0x3d9b9837	0.07597392
102	0xbe293a39	-0.16526116
103	0xbe6acd96	-0.22929987
104	0x3e9bf3a9	0.30459335
105	0xbe0b8b26	-0.136273
106	0x3e3277fd	0.17428584
107	0x3ebffc84	0.37497342
108	0xbd986ebb	-0.07442995
109	0x3d593ae2	0.05303467
110	0xbead4ed5	-0.33849207
111	0x3eca0fdc	0.39465225
112	0x3e5abb0d	0.21360417
113	0xbe06de4c	-0.13170737
114	0xbd596c4a	-0.053081788
115	0xbdcc7d44	-0.0998483
116	0xbec4b313	-0.38417873
117	0xbdd8c311	-0.10584081
118	0x3e045ab8	0.12925231
119	0xbe9b978c	-0.3038906
120	0x3d9bb826	0.07603483
121	0x3e92b08a	0.28650314
122	0x3d2f9265	0.042864222
123	0x3d223ecd	0.039610673
124	0x3ec4232c	0.38308084
125	0xbe0818b5	-0.13290675
126	0x3d20cbbc	0.039256796
127	0xbb2b30b1	-0.0026121552
128	0xbdf5c0ba	-0.1199965
129	0x3dbaf464	0.09128645
130	0x3ec4a7b8	0.3840921
131	0xbcb0a106	-0.021561157
132	0xbe928ecb	-0.28624567
133	0xbf1cc8a6	-0.61243665
134	0x3d4ce5b0	0.050023735
135	0xbdc0fa60	-0.09422755
136	0xbdd5e067	-0.10443192
137	0x3ddb0a6c	0.10695347
138	0xbdf01568	-0.11722833
139	0x3e50f4b9	0.20405854
140	0xbdbe93b4	-0.09305516
141	0x3e839f1b	0.25707325
142	0xbef52299	-0.47877958
143	0x3e60aa9e	0.21940085
144	0x3dac11da	0.084018424
145	0x3da73838	0.0816502
146	0x3ec1b6af	0.3783469
147	0x3c552e93	0.013011592
148	0xbda68b57	-0.08132046
149	0x3d56c548	0.052434236
150	0xbd9a8c7c	-0.075463265
151	0x3dced28c	0.100987524
152	0x3ebe994d	0.37226334
153	0xbdd18689	-0.10230739
154	0x3f0e154c	0.55501246
155	0x3e21092f	0.1572616
156	0xbe8f4002	-0.27978522
157	0x3dd9da7a	0.10637374
158	0x3e7f316b	0.24921195
159	0x3e72baeb	0.23704116
160	0x3f83e73e	1.0304945
161	0xbf0bd394	-0.5461972
162	0xbeeaec9e	-0.4588365
163	0xbe5f5837	-0.21810995
164	0x3ef089da	0.46980172
165	0xbc0523c3	-0.008126202
166	0x3e5d7d22	0.21629766
167	0x3de27f43	0.110594295
168	0xbed4e9c0	-0.41584587
169	0xbdea5d82	-0.114436164
170	0x3e0dd880	0.1385212
171	0x3e835204	0.2564851
172	0x3e0afdd8	0.13573396
173	0xbe0ec7af	-0.13943361
174	0x3ed859cc	0.4225601
175	0xbf5a7e65	-0.8534911
176	0xbe3cd19a	-0.18439332
177	0x3e33f74c	0.17574805
178	0xbec40795	-0.38287035
179	0xbe30e88e	-0.17276213
180	0xbd286806	-0.04111483
181	0xbe2566f9	-0.16152562
182	0x3e0b841b	0.13624613
183	0xbdaef688	-0.08543116
184	0xbecb8fa1	-0.39758018
185	0x3e3c6cae	0.18400833
186	0xbf036065	-0.5131896
187	0xbd583217	-0.052782144
188	0x3ed68384	0.41897213
189	0x3dccbc6e	0.099968776
190	0xbeb2d33b	-0.3492678
191	0x3bdb9432	0.006701016
192	0xbe9ce9f9	-0.30647257
193	0xbd15d112	-0.036576338
194	0x3e3443e7	0.17604028
195	0x3eac694e	0.3367409
196	0xbd6862cc	-0.056734845
197	0x3e86f996	0.26362294
198	0xbce18c87	-0.027532829
199	0xbdb96570	-0.09052551
200	0xbe26d176	-0.1629084
201	0xbe08b17d	-0.13348956
202	0xbdba460d	-0.090953924
203	0x3e733039	0.23748864
204	0xbe65bc90	-0.22435212
205	0x3f1a1b90	0.6019831
206	0xbed14ba1	-0.40878013
207	0x3e58c96c	0.21170586
208	0xbe4da8b3	-0.20083885
209	0xbdf481ca	-0.11938818
210	0x3e680235	0.22657092
211	0x3f078bc5	0.52947646
212	0x3da56f18	0.0807783
213	0xbdc37d78	-0.09545416
214	0xbe13d231	-0.1443565
215	0x3d987a6f	0.07445227
216	0x3df4f5db	0.11960956
217	0x3ec68291	0.3877149
218	0x3ee31ffe	0.44360346
219	0xbe061b6e	-0.13096401
220	0xbd429356	-0.04750379
221	0x3c359a38	0.011084132
222	0xbde2bcff	-0.110712044
223	0xbdffdb90	-0.1249305
224	0x3f3c3912	0.7352458
225	0x3d85d152	0.06534065
226	0xbf6f58e0	-0.9349499
227	0xbec5d7b6	-0.38641137
228	0x3dbaa556	0.091135666
229	0xbdfc0bb1	-0.123069175
230	0x3d686b74	0.0567431
231	0x3e30c26e	0.17261669
232	0xbeb776fc	-0.35832965
233	0x3e0c1968	0.13681567
234	0xbc1a5eb4	-0.009421993
235	0xbf143ee6	-0.57908475
236	0x3d946815	0.072464146
237	0xbe35e356	-0.17762503
238	0x3f586769	0.8453279
239	0xbe87c594	-0.26517928
240	0xbe182d44	-0.14861017
241	0x3e334668	0.17507327
242	0xbede7a56	-0.4345271
243	0x3d04291d	0.03226577
244	0x3dd5598f	0.104174726
245	0x3d1a09dc	0.03760706
246	0xbe23587e	-0.15951726
247	0x3effd0be	0.49963945
248	0xbec9bc1e	-0.39401335
249	0xbd198683	-0.037481796
250	0xbf2c51ff	-0.67312616
251	0xbe160fb8	-0.14654434
252	0xbd9504a0	-0.07276273
253	0x3dceb7c6	0.10093646
254	0x3eafefd8	0.34362674
255	0x3cde82fd	0.02716207

fc4.bias f4 [10]
0	0xbd0fead7	-0.03513607
1	0x3d54c90c	0.051949546
2	0x3d79a629	0.06094948
3	0xbdb33b2f	-0.08751523
4	0xbece2121	-0.4025965
5	0x3f97db35	1.1863772
6	0x3dbbc53e	0.0916848
7	0x3e9d6354	0.30739844
8	0xbefdbba3	-0.49557218
9	0xbf1c3025	-0.6101096
