COMP 219 Advanced Artificial Intelligence /Resilience-to-Adversarial-Attack-main/ep0.05num30epoch70.pt (torch, 446863 bytes, 8 tensors)

fc1.weight f4 [128, 784]
00000000: 69ee be3c 4e32 88bc d11b 4fbc b529 a13c
00000010: 2be7 92bc f284 363c 8efb 0239 6340 593a
00000020: cded 073b 78f5 80ba 14c5 1e3c 7180 9e3c
00000030: c74c 993c 2ca1 94bb 83fa 853b e6a9 a83a
00000040: 8662 183c 7064 603c fac8 993c 0033 dd3b
00000050: 7f7b b0bb 946f a8bc 760e 4ebc 7ad6 8fbc
00000060: 46ca 8dbc a37c 033c d50e a63c 59ec 633c
00000070: a7ca 5bbc ba03 e83c 6768 7b3c 7f92 f03c
00000080: 5af8 163c 0eac 18bd 2fe1 0dbd ffc3 b8bc
00000090: c840 673c a4d7 23bd e813 c63c 9ee8 123d
000000a0: 07a2 2d3d b35a 2abc cafd 543c 6820 0f3b
000000b0: 00b4 a2bb 3d50 9b3d ea98 eabb cded 193b
000000c0: 08cf 3bbc 3134 a53a 1faf d8bc e908 2dbc
000000d0: 2f9b 0e3c 08d2 4bbc 8b1e f73c 6abb 6b3c
000000e0: accd 0abc 6f54 b0bc d12c aa3c 70af 983c
000000f0: 47ea 87bc 916e 133c 7d9d 613c fd5d d638
00000100: b043 20bd aa51 94bc 5e92 433c be91 8c3c
00000110: 80f3 9fbc a51d 19bd 0ff0 47bc 3d50 e1bb
00000120: 3da0 9a3c fb3f 4a3b 17bd e63b 40a0 5eba
00000130: 99e7 52bc 2ab2 e43c 9fa0 c6bc c654 683c
00000140: 5a6b b4bc 5a88 05bd b66c bfbb 57b3 efba
00000150: 28bc 533c 7dd5 9ebc 1c5d a9bc 5833 7d3c
00000160: 73d5 32bc 3e02 9b3c ce65 1a3c 2c2d 87bd
00000170: 6194 02bc bb66 ba3b c01f a9bc 1b2f 2cbc
00000180: 40d2 b23c 25f4 37bc dece 27bd 9272 35bc
00000190: f3ba fd3c c0b2 eabb c7ea cf3c 6793 603c
000001a0: f656 36bd 5291 37bd 4efc 783d 2f1b b83b
000001b0: fda0 5c3c f038 d83b 909f 953a fd4c 773c
000001c0: 5b11 cd3c 5850 74bc 3dfa b73b e0cb 8a3c
000001d0: 86fc e83c f626 533d 19d1 d4bc f41e ecbc
000001e0: 4fe7 95bc b93b 4ebb 297b d33c f45a d6bc
000001f0: 291c b23c a3a6 f8bc 3613 31bd 0b1a f3bb
00000200: ef8c 3c3c a1dc a23c de2b b9bc bf3c 593b
00000210: cc85 dd3c 4d39 e6ba a8dd 563d c088 2e3d
00000220: e057 a83c 8a1b 423c 2ae0 ccbc c157 ccbc
00000230: 63be aebc 3b8d 073a cb64 133c cc87 0c3c
00000240: 2283 b03c 4d1a 283d 3be9 413c cfee 903a
00000250: 5903 203c 54cf 3d3c c877 9abc e8a1 cc3c
00000260: e3dc bd3b 14cb 103a 6347 2bbd ae51 03bd
00000270: c1cf a1bc a6e1 0cbc b94e d93c f530 9dbc
00000280: bff7 c1bc e9a9 4f3c c486 303d 38cc 803d
00000290: b971 41bc 3aea 933c 7c0f 84bc ee5d a3bb
000002a0: 71b8 dfbc 09ac f9bb b805 e0bb 26fc 6f3c
000002b0: 3282 f93c b831 9f3d 7171 233d f692 043d
000002c0: 9563 3b3c d9f3 6bbc c3a4 8ebc f213 953c
000002d0: eb10 9ebc 94c9 edbb c251 05bd ef86 52bc
000002e0: e6f2 7abc f1f9 ef3c 1da1 a0bc 9eee a0bc
000002f0: 17cb b7bb e41d 7ebc 3191 623d 7d5c 093d
00000300: 2d2d 59bc 5dbe 64bb c13a b53c bd1c 9bbc
00000310: 67cf 333c 33ef c83c 5ad9 803c a355 e3bb
00000320: f387 193d 9304 483d 1033 213d f153 93bc
00000330: cb8f a13c 814d 003a 11f2 1c3c 1af2 423c
00000340: 1a5b f9bb ab33 183b b1af 69bc 6bae 42bc
00000350: ea38 17bd b261 f23c 832f 303d 9f46 ec3c
00000360: 78bd f33c 13fd b4bc ce4e 9a3c 7cda 903d
00000370: 737d 01bc 9e1a 033b 9c50 2cbd 291c 7bbc
00000380: 0894 303b 7c7b 3abc ed76 883b 19aa 143d
00000390: 1c9f 923d 471c d03d 017d 323c 2729 0dbc
000003a0: f93b 1a3d 516f 0bbc ebea 2cbc 2b95 623c
000003b0: ab42 edbc 0e0d 4ebb b381 94ba 090c 2ebd
000003c0: 0598 09bd 0c87 9d3c b6e9 053c 79e6 213b
000003d0: 4a31 8abc 820c 8e3b 8e02 abbb 5589 a73c
000003e0: b1ce 03bc 8a5d 803c 600e 1f3d 9695 3dbc
000003f0: e480 b73b 88b7 393c fdae a53c ef22 3dbb
0.023307042 -0.01662555 -0.012640909 0.019673208 -0.017932495 0.011140095 0.00012491478 0.00082874874
0.0020741106 -0.000983878 0.009690542 0.019348355 0.018713368 -0.0045358147 0.004088701 0.0012868016
0.009300834 0.013695821 0.01877259 0.0067504644 -0.0053858156 -0.020561017 -0.01257669 -0.017558325
-0.017308366 0.008025321 0.020270744 0.01391133 -0.013415015 0.02832209 0.015344716 0.02936673
0.009214485 -0.03727346 -0.03463858 -0.022554396 0.014114566 -0.040000573 0.024179414 0.035866372
0.04239085 -0.010397601 0.012999961 0.0021839384 -0.0049653053 0.075836636 -0.007159342 0.0023487688
-0.011462934 0.0012604055 -0.026450692 -0.010561206 0.008703991 -0.012440212 0.030165931 0.014387945
-0.008471888 -0.021524636 0.020773323 0.018638343 -0.016591204 0.008998529 0.013770458 0.00010221822
-0.03912705 -0.018105347 0.011936752 0.017159339 -0.01952529 -0.037381787 -0.0122032305 -0.00687602
0.018875236 0.003086089 0.0070415842 -0.0008492507 -0.0128726 0.027916986 -0.024246512 0.014180368
-0.022023845 -0.032600738 -0.005841817 -0.00182877 0.012923278 -0.019388909 -0.02067428 0.015454136
-0.010915148 0.018921968 0.009423686 -0.06600413 -0.007969947 0.005688516 -0.020645022 -0.010509278
0.02182877 -0.011227642 -0.04096877 -0.011074679 0.030972933 -0.007162422 0.025380505 0.013707018
-0.044516526 -0.044816323 0.06078749 0.005618475 0.013466117 0.0065985844 0.0011415351 0.015094039
0.02503269 -0.014911734 0.0056145475 0.016942918 0.028440725 0.051550828 -0.025978612 -0.028823353
-0.018298773 -0.0031468703 0.025815563 -0.026166417 0.021741943 -0.030352896 -0.04323121 -0.007418876
0.011508211 0.019880595 -0.022603925 0.003314778 0.027041338 -0.0017564684 0.05245748 0.042610884
0.020549715 0.011847386 -0.025009234 -0.024944188 -0.021331018 0.0005170886 0.008996199 0.008577298
0.021546904 0.041040707 0.011835392 0.0011057499 0.009766423 0.011585075 -0.018855944 0.024979547
0.005794154 0.0005523425 -0.041816127 -0.032060318 -0.019752385 -0.008598721 0.026526796 -0.019188384
-0.023677705 0.012674787 0.043097273 0.06288952 -0.011806899 0.018056024 -0.016120665 -0.0049855625
-0.027309628 -0.007619385 -0.006836619 0.014647519 0.03045759 0.07773155 0.039903108 0.032366715
0.011437316 -0.0144013995 -0.017412549 0.018197987 -0.019295176 -0.007256696 -0.032548673 -0.0128495535
-0.015316701 0.029293986 -0.019608075 -0.019645032 -0.005608927 -0.015510056 0.055314247 0.03353547
-0.0132554 -0.0034903504 0.022122743 -0.018934602 0.010974742 0.024528122 0.015728641 -0.006937699
0.037483167 0.048832487 0.039355338 -0.017984362 0.019721886 0.00048943615 0.0095791975 0.011898542
-0.007609737 0.0023224156 -0.0142630795 -0.011882405 -0.03691951 0.0295876 0.04301406 0.028842269
0.029753432 -0.022093331 0.018836405 0.070729226 -0.007903445 0.0020004879 -0.042069063 -0.015326538
0.0026943702 -0.01138198 0.0041645677 0.03629503 0.07159254 0.101616435 0.010894061 -0.0086157685
0.03765485 -0.008510427 -0.010554056 0.01382951 -0.028962454 -0.0031440887 -0.0011330157 -0.042491946
-0.033592243 0.019229434 0.008173397 0.0024704023 -0.016869206 0.004334987 -0.0052188104 0.020451227
-0.008044885 0.015669603 0.03883207 -0.011571309 0.0056000818 0.011335261 0.020225042 -0.0028859933

fc1.bias f4 [128]
00000000: 316d 2a3b b838 f8bb 93b4 023b a046 d7bb
00000010: e83d 80bc 56c3 f13d 678d a43d 1498 76bd
00000020: cafe 65bb fd41 7d3e 9594 74b9 0aa5 1abd
00000030: 31c3 cc3d b683 ce3d 896f 50bb 63bf 853d
00000040: 7a1b b63d feb2 cdbb b304 c9bc d68e 05bd
00000050: c479 b33d 2b5f 8bbd e6f1 b7bc 89a4 4fbd
00000060: 136e d73c d6ee a93b badc 9fbc 9345 873c
00000070: 70e7 94ba db3a 77bc bda4 7c3d fb5f 083d
00000080: f2ce e13c b024 f93b 98cd 8fbc 0e13 b1bb
00000090: 3904 f5bc e35c c1bc 89b3 8b3c ef53 f13c
000000a0: c8ec e83d 4006 11ba 0e55 fe3c e492 d5b9
000000b0: d190 833d 9950 a93d 656b 353d 2adf 023e
000000c0: 2315 7fbd bf9b 023c f059 223d 7f51 573c
000000d0: 4dc8 d1bd 9f3d 643b 7fcb c43c 679e 3b3b
000000e0: ecd5 153d e1f2 7abc 1f2f 97bd bb96 c3bc
000000f0: cce4 2a3d 6451 3dbc f67d ae3b 7799 7b3d
00000100: 2106 1b3c f3c7 c33c e194 963b 785e 833d
00000110: c6c2 24bc c693 8dbd f817 8c3d 58ec 6c3c
00000120: 4b79 c7bc 41d3 efbb 1331 3cbc 9f7e 7fbd
00000130: 7167 163e 0d62 0fbe bfbf 3d3d 32e4 a33c
00000140: e331 953e c8ba 11bd f8f4 da3c e7c7 253c
00000150: 046e 073e 3f65 c23d 74f7 8b3c 3939 7a3d
00000160: 6f65 f03d d79e b33d 5099 96bc f18f ff3d
00000170: cae6 333e f8da 783d b56e 20bd 3d8b b23c
00000180: 7d29 933b d9ea 3e3e f166 8c3d d9aa a03d
00000190: c0dd 1a3d ed3f f03c 99fd 27bd d117 24bc
000001a0: 784a a43c ba29 b33d aace db3d 0969 983d
000001b0: 92c5 d9bb 8275 f4ba 540f 01be cb89 ea3d
000001c0: ca4d 9f3b 9148 583d da98 debc dc4f 81bb
000001d0: af9a 8e3d 21f1 2cbc 8f2b 113d c54e 263e
000001e0: b781 833c ba5e a53b a46a 963d 82b5 3dbd
000001f0: 41df 94bc 1bae 9ebd 80c8 993d 703a 7b3d
0.0026005025 -0.007575121 0.0019944056 -0.0065696985 -0.01565452 0.118048355 0.08034783 -0.060203627
-0.0035094493 0.24732204 -0.00023325004 -0.03775505 0.09998167 0.100837156 -0.0031804761 0.06530645
0.088919595 -0.006277441 -0.024538374 -0.032606922 0.08763459 -0.06805261 -0.022454213 -0.050694022
0.026297605 0.005185942 -0.01951443 0.016512668 -0.0011360478 -0.015089716 0.061680544 0.03329466
0.0275645 0.0076032504 -0.01755409 -0.005403883 -0.02990924 -0.023603862 0.017053382 0.029458968
0.113732874 -0.00055322424 0.031046417 -0.00040735968 0.06424106 0.08267326 0.044291873 0.12780443
-0.062276017 0.007971703 0.039636552 0.013141989 -0.102432825 0.0034826768 0.024022816 0.002862835
0.036580965 -0.015316696 -0.073820345 -0.023875585 0.041722104 -0.01155505 0.0053250743 0.061425652
0.00946191 0.023899054 0.0045953845 0.06414503 -0.010056203 -0.06912951 0.06840509 0.014460646
-0.02434983 -0.0073188846 -0.01148631 -0.062376615 0.14687897 -0.14002247 0.04632544 0.020006273
0.29139623 -0.03557852 0.026728138 0.010118461 0.13225561 0.094919674 0.017085768 0.061089728
0.11738097 0.08770531 -0.018383652 0.124786265 0.17568508 0.0607557 -0.03916808 0.02179491
0.00449103 0.18644275 0.06855572 0.078450866 0.037809134 0.029327357 -0.041013334 -0.010015444
0.02005504 0.08748193 0.107327774 0.07441909 -0.0066458667 -0.0018650743 -0.12603503 0.11452063
0.004861568 0.05280358 -0.027172495 -0.0039462876 0.06963097 -0.0105555365 0.03544193 0.16240986
0.016053064 0.0050466927 0.07344559 -0.046315677 -0.018172862 -0.07748052 0.075089455 0.061335027

fc2.weight f4 [64, 128]
00000000: 3330 643d f1d3 5c3d 3d6b c4bc d8c9 0b3c
00000010: bf9c 87bd 8bd3 253d 01bd 73bd 35dd bc3d
00000020: 76a4 a0bd 5c2b 73bd 35d6 673d 4016 60bd
00000030: f61a e5bd 7690 e63d 0f19 96bd bd5d f03d
00000040: e04e 8a3d 735b 50bd ca3f 7cbb dfd1 a63d
00000050: 0b8d 2b3d a4eb 47bd d244 c6bc 611e 1b3d
00000060: 4716 883d 0be8 11bd bc53 b2bd b5af cd3d
00000070: 24d8 68bd 3de4 96bd b1bc 9c3d ccaa b1bc
00000080: 1cdc b7bd f27d 9f3d 613a 4f3d d541 89bc
00000090: 0a32 453d 17b8 85bd 6b12 b43d dbe8 003e
000000a0: 9cf2 5bbb bb0a e03d 2991 18bd 8789 863c
000000b0: 3e80 853d 1ca4 7cbd caff b8bc 18b4 d23d
000000c0: 5910 3abc 365c de3b baa6 d0bd f1ea 52bd
000000d0: fb83 f2bc 71df 8cbd 14b2 7dbd 338c ae3c
000000e0: bc0f 9d3d 933a 58bd ee15 aa3d d82d 513d
000000f0: 6e5d 2d3e ffb4 943d a197 2d3d 0569 4abd
00000100: 8f83 8abd 686c f53d c7fc 0a3c 5b7f 92bd
00000110: 6a3e 4a3d 11ad 9b3d 955c f13d 0625 163d
00000120: 79c6 013e 99fe a7bd f979 6ebd 63aa 74bd
00000130: 02c3 4d3d dc73 483d 1d94 c83d 3d41 8dbd
00000140: 03b3 fd3c 2baa 0b3d ca3a 083d 07fc 31bd
00000150: 43f9 3a3d 4a05 a7bc c07d ef3c 9978 00bd
00000160: fe0e 323d 92d8 933d e74a 773d b4f9 e93d
00000170: 8b85 88bc 8b1f ebbc 9034 aa3d d1be 87bd
00000180: 1d96 183d 89fc c43d fd41 c13c 2fad 183e
00000190: 495f 463d d3e5 7ebd a937 023d 22ec 8e3d
000001a0: 935b 2abd 02d4 8dbd f9ac ab3c 7d38 c63d
000001b0: 58e2 093d 783f a53d d445 43bb a4e9 3f3c
000001c0: 59ce 273b 9053 89bd 0b26 2a3c ace3 b93d
000001d0: ab49 cf3d 3440 0db9 53b7 a4bd 0792 583d
000001e0: 2e8b a43c f6a6 a63d 2b31 00bd 2e84 a23d
000001f0: 055b 3d3d 028e b63d ffc5 b93c ac69 91bd
00000200: adff 6d3d 7349 4ebd 259f 743d e290 04bd
00000210: c188 dfbc ffbf 1cbe 004d 683e 9f91 6e3d
00000220: 33b7 883c 3c02 e4bc 586f 30bd 800a 843d
00000230: 6276 253d 2f8f 393d 33be 2b3e 1df8 be3c
00000240: e88a 1dbe f8a1 df3d 7ce8 a2ba b729 8bbd
00000250: 0fe3 e83d 70a8 87bb 239d 1d3d 6a90 bcbc
00000260: 5461 a0bd 5c27 05bc 0c68 4e3d 2d53 36bd
00000270: 2f87 a5bd d167 c13a 1df9 2fbe bf09 d03d
00000280: 93bd 38bd e29e 01be b338 813c ef29 b0bd
00000290: 7e61 23bc 4f18 36bd 32ce 51bd 9abe d63d
000002a0: 0913 3f3e 1666 bcbc ae1f 1ebd 631a 49be
000002b0: 51a8 88bd 9c92 2c3c 4fcf febc 7662 b8bd
000002c0: f5d7 5e3d 574b 2cbe 8285 15be 94c7 42bc
000002d0: ff30 a83d dad5 343d 376b 943c ac52 3e3d
000002e0: 4b9c 0d3d c39e 093d 97d7 753b 1ec6 9abb
000002f0: a1f9 2bbd f78f 91bd 1717 623c abe5 39bd
00000300: 8d2d 33bd 6216 9b3b 1f80 683c f038 4bbd
00000310: 75f8 e4bd f6bf 13be 4625 b03c 1ab4 7fbd
00000320: 3e52 ce3c d30e 9b3d 291d 26bd a93e cf3d
00000330: a5fb b3bd e582 533e 970f 8c3d 26f8 eabd
00000340: ad89 9f3d 765d 1abd eeab d0bc 5747 babd
00000350: a1a9 acbd 76d7 c03c 72c5 8c3d a81f cabd
00000360: 02de 043d 5e38 aabd e5dd 25bd a30d cebd
00000370: ffd4 033e d2f8 b2bd a246 933c e06a 4bbd
00000380: d97c 86bd a587 883d 0776 9b3d f3b2 5dbc
00000390: 7e37 023d eb56 403c da31 0bbe 5791 afbc
000003a0: 7094 133d 7023 a33d b208 a4bd 1231 753d
000003b0: 0bbe bbbc 4c9d 103d fc73 bc3c 0b8f d9bc
000003c0: 28df 773d 006f 433d ac9c 793d 9b8a b6bd
000003d0: 4d73 36bd 3242 d23d c887 033e e880 353d
000003e0: ca58 3a3b f17e 9e3d b7ee 6a3d 2678 883d
000003f0: fe0e 3a39 cbc5 1ebd f1b1 693d f8f7 5e3d
0.05571003 0.05391306 -0.023976916 0.00853201 -0.06621694 0.040484946 -0.05950642 0.092218794
-0.078438684 -0.059367523 0.056600768 -0.05470872 -0.11186783 0.112580225 -0.07328998 0.11736629
0.067533255 -0.050868463 -0.003849017 0.081454985 0.041882556 -0.04880871 -0.024202738 0.03787077
0.06644874 -0.035621684 -0.08707377 0.10043279 -0.056846753 -0.07367752 0.076531775 -0.021687888
-0.089775294 0.07787694 0.050592784 -0.016755024 0.048143424 -0.06529253 0.087925754 0.12588827
-0.0033561355 0.10939547 -0.03724781 0.016423 0.06518601 -0.061679944 -0.022582907 0.102882564
-0.011356437 0.0067858947 -0.101880506 -0.05149359 -0.029603949 -0.068785556 -0.061937407 0.021307087
0.07669017 -0.052790236 0.08304964 0.05106911 0.16930172 0.07261085 0.042380933 -0.04941656
-0.06763374 0.119835675 0.008483118 -0.071531974 0.04937593 0.07601369 0.11785237 0.036656402
0.12673368 -0.082028575 -0.05822179 -0.059732806 0.050234802 0.048938617 0.09793875 -0.06897209
0.030969149 0.03409783 0.03325919 -0.043453243 0.04564787 -0.020388264 0.029234767 -0.03136501
0.04347133 0.07219042 0.060374167 0.1142458 -0.01666524 -0.028701564 0.08310807 -0.06628192
0.037252534 0.0961848 0.023591036 0.14909814 0.048430715 -0.062230896 0.031791363 0.069786325
-0.04159124 -0.06925203 0.020956503 0.09678743 0.033663124 0.08068746 -0.002979626 0.011713419
0.002560517 -0.067053914 0.010385047 0.09076628 0.10121473 -0.00013470725 -0.08042779 0.052873638
0.020085897 0.08137314 -0.03129689 0.079353675 0.04622938 0.089138046 0.02267742 -0.071002334
0.05810516 -0.050363015 0.059722085 -0.032364734 -0.027286889 -0.15307616 0.22685623 0.058244344
0.016688919 -0.027833097 -0.043074936 0.06447315 0.0403961 0.045302566 0.16771774 0.023311669
-0.1538502 0.10919565 -0.0012428905 -0.06795066 0.11371433 -0.0041399524 0.038479935 -0.02301808
-0.07831064 -0.00812706 0.050392196 -0.044512916 -0.08082425 0.0014755671 -0.17184873 0.10158109
-0.045102667 -0.12658265 0.015774107 -0.08601748 -0.009971974 -0.044456776 -0.051222034 0.10485573
0.18659605 -0.022997897 -0.03860443 -0.19638972 -0.06672729 0.010533001 -0.031104712 -0.09003155
0.05440517 -0.16825615 -0.1460171 -0.011888403 0.0821247 0.044149257 0.01811753 0.04646556
0.03457288 0.033598673 0.0037512535 -0.0047233244 -0.04198611 -0.07107537 0.01379945 -0.045385044
-0.043744612 0.004732893 0.014190703 -0.049614847 -0.11180202 -0.14428696 0.021502148 -0.062427618
0.0251857 0.07571187 -0.040555153 0.10119373 -0.08788232 0.20655401 0.06838911 -0.11473112
0.077899314 -0.037686788 -0.025472607 -0.09095638 -0.08430792 0.02354024 0.06873597 -0.09869319
0.032438286 -0.083115324 -0.04049482 -0.10061195 0.1287422 -0.08738865 0.017978016 -0.04966247
-0.065667816 0.06666497 0.07590871 -0.013531434 0.031791203 0.011739473 -0.13593236 -0.021431608
0.036030233 0.079657435 -0.08009471 0.05986125 -0.022917768 0.03530626 0.023004524 -0.026557466
0.060515553 0.04771328 0.06094043 -0.08913156 -0.044543553 0.10266532 0.12844765 0.044312388
0.002843427 0.07739056 0.057356562 0.066635415 0.00017743927 -0.03876285 0.057054464 0.0544357

fc2.bias f4 [64]
00000000: b0a0 bbbd 8947 cc3d 76e9 7cbc 50a1 123e
00000010: 1f5f 5f3e c60e 4cbc 7945 2e3d d405 47bd
00000020: 7cbf f03d 9aca 1abd 9925 5bbd 03b3 74bd
00000030: 43bd 933c 0cfd 1bbe 579c be3b 76e8 48bd
00000040: da10 87be 59d9 72bd 43d2 66bc b673 253e
00000050: 40f7 00be 311c 38bd 47ea 7f3d a6b3 c33d
00000060: 7a8f 3bbd a1d0 323e 7f7d 8a3b 9632 98bd
00000070: f473 f43d 7af1 683d 3d66 f3bc 4370 4639
00000080: 01a8 503e 1a21 a03d a353 d53d 220e efbd
00000090: 21f2 263d c6a7 133e 978c ca3d b3cf 8f3d
000000a0: 82aa 11be de4f ab3e 3c5a a8bd 7677 8d3c
000000b0: 7aec 103e b433 d93d 9b17 633e 64c6 cfbc
000000c0: f9d5 b2bd 9f93 0b3e 22c6 dabb 618b 8abb
000000d0: a341 263e c6b1 023e f0b5 97bd ecaf 7ebd
000000e0: 9ac7 a03c 0240 13be 0126 a13d d29e efbd
000000f0: 9742 58bd d297 5ebd 4e57 e0bc cf68 69be
-0.09161508 0.09974582 -0.015436521 0.14319348 0.2181363 -0.012454694 0.042546723 -0.048589543
0.11755273 -0.037790872 -0.053502653 -0.05974103 0.018034583 -0.15233248 0.005816977 -0.049049817
-0.26380044 -0.05928931 -0.014088216 0.16157421 -0.12594318 -0.04494876 0.062479284 0.095557496
-0.045791127 0.17462398 0.004226386 -0.074315235 0.11936179 0.056870915 -0.029711837 0.00018924572
0.20376588 0.078188136 0.10416343 -0.116726175 0.040758256 0.14419469 0.09890097 0.07022037
-0.142252 0.3345937 -0.08220336 0.017268877 0.14152709 0.10605565 0.22176974 -0.025363155
-0.08732218 0.13630532 -0.0066764513 -0.004228041 0.16235976 0.12763128 -0.07407749 -0.06217949
0.019626427 -0.14379886 0.07868577 -0.117002144 -0.05279788 -0.054344006 -0.02738538 -0.22793888

fc3.weight f4 [32, 64]
00000000: 4ee8 0c3e 903c a23e 421a 15be ab9b eb3d
00000010: 6239 8d3e 1585 6e3c 13bd 573e 06b5 8dbc
00000020: a1cc b43e 1394 afbd c878 403e 9394 f93c
00000030: ed35 c43d dff7 2dbe 38d2 123e afb5 df3d
00000040: 41e3 febd 68c4 27be fbb4 c4bd 229b c03b
00000050: 5596 2cbe 4559 653d 53de c93d e76a e1bd
00000060: 7244 5abd d015 9cbc 1b13 80bb a671 86bb
00000070: aaa1 1abe 1f17 223d 5e3b 81bd 8867 2abe
00000080: afc6 3e3c 557f 39bd 2806 cfbc 40e3 07be
00000090: f78d 833d c9f0 df3e fe43 3dbe 4337 ce3d
000000a0: 7a6f 303b 7ba7 c13e f91a 523c 0ebc 2a3b
000000b0: 9565 2f3e 57e4 403d c420 913e 6b35 53bd
000000c0: d3f6 fbbd 638f bc3d f389 b4bc 45f6 013c
000000d0: a518 9b3e 96be b33e 240c bf3d 2b76 f53d
000000e0: 5cba c53c ae9b 3d3e 91b8 d9bc 137e 003e
000000f0: 7c21 203d fdae 8d3d cf88 19be c569 68be
00000100: 5416 343e 7cc8 9a3d 9c2a e53d 2de3 0abe
00000110: 369c 9e3d f591 0abe aa98 a53d 7aef b53d
00000120: 0c14 5cbe f106 1ebe a9fb 773e 630e 27bc
00000130: 654a 7b3d c2fe dfbd 8913 193c f10a b03d
00000140: 009d 8e3a 4a06 543d c8a0 f83c b431 423c
00000150: a2ae 6b3d 863f d13d b21c 893d aad4 eb3c
00000160: 8dd1 e83d 794f 583e 250d b63d 850c adbd
00000170: 9b57 c2bd 229b 153d 550a f1bd 6772 abbd
00000180: df09 f4bd aeea c8bd 8362 38be 4c22 99bd
00000190: 83b2 2c3d fc5d 403e 13f7 ac3d 911a 7fbc
000001a0: 1bb3 0f3e d3a3 12bd bfcf 75bd 2113 953c
000001b0: b8de 2a3d a137 a83d 5feb a1bd fd9e 2cbc
000001c0: 30f5 573d dffc 9f3e 84be 8ebe 5d15 cf3d
000001d0: 39a7 223e e348 d93d 91d9 edbc 9728 8b3d
000001e0: a8ff 0abe 3033 bd3d 1387 ce3d efaf 3f3e
000001f0: 0e45 b33d 540d b8bc 554f 1c3e 983e 853e
00000200: 5a09 57bd 1307 2dbe 6c6a 76be 14ff 413e
00000210: 618c 10be e0eb 8d3d 8848 cc3e ff73 7e3c
00000220: e10e 7d3e 97a8 553e 4480 2b3e b2fe 4b3d
00000230: 5ee3 0abe a6da 2e3e b0af 06be 8e81 cbbd
00000240: dfae b9bc e6cc abbd 1f05 19bd 3f15 1d3d
00000250: 900f 453d 9770 43bd 27c6 05bd bc57 773e
00000260: a840 c53d adbf de3d 3292 893b 3d8b e13d
00000270: aa0c ac3e b921 b9bd 5f39 173e d67f ac3c
00000280: d15b 16be 793a 9d3e ac15 8cbd 62bf af3d
00000290: 20e9 f6bd 520d 17bd 37f8 113e 4e22 dcbd
000002a0: ad41 203e 8dcf 94be 3d4d a63d b956 dd3d
000002b0: 0115 75bc bbdd 34bd 8da6 67bd b31d b7bd
000002c0: dccb 41bd 0d4e 0f3e 8e0f a33d 75fe f1bd
000002d0: 9d44 233e f0f5 953e da92 42bd 3e8b b2bd
000002e0: bb53 9d3e 627e dbbd 5614 fdbd 96a2 263e
000002f0: 0f96 0ebd f663 64bd a39a 3bbe 28ca 543e
00000300: b152 063e 7a3c 4bbe c458 29be 3596 923b
00000310: 41fa bb3d 7886 1b3e d2a9 7d3e 9bee c4bd
00000320: 1968 6c3b 4184 133e cc3b e23c 2e81 0bbd
00000330: d05e 013e fd11 af3d de64 29bd 4715 81bd
00000340: 0129 a1be 4f13 f03b a0cd e4bd 04d0 d63d
00000350: d415 79bd 5995 dd3d 8a71 813d 73f7 003e
00000360: ce4c 99bd 9367 283e fe5d 20be 1227 99bd
00000370: 9b45 4e3e 6666 853c 7014 3a3e 11c2 c7bb
00000380: 18c2 003e 3b62 363e 7468 1f3e 3cf3 95bc
00000390: 1036 e33d c4e3 c03c 6b11 cf3c 4be2 c0bd
000003a0: ff5d afbc 9445 383d 5e6b ac3d 785e d93c
000003b0: 6f03 c63d 285e 2abe ab49 f33d 63c1 c9bd
000003c0: 9569 b43d 77c5 b23e 5e79 013e 3165 5bbd
000003d0: 3082 be3e 40a4 593d ada2 80bd 2519 d0bd
000003e0: e231 0abd 6ed8 4bbd 2da8 c6bd be88 67be
000003f0: 2655 87bd 7c4c 713d b1c5 63bd f533 b9bd
0.13760492 0.3168683 -0.14560798 0.11504301 0.27582842 0.014558096 0.2106822 -0.017298233
0.3531237 -0.08573165 0.18796074 0.030466354 0.09580598 -0.16989087 0.14338005 0.10923325
-0.12445689 -0.16383517 -0.09604832 0.0058778683 -0.16854222 0.055993337 0.09856858 -0.11006718
-0.05328793 -0.01905337 -0.0039085275 -0.0041029034 -0.15100732 0.03957283 -0.063101515 -0.16641057
0.01164405 -0.04528745 -0.02527149 -0.13270283 0.06423562 0.43738392 -0.18482968 0.10069134
0.0026921914 0.3782309 0.012823814 0.002605203 0.17128594 0.04709276 0.2834531 -0.051564615
-0.12302937 0.09207036 -0.022038436 0.00793225 0.3029224 0.35106343 0.093284875 0.119854294
0.024136715 0.18516418 -0.026577266 0.12548093 0.039094433 0.06918142 -0.14993595 -0.22696598
0.17586643 0.075577706 0.11189768 -0.13563223 0.077446386 -0.1353224 0.08085759 0.08883567
-0.21492022 -0.15432335 0.24217094 -0.010196301 0.061350245 -0.10937263 0.009343036 0.08595837
0.001088053 0.05176381 0.030350104 0.01185267 0.05753959 0.10217194 0.06694926 0.02878793
0.11368094 0.21124066 0.08889226 -0.084496535 -0.09489366 0.0365249 -0.11769549 -0.0837143
-0.11915945 -0.098103866 -0.18006329 -0.07477245 0.04216243 0.18785852 0.08445563 -0.015570299
0.14033167 -0.035800766 -0.060012575 0.018197598 0.041716307 0.08213735 -0.079062216 -0.010535953
0.052724063 0.31247613 -0.27879727 0.101114966 0.15884103 0.10609605 -0.029034408 0.06794851
-0.13574088 0.09238279 0.10084357 0.18719457 0.087534055 -0.022467293 0.15264638 0.26024318
-0.052499153 -0.1689723 -0.24064034 0.18944961 -0.1411605 0.06929755 0.39899087 0.015530585
0.24712707 0.20865093 0.16748148 0.049803443 -0.13563296 0.17075595 -0.13152957 -0.0993682
-0.022666393 -0.08388691 -0.0373584 0.03835034 0.048110545 -0.047714796 -0.032659676 0.24154562
0.09631473 0.10876403 0.004198336 0.11012886 0.33603412 -0.09039635 0.14767979 0.02105705
-0.14683463 0.30708674 -0.06840071 0.08581425 -0.12056184 -0.036877938 0.14254843 -0.107487306
0.15650053 -0.290646 0.08120201 0.10807557 -0.014958621 -0.04415677 -0.05655532 -0.089412116
-0.047313556 0.13994618 0.07961951 -0.11816112 0.15944143 0.29289198 -0.04750333 -0.087179646
0.30727944 -0.10717465 -0.123573944 0.16272959 -0.034811076 -0.055759393 -0.18320708 0.20780241
0.13117482 -0.19847289 -0.16537768 0.0044734725 0.091785915 0.15188015 0.24771813 -0.09615823
0.003607279 0.1440592 0.027616404 -0.034058742 0.12633824 0.08548353 -0.04135596 -0.063028865
-0.31476596 0.0073265205 -0.11172032 0.104888946 -0.060811833 0.108195014 0.06320484 0.12594394
-0.074853525 0.1644576 -0.15660855 -0.07478155 0.2014374 0.016284179 0.18171859 -0.0060961326
0.12574041 0.1781091 0.1556719 -0.01830446 0.11094296 0.023546107 0.02527686 -0.09418162
-0.021407126 0.04498823 0.08418916 0.026534304 0.09668624 -0.1663748 0.118792854 -0.09851339
0.08809201 0.3491628 0.12643954 -0.0535633 0.372087 0.053135157 -0.06281028 -0.10161046
-0.03373898 -0.04976695 -0.09700046 -0.22610757 -0.06608038 0.05891083 -0.055608455 -0.09043113

fc3.bias f4 [32]
00000000: 23a9 2a3f 4598 c9be 971e 8fbd 25fe b23e
00000010: 3bfe c53e 7def ae3d eb34 48bd 33ac 523d
00000020: 28ba 4d3e 15d5 c1bc 54a0 f9bb 8cf6 9d3e
00000030: 214d ffbd 457a 7d3e 08fa 483e 276e 11be
00000040: c1fe 45be 431c 8dbd b0a0 923d d6bf 85be
00000050: 0d1e 21be 000b 0abd 54a3 433c 48e7 753e
00000060: 3c25 c1bd ad5c 76be a693 f9bd 2916 d2bd
00000070: 5f67 89bd 0241 97bd d67c 34be b9d4 5c3c
0.6666433 -0.39373985 -0.069882564 0.34959522 0.38670525 0.085417725 -0.04887859 0.051433753
0.20090544 -0.023661176 -0.0076179896 0.30852163 -0.12465883 0.24753673 0.1962663 -0.14202176
-0.19335462 -0.06890156 0.07159555 -0.26122922 -0.1573412 -0.033701897 0.011940796 0.24014008
-0.0943093 -0.2405879 -0.12186365 -0.10258133 -0.067091696 -0.07385446 -0.17625746 0.013478451

fc4.weight f4 [10, 32]
00000000: cefc cebe b8ce c8bd 5073 a53e 73c0 7e3e
00000010: 511e b63e b144 ca3e 631d 1ebd 5fe6 413c
00000020: 9537 8a3e af27 363d 1d86 a7be d277 e73d
00000030: 6f0f 03be addd ab3e 46f8 4ebe f853 4d3e
00000040: 22ca 74be 596c a1be 3c60 c63e 599c 8d3e
00000050: 0a4a 113d 9295 64bd 73c7 423d 4a60 803c
00000060: faed 07be 4012 94be 23a8 8bbe d91e 0c3e
00000070: 3f7d a33c de54 c5bd ee5c debd dd37 2a3d
00000080: b642 2dbf 976c 99be d599 61be 81d8 f9bd
00000090: 67a5 aebe 68e1 9b3e ef74 183e f6ed de3e
000000a0: 4f47 3d3f c3eb 51bd 1f9e c7bd 2d95 47bd
000000b0: 4052 443e a773 203e 4e46 55be 494f 3d3e
000000c0: eb8b 703e f26c f13c 46f7 2b3e f96e 23be
000000d0: 3e09 a03e 68d1 3c3d 4220 e03d 1ba0 37bf
000000e0: a1b7 4c3f 8c84 12bd 998f ae3e f594 e5bc
000000f0: 285d 073e c42e a9bd 56f4 e43d ebc1 9b3d
00000100: 9f20 81be 8cb9 97be 16d8 d23e 8d7b 5cbc
00000110: 2896 5abd eb24 fabc 7c15 efbd 5afd 713e
00000120: 978f b2bd 71d7 003e d59d 543e c4de c33d
00000130: cb56 50be 3e0f 063d 4411 74be 873d 6b3e
00000140: 3b99 363e 8c10 ffbd c217 d93e 5249 813e
00000150: 056c 84be a826 4c3d 8c8c 10be 900a f23d
00000160: bf49 05bd 12b4 313e dbed d23e a8e9 48be
00000170: 426f 013e 7592 dcbd 6780 1abd 05c8 26bf
00000180: de13 31bd 4a7d 623c ce7a bf3e 56e3 163f
00000190: 8166 d0be 80f7 f0bc 3b01 19be 61a0 313e
000001a0: bbd3 0a3e 495b 08be f895 42bc f9e4 bc3e
000001b0: b515 d1bd a2a6 8fbd a646 8abe 3f0c b13e
000001c0: 183c 943e 7715 7ebe 804c 6fbe fc96 c5bd
000001d0: 7dc1 9ebe 11c3 d8bd 580e 043e e31b a4be
000001e0: 16af 903d a115 983e 217d 243d fc55 203d
000001f0: 9858 773e 7c29 14be 22da 533d afe3 32bd
00000200: 82d3 4fbe 46e8 8b3e 66b4 593e be61 28be
00000210: e217 c9be 4fdf d8be f200 363d 9898 f1bd
00000220: 79c5 3fbc be5d de3d 99fb 7dbd 9c6a 913e
00000230: 1aa9 90bd c4be 843e 961f 78be 03f3 993e
00000240: ba17 b0bd e15e 863e d1c3 573e 5b9e de3e
00000250: 7683 49be 48c5 563d fa3f 9abd 2218 99ba
00000260: 6669 853e 1977 6ebe 1a5c bf3e dc04 213e
00000270: 7bc7 2dbe 679a de3d ec92 de3d fce2 ea3d
00000280: 62c1 643f 9d7a d4be 942e c9be 8e37 693c
00000290: dacd e03e 0421 dcbd 3b0e 313e 377a f53d
000002a0: 9fd0 b6be 3f92 e9bd f6ed 903e 9aeb f83e
000002b0: 9295 1d3e a407 adbd 948b af3e 2486 4abf
000002c0: 9fcc 84be 7f83 263e 16b2 91be 3e3a 03bf
000002d0: a4e8 b8bd f966 25be 3ba6 0b3e 835b bbbc
000002e0: f365 8ebe f9df 033e 510f b9be 9b3f 56bd
000002f0: 56a2 7f3e 804f cd3d 7040 c5be 58ac a9bd
00000300: aa35 3ebe 3f6f 6fbe 4423 8e3e b29c b83e
00000310: fc00 043e 02e6 c63d 5059 01bd 8768 a1be
00000320: 1d5a 1abe b300 0abe 785b 18be 5d53 04bd
00000330: 6e1a 9cbe ea18 f23e 691f 6fbe f08b ee3d
00000340: 8bb4 43be 21bf 0abd a40f 8d3e c530 063d
00000350: b6a5 92bd 787d c3bd 672c 13be d103 c93b
00000360: fc19 323e edff 0f3f 5a1f ed3e b4a6 e2bd
00000370: a26c 6f3d 9185 9fbc c489 a8bd 7b46 a5bc
00000380: b1d7 303f e4ab 0c3e 9fff 6ebf 4bc4 a0be
00000390: 8ee8 113e 21e7 06be d52a 9d3d 67b7 c93d
000003a0: 1f42 a7be e948 0c3e d18f 4dbe 72d0 24bf
000003b0: 0795 983d 4cdf 0abe 380d 043f c987 04be
000003c0: 8f65 9ebd 2776 103e f5d6 9dbe 2456 febd
000003d0: 8682 6e3e dc09 1a3d 3443 23be c117 ec3e
000003e0: e579 9dbe a811 1cbd af51 f0be 1201 16be
000003f0: 4fef 21be 28c5 ce3d 7be4 943e ecf9 843d
-0.4042725 -0.098050535 0.3231454 0.24878101 0.35570005 0.39505532 -0.038602244 0.01183471
0.2699553 0.04447144 -0.32719508 0.11302151 -0.12798856 0.33567563 -0.20211896 0.20051563
-0.23905233 -0.31527975 0.38745296 0.27658346 0.035471 -0.055806704 0.04755349 0.015670914
-0.13274375 -0.28920174 -0.27276716 0.13683642 0.019957183 -0.09635328 -0.10857569 0.04155718
-0.6767992 -0.2996566 -0.22031339 -0.12199498 -0.34110567 0.3044541 0.14888357 0.43540925
0.73936933 -0.05125023 -0.09746956 -0.04872625 0.19172001 0.15669118 -0.208276 0.18487276
0.23490874 0.029470894 0.16793546 -0.15960301 0.3125705 0.046098143 0.10943653 -0.71728677
0.79967695 -0.035770938 0.3409393 -0.02802513 0.1321913 -0.08260873 0.11179416 0.07605346
-0.252202 -0.2963375 0.41180485 -0.013457191 -0.053365856 -0.030535182 -0.1167402 0.23631802
-0.08718794 0.12582184 0.20763333 0.095639735 -0.20345609 0.03272938 -0.23834711 0.2297269
0.1783189 -0.12454328 0.42400938 0.2525125 -0.25863662 0.049841553 -0.14116114 0.11818421
-0.032541033 0.17353848 0.41197094 -0.19620383 0.12640098 -0.10770122 -0.03772011 -0.65148956
-0.043231837 0.013823817 0.3739838 0.5894064 -0.40703204 -0.029414892 -0.14941876 0.17346336
0.13557331 -0.13316073 -0.011876576 0.36893442 -0.102092184 -0.070142046 -0.27007025 0.34579656
0.28952098 -0.24812876 -0.23369026 -0.096479386 -0.31006995 -0.10584081 0.12896097 -0.32052526
0.07064645 0.29704002 0.040158395 0.0391445 0.2415489 -0.1446895 0.0517217 -0.043674167
-0.20295528 0.27325648 0.21260223 -0.16443536 -0.39276034 -0.4235787 0.044434495 -0.11796683
-0.011704796 0.10857724 -0.06200752 0.2840165 -0.070635036 0.25926793 -0.24230799 0.30068216
-0.085982755 0.26244262 0.21070792 0.4348019 -0.19679055 0.052434236 -0.07531734 -0.0011680166
0.26056975 -0.2328762 0.37374955 0.1572451 -0.16970627 0.10869294 0.10867867 0.11469075
0.8935758 -0.41499797 -0.3929335 0.014234437 0.43907052 -0.10748485 0.17290585 0.11986201
-0.3570604 -0.11404847 0.2830655 0.4861725 0.15389088 -0.08448723 0.34286177 -0.7911093
-0.25937364 0.162611 -0.2845618 -0.51260746 -0.09028748 -0.16152562 0.1363763 -0.022870785
-0.27812156 0.12878408 -0.36144498 -0.052306753 0.2496427 0.10024929 -0.38525724 -0.08284825
-0.18575159 -0.23382281 0.2776128 0.3605705 0.12891 0.09711839 -0.031579316 -0.3152506
-0.15073438 -0.13476829 -0.14878643 -0.032306064 -0.30488914 0.47284633 -0.23351826 0.11647785
-0.1911184 -0.03387368 0.27550995 0.032761354 -0.07160513 -0.09545416 -0.14372407 0.006134488
0.17392725 0.56249887 0.46312982 -0.11066952 0.05845321 -0.01947287 -0.08229402 -0.02017521
0.6907912 0.13737446 -0.93358797 -0.3139976 0.14248869 -0.13174106 0.07674185 0.09849434
-0.32667634 0.13699688 -0.20074393 -0.6438056 0.074503 -0.13561743 0.5158267 -0.12942423
-0.077342145 0.14107572 -0.30828062 -0.12418774 0.23291978 0.03760706 -0.15943605 0.46111873
-0.3075706 -0.038102776 -0.4693732 -0.14648846 -0.15813945 0.10096198 0.29080567 0.06492981

fc4.bias f4 [10]
00000000: baba c33a 2667 943d a01f e93c dc25 1fbe
00000010: c1be a0be fc4e 7d3f d888 363d b3a0 a13e
00000020: a791 d2be b30b 01bf
0.0014932968 0.072462365 0.028457463 -0.15541786 -0.31395534 0.98948646 0.044564098 0.31567916
-0.4112675 -0.50408477
