COMP 219 Advanced Artificial Intelligence /Resilience-to-Adversarial-Attack-main/ep0.06num30epoch10.pt (torch, 446863 bytes, 8 tensors)

fc1.weight f4 [128, 784]
0.010017043 -0.017642284 -0.008975235 0.023458375 -0.011691908 0.015684899 0.0036313445 0.009317332
0.0026359893 -0.008010488 0.016499063 -0.026944287 -0.009906635 -0.04211224 -0.04673721 -0.038125925
-0.016009524 -0.011835129 0.015024609 0.0058925785 0.0023120486 -0.011278949 -0.008804562 -0.011658663
-0.0150811495 0.0062882984 0.013610472 0.0065355375 -0.007383149 0.019331234 0.01100775 0.026749255
0.009961957 -0.025650632 -0.027004546 -0.0028887254 0.045552846 -0.014917043 0.05642751 0.04704024
3.0419802e-05 -0.07955142 -0.059859265 -0.0559824 -0.032228682 0.089398935 0.002888528 0.0106537
0.015245362 0.009988874 -0.019446108 -0.0033560493 0.018941786 -0.013034644 0.017751934 0.020113261
-0.008014734 -0.026797388 0.018354377 0.017429752 -0.0023812465 0.0165144 0.022816777 -0.019800277
0.0048468104 -0.006913104 0.008872753 0.011825774 0.004431851 -0.0364178 -0.010614643 -0.007650128
0.016393885 -0.0062857503 -0.0001756583 0.013763639 -0.023456313 0.0006212015 -0.012233789 0.02406686
-0.015366341 -0.030213647 -0.0003300414 0.017075185 0.012538495 -0.02048048 -0.025920494 0.009954724
0.004019869 0.025876695 -0.011846146 -0.0593596 0.019975454 0.015857102 -0.02685211 -0.009261182
0.01809443 0.007012853 -0.019200942 -0.010591576 0.024654983 0.003195773 0.031413857 0.012979211
-0.03127453 -0.057664406 0.044987757 0.008242976 0.019990508 0.014127638 0.00019444723 0.013773173
0.025243664 -0.010051143 0.0062860083 0.015517762 0.03244619 0.043984063 -0.041217394 -0.017834082
0.0019225613 0.012623226 0.024383979 -0.017235838 0.032918535 -0.004607456 0.009057342 -0.002714632
0.020560808 0.02664 -0.019676844 0.015158497 0.029742075 -0.0012808345 0.05026768 0.040387444
0.014976903 0.008556315 -0.0045200065 -0.02640741 -0.013958553 -0.0065021217 0.005165669 0.008246399
0.0076331026 0.02660527 0.015683448 0.010954568 0.030023348 0.026782727 -0.013824981 0.034242384
0.018542325 0.014917866 0.00087237236 -0.022061648 -0.0070789927 -0.00021980048 0.026948787 0.0030460749
-0.0024120838 0.01839047 0.030658102 0.049140975 -0.0054000914 0.025255797 -0.0073480303 -0.0097184805
-0.01834835 -0.00851061 -0.009037169 0.01880612 0.017533207 0.058842234 0.045598894 0.033909358
0.029417863 0.002307679 -0.023437183 0.016534548 -0.012988492 0.024680069 0.0068157124 0.015620976
-0.010804289 0.020895908 -0.015230735 -0.0021701462 0.010671191 -0.0046144845 0.029147025 0.011229177
-0.007861064 0.008284592 0.02344617 -0.008014328 0.017075092 0.021342048 0.023618862 -0.0037919788
0.018589381 0.016137889 0.029780613 0.005773048 0.042787015 0.0005101718 -0.001002576 0.0068877796
0.0036109136 0.016894855 0.018495223 0.01110454 -0.02634512 0.023513105 0.029830065 0.028105708
0.026860666 -0.0131174205 -0.005368958 0.04882165 -0.02468308 -0.0027716595 -0.037454188 -0.013877372
-0.00084634626 -0.009447534 -0.004670322 0.01403623 0.028873196 0.06838419 -0.0049994406 0.002409892
0.052489117 0.008270903 -0.017256869 0.015280062 -0.020109668 0.016237369 0.020500625 -0.012931591
-0.03383895 0.02065205 0.011178611 0.014492557 0.0021160576 0.0060776668 -0.026599424 -0.010073274
-0.024158873 0.011439545 0.020417478 -0.00963914 0.0011087006 0.009974664 0.018229412 -0.01353233
00000000: 861e 243c 8d86 90bc dd0c 13bc c72b c03c
00000010: 6b8f 3fbc 9e7d 803c dafb 6d3b b9a7 183c
00000020: 90c0 2c3b 6c3e 03bc 0b29 873c 44ba dcbc
00000030: 704f 22bc e27d 2cbd 846f 3fbd ee29 1cbd
00000040: 6826 83bc 21e8 41bc c729 763c 8816 c13b
00000050: bd85 173b 57cb 38bc 0241 10bc fa03 3fbc
00000060: ed16 77bc 120e ce3b 75fe 5e3c 1028 d63b
00000070: 58ee f1bb 895c 9e3c da59 343c 4121 db3c
00000080: 7a37 233c 4621 d2bc a338 ddbc c550 3dbb
00000090: 9f95 3a3d 9d66 74bc 8820 673d 44ad 403d
000000a0: 072e ff37 dbeb a2bd fd2e 75bd cd4d 65bd
000000b0: 3902 04bd ca16 b73d 754d 3d3b db8c 2e3c
000000c0: afc7 793c 60a8 233c 724d 9fbc 2af1 5bbb
000000d0: ce2b 9b3c 428f 55bc 816c 913c 91c4 a43c
000000e0: 3b50 03bc 3286 dbbc eb5b 963c d7c8 8e3c
000000f0: b00e 1cbb 3549 873c 40ea ba3c 3134 a2bc
00000100: fed1 9e3b 5287 e2bb 065f 113c e4c0 413c
00000110: 1039 913b d52a 15bd 0ae9 2dbc edad fabb
00000120: 784c 863c b2f8 cdbb ea30 38b9 e380 613c
00000130: 7427 c0bc 21d8 223a 3b70 48bc dd27 c53c
00000140: 1bc3 7bbc 9c82 f7bc 6809 adb9 42e1 8b3c
00000150: 426e 4d3c aec6 a7bc 3757 d4bc 2419 233c
00000160: 1bb9 833b 5dfb d33c 5616 42bc 0d23 73bd
00000170: 90a3 a33c c1e6 813c f5f8 dbbc 36bc 17bc
00000180: c53a 943c 13cc e53b 4b4b 9dbc 4a88 2dbc
00000190: 3ff9 c93c 2d70 513b d1ab 003d c2a6 543c
000001a0: b919 00bd 8331 6cbd 1545 383d 8c0d 073c
000001b0: 22c3 a33c 9c77 673c 88e4 4b39 e0a8 613c
000001c0: cdcb ce3c 8dad 24bc dcfa cd3b 363e 7e3c
000001d0: 4ce6 043d a228 343d 92d3 28bd c818 92bc
000001e0: 74fe fb3a a6d1 4e3c e9c0 c73c 2c32 8dbc
000001f0: 96d5 063d 24fa 96bb 3f65 143c f8e7 31bb
00000200: 246f a83c 213c da3c 5531 a1bc 585b 783c
00000210: a7a5 f33c ade1 a7ba 7ce5 4d3d 4e6d 253d
00000220: af61 753c c92f 0c3c 901c 94bb 5a54 d8bc
00000230: 6ab2 64bc c00f d5bb c644 a93b e81b 073c
00000240: 1b1f fa3b 4cf3 d93c 937a 803c ca7a 333c
00000250: 86f3 f53c 7367 db3c 2c82 62bc be41 0c3d
00000260: 13e6 973c 116a 743c ebaf 643a a1ba b4bc
00000270: e5f6 e7bb 3e7a 66b9 b4c3 dc3c a8a0 473b
00000280: 0d14 1ebb 9ca7 963c b326 fb3c 0c48 493d
00000290: 40f3 b0bb 3fe5 ce3c bfc7 f0bb 433a 1fbc
000002a0: 474f 96bc 1670 0bbc a210 14bc 4b0f 9a3c
000002b0: cda1 8f3c 8e04 713d e8c5 3a3d 8ae4 0a3d
000002c0: bbfd f03c 6e3c 173b 56ff bfbc 7673 873c
000002d0: afcd 54bc db2d ca3c 5756 df3b 1fef 7f3c
000002e0: 7904 31bc e52d ab3c 558a 79bc 0339 0ebb
000002f0: 38d6 2e3c 1a35 97bb bec5 ee3c 95fa 373c
00000300: b1cb 00bc 19bc 073c 2f12 c03c 874e 03bc
00000310: 10e1 8b3c 85d5 ae3c 587c c13c d982 78bb
00000320: c248 983c 9b33 843c 79f6 f33c d62b bd3b
00000330: 7041 2f3d 0dbd 053a de68 83ba e2b2 e13b
00000340: 14a5 6c3b 1467 8a3c 4b83 973c d1ef 353c
00000350: b9d1 d7bc 8e9e c03c 2e5e f43c f13d e63c
00000360: e60a dc3c 73ea 56bc 16ee afbb 36f9 473d
00000370: 2c34 cabc bba4 35bb 9069 19bd eb5d 63bc
00000380: 56dd 5dba d4c9 1abc 8009 99bb 37f8 653c
00000390: 7b87 ec3c 030d 8c3d 59d2 a3bb 47ef 1d3b
000003a0: d4fe 563d ae82 073c 475e 8dbc 3a59 7a3c
000003b0: 08bd a4bc 3b04 853c edf0 a73c 06df 53bc
000003c0: b69a 0abd 7d2e a93c 7e26 373c 3172 6d3c
000003d0: 8ead 0a3b 2a27 c73b 09e7 d9bc 600a 25bc
000003e0: d4e8 c5bc ee6c 3b3c 8e42 a73c 7ced 1dbc
000003f0: d251 913a c66c 233c d955 953c b5b6 5dbc

fc1.bias f4 [128]
-0.05632143 -0.009454065 0.0011621312 -0.006031465 -0.016541913 0.16718063 0.08476203 0.043598022
0.049093667 0.29701138 2.5996662e-05 -0.036867637 0.11802495 0.06838507 0.083719626 0.023942085
0.09998177 0.029046498 -0.036831085 -0.105338804 0.17441767 -0.09585505 -0.023715502 0.012867522
0.024973454 0.004465521 0.017847735 0.0064217197 0.0109303435 -0.016084766 0.050058085 0.010737044
0.054359104 -0.007810481 -0.019632347 0.025652438 0.0016878096 -0.023916049 0.09059304 0.099430956
0.118921205 -0.029610615 0.017837044 -0.008052243 0.10142572 0.012674325 -0.017057257 0.013421256
0.061625093 -0.027024573 -0.0015106391 0.07511343 -0.15668839 0.0023741466 0.0043070065 0.002707719
0.009094281 -0.016345367 0.061320588 -0.10366638 0.03915969 0.053971212 0.0050560073 0.06989895
0.004601881 0.067219175 -0.024601564 0.057405926 0.05271473 -0.10682064 0.10182075 0.09567176
-0.0024762948 -0.010602987 0.039924182 -0.09307888 0.20315532 -0.17703727 -0.013550163 0.020814804
0.1270712 -0.05302261 -0.041812886 -0.06342409 -0.02101369 0.07168887 0.016595704 0.11299309
0.009267486 0.14504185 -0.008739869 0.20949553 0.07832092 0.004982699 -0.0392288 0.013992952
0.0076904814 0.22318341 0.07328504 0.10021368 0.10528629 -0.026171686 -0.010326416 -0.008836213
0.018288523 0.10654133 0.086705126 0.1240785 -0.015033624 -0.0012229868 -0.029084872 -0.01686892
0.044343524 0.024443306 -0.02777166 -0.06747888 0.088591464 -0.023843732 0.045040503 0.27398166
0.06633731 0.0076745534 0.05724906 -0.2492186 -0.018619485 -0.053797163 0.107661754 -0.01896249
00000000: 4db1 66bd 39e5 1abc a752 983a 98a3 c5bb
00000010: e882 87bc 6631 2b3e b797 ad3d d793 323d
00000020: 7116 493d e011 983e 6813 da37 8502 17bd
00000030: 11b7 f13d 790d 8c3d 3275 ab3d 3122 c43c
00000040: 3ec3 cc3d ecf2 ed3c 31dc 16bd dfbb d7bd
00000050: 8c9a 323e a74f c4bd 0347 c2bc 4dd2 523c
00000060: 2195 cc3c 8153 923b 6a35 923c 4a6d d23b
00000070: 2f15 333c 33c4 83bc b509 4d3d 6dea 2f3c
00000080: a7a7 5e3d 10ef ffbb 04d4 a0bc 1025 d23c
00000090: 7e39 dd3a 97eb c3bc d888 b93d 75a2 cb3d
000000a0: f68c f33d f691 f2bc fe1e 923c 8eed 03bc
000000b0: 4ab8 cf3d f9a7 4f3c a9bb 8bbc d4e4 5b3c
000000c0: 986a 7c3d a362 ddbc a300 c6ba 12d5 993d
000000d0: ec72 20be 9297 1b3b ca21 8d3b fd73 313b
000000e0: 2e00 153c b8e6 85bc 4c2b 7b3d 0a4f d4bd
000000f0: e965 203d eb10 5d3d ddac a53b 2e27 8f3d
00000100: 60cb 963b 35aa 893d 3889 c9bc 7a22 6b3d
00000110: 67eb 573d c8c4 dabd 6687 d03d 8eef c33d
00000120: 5549 22bb 27b8 2dbc 8a87 233d 24a0 bebd
00000130: f307 503e 4249 35be 8101 5ebc cf83 aa3c
00000140: f41e 023e 3c2e 59bd fd43 2bbd 7de4 81bd
00000150: e724 acbc 9dd1 923d b7f3 873c ec68 e73d
00000160: a7d6 173c da85 143e ab31 0fbc ff85 563e
00000170: b866 a03d e945 a33b 61ae 20bd b242 653c
00000180: 6f00 fc3b 318a 643e 7816 963d d43c cd3d
00000190: 57a0 d73d 0166 d6bc 2130 29bc c3c5 10bc
000001a0: d0d1 953c 5732 da3d 7592 b13d de1c fe3d
000001b0: 974f 76bc a14c a0ba 6643 eebc b030 8abc
000001c0: 8ea1 353d 543d c83c 6481 e3bc 5e32 8abd
000001d0: 716f b53d ee53 c3bc 647c 383d 5347 8c3e
000001e0: dbdb 873d d27a fb3b fe7d 6a3d 2933 7fbe
000001f0: e487 98bc 6a5a 5cbd c47d dc3d 3957 9bbc

fc2.weight f4 [64, 128]
0.086964406 0.054074723 -0.0234572 0.00877721 -0.06665234 0.026207943 -0.05652284 0.04920292
-0.030724628 -0.09554353 0.056705706 -0.05445365 -0.1384259 0.1202911 -0.07541991 0.07935848
0.0589678 -0.0052378424 -0.049913805 0.16300653 0.0060189776 -0.043858923 -0.024106417 0.037672438
0.06676608 -0.034795593 -0.09532735 0.07810663 -0.038573597 -0.07352961 0.09158751 -0.042501602
-0.09823943 0.11005143 0.05006299 -0.0049220044 0.06572304 -0.06523783 0.042480424 0.12660517
-0.014214249 0.09526078 -0.035060443 0.04790465 0.035504404 -0.05592284 -0.01687978 0.0931968
-0.035762727 0.0044463505 -0.051872063 -0.0845364 -0.0031927575 -0.06865717 -0.06333592 0.020976892
0.07465908 -0.052663058 0.08073241 0.07383594 0.20615937 0.058288768 0.042349294 -0.0427107
-0.06902847 0.100847386 0.017919438 -0.039991748 0.02037708 0.08870686 0.08152238 0.078927375
0.09594754 -0.0456404 -0.08238149 -0.15625395 0.059423298 0.031153282 0.087994054 -0.06094986
0.009509889 0.032749873 0.08364801 -0.016681382 -0.011876457 -0.027025362 0.0028765374 -0.031598292
0.116698146 0.052658353 0.05599179 0.0520479 -0.076792635 0.015154773 0.083531305 -0.07113689
0.03717313 0.08530301 -0.00027560524 0.094898574 0.041011777 -0.061396062 0.043090634 0.06985038
-0.041938316 -0.08527746 0.020176139 0.10231621 0.005351651 0.081489496 0.001690767 0.031753764
-0.020928767 -0.07243288 0.01050354 0.11849475 0.110047825 0.0076062633 -0.09932581 0.04747896
0.01609014 0.08318924 -0.07758434 0.08018734 0.04636757 0.07637308 0.017346624 -0.08393908
0.06705644 -0.05171999 0.059987634 -0.032337155 -0.026622454 -0.12486443 0.19309683 0.034745794
-0.018732369 -0.073956266 -0.0439038 0.06406116 0.011745839 0.039988328 0.16506104 0.021000555
-0.14281163 0.116236374 -0.07965669 -0.19620167 0.17279321 0.0031982902 0.0376793 0.004190114
-0.07837848 -0.0081610065 0.058307778 -0.048099697 -0.094918706 0.00014231284 -0.109688595 0.15524366
-0.07698155 -0.10807635 0.01595631 -0.11537107 -0.003999813 -0.043976545 -0.046107292 0.06581874
0.21665508 -0.0037019718 -0.027584935 -0.19635199 -0.047002662 0.06865103 -0.06575678 -0.14180961
0.072590455 -0.17699412 -0.1277044 0.023209114 0.0780327 0.043459475 0.0056045526 0.044837937
-0.002920887 0.03297655 0.22942875 -0.034878686 -0.15399708 -0.0942072 0.01352797 -0.03725097
-0.046559233 0.0454281 0.018361706 -0.048751038 -0.11208449 -0.12751165 0.052187175 -0.05357091
0.08398947 0.07730291 -0.020369506 0.1124883 -0.123170435 0.26757884 0.07008971 -0.10284355
0.12419697 -0.045963243 -0.038861457 -0.12703334 -0.040844675 0.02290301 0.11502504 -0.08239488
0.014487584 -0.09842836 -0.03967402 -0.09419393 0.08211963 -0.13506967 0.01610296 -0.039025687
-0.064667374 0.06541882 0.058642875 -0.023224736 0.015686888 -0.018340524 -0.101888165 -0.021601975
0.036470853 0.06484957 -0.034682903 -0.025570214 -0.045129616 0.034539953 0.06865118 -0.14484921
0.07035252 0.043721687 0.06024881 -0.10370945 -0.04604393 0.13964824 0.12100356 0.084878445
0.004845434 0.07680383 0.048388388 0.15494166 -0.0007391555 -0.07597902 0.08815822 0.053179517
00000000: 651a b23d 757d 5d3d 5029 c0bc 49ce 0f3c
00000010: 0681 88bd 0ab2 d63c 7e84 67bd 0089 493d
00000020: 37b2 fbbc 54ac c3bd 3e44 683d ca0a 5fbd
00000030: 85bf 0dbe 2e5b f63d c175 9abd b386 a23d
00000040: 3888 713d 35a2 abbb 6b72 4cbd 2feb 263e
00000050: d83a c53b 6aa5 33bd d27a c5bc 6a4e 1a3d
00000060: a8bc 883d d385 0ebd fc3a c3bd 5ef6 9f3d
00000070: 59ff 1dbd b196 96bd 3c92 bb3d 2916 2ebd
00000080: c131 c9bd a562 e13d da0e 4d3d c448 a1bb
00000090: cd99 863d 699b 85bd f4ff 2d3d c9a4 013e
000000a0: e2e2 68bc 1518 c33d 8a9b 0fbd ab37 443d
000000b0: 116d 113d 590f 65bd 7747 8abc f7dd be3d
000000c0: f07b 12bd b1b2 913b cd77 54bd 6c21 adbd
000000d0: 953d 51bb 219c 8cbd 43b6 81bd bbd7 ab3c
000000e0: dce6 983d 38b5 57bd 0957 a53d 4c37 973d
000000f0: 711b 533e 34c0 6e3d 7476 2d3d 6af1 2ebd
00000100: cc5e 8dbd 1389 ce3d c9cb 923c 63ce 23bd
00000110: d6ed a63c f1ab b53d 35f5 a63d ada4 a13d
00000120: 2580 c43d 6ef1 3abd a0b7 a8bd 0901 20be
00000130: d865 733d 2b35 ff3c 3a36 b43d 8fa6 79bd
00000140: 5ecf 1b3c bb24 063d a64f ab3d 65a7 88bc
00000150: 7995 42bc 4b64 ddbc 4a84 3c3b 366d 01bd
00000160: 70ff ee3d 49b0 573d a657 653d 2e30 553d
00000170: 7545 9dbd ba4b 783c 7612 ab3d 38b0 91bd
00000180: da42 183d 58b3 ae3d 1c7f 90b9 2f5a c23d
00000190: f7fb 273d 707a 7bbd ce7f 303d b70d 8f3d
000001a0: 83c7 2bbd f3a5 aebd 6e48 a53c 298b d13d
000001b0: e75c af3b f7e3 a63d ba9c dd3a 3c10 023d
000001c0: ce72 abbc b157 94bd 0a17 2c3c 60ad f23d
000001d0: c160 e13d f63d f93b 556b cbbd 4c79 423d
000001e0: 78cf 833c 1f5f aa3d 8ae4 9ebd 4339 a43d
000001f0: eceb 3d3d 7d69 9c3d 821a 8e3c 41e8 abbd
00000200: e354 893d 57d8 53bd 98b5 753d f773 04bd
00000210: 5517 dabc ecb8 ffbd 2dbb 453e 9b51 0e3d
00000220: a074 99bc 6276 97bd 79d4 33bd 7f32 833d
00000230: 9f71 403c cdca 233d c305 293e 5b09 ac3c
00000240: 363d 12be 560d ee3d 0c23 a3bd 17e9 48be
00000250: b4f0 303e 689a 513b 9c55 1a3d 394d 893b
00000260: e684 a0bd beb5 05bc 23d4 6e3d 3004 45bd
00000270: bd64 c2bd d039 1539 6aa4 e0bd 32f8 1e3e
00000280: 81a8 9dbd 2257 ddbd cfb6 823c ab47 ecbd
00000290: dd10 83bb c020 34bd 00db 3cbd facb 863d
000002a0: d4da 5d3e c89c 72bb cdf9 e1bc 7f10 49be
000002b0: dd85 40bd e998 8c3d 7eab 86bd 8a36 11be
000002c0: 4eaa 943d f23d 35be f1c4 02be 0a21 be3c
000002d0: 9ccf 9f3d 9002 323d 65a6 b73b fca7 373d
000002e0: 5a6c 3fbb 6b12 073d 5fef 6a3e f4dc 0ebd
000002f0: 69b1 1dbe b4ef c0bd 6ba4 5d3c 7994 18bd
00000300: e5b4 3ebd d112 3a3d 4a6b 963c 2baf 47bd
00000310: 8e8c e5bd 6a92 02be 38c2 553d 2c6d 5bbd
00000320: ac02 ac3d fd50 9e3d f3dd a6bc 4460 e63d
00000330: c840 fcbd 1800 893e 328b 8f3d a49f d2bd
00000340: fb5a fe3d f443 3cbd 312d 1fbd 0715 02be
00000350: bf4c 27bd 189f bb3c 4092 eb3d a6be a8bd
00000360: 555d 6d3c cf94 c9bd 3a81 22bd bfe8 c0bd
00000370: 562e a83d b44f 0abe 5bea 833c 66d9 1fbd
00000380: 5470 84bd 4dfa 853d 8333 703d cd41 bebc
00000390: ca81 803c de3e 96bc beaa d0bd a0f6 b0bc
000003a0: 7662 153d dacf 843d a90f 0ebd a078 d1bc
000003b0: d5d9 38bd c479 0d3d fd98 8c3d 5a53 14be
000003c0: fb14 903d 8315 333d 75c7 763d 9f65 d4bd
000003d0: 8f98 3cbd f3ff 0e3e b7d0 f73d c0d4 ad3d
000003e0: 72c6 9e3b 544b 9d3d e732 463d 07a9 1e3e
000003f0: e3c3 41ba e39a 9bbd 4c8c b43d c4d2 593d

fc2.bias f4 [64]
-0.12563424 0.12773967 -0.04486164 0.123379536 0.26122952 -0.040282533 0.11292317 -0.051506966
0.16780013 -0.03044122 -0.0544248 -0.14132357 -0.00913948 -0.38830012 -0.15923251 -0.0031463893
-0.18130732 -0.053304475 -0.017649755 0.1272097 -0.16285585 -0.045637716 0.06242971 0.054742966
-0.046532746 0.15133181 -0.038796254 -0.07247473 0.18669945 -0.036598545 -0.03409859 0.019993668
0.13089435 0.11739643 -0.043867625 -0.018004442 0.039772216 0.20020662 0.06585579 0.06956399
-0.1437153 0.30871648 -0.08229096 0.014578999 0.097030155 0.10483639 0.27244318 -0.023390714
-0.087179326 0.16162442 0.07850264 -0.018230569 0.189664 0.13677727 -0.06465604 -0.080213435
0.034601852 -0.13837692 0.39305887 -0.03567009 0.03700531 -0.054978315 -0.12164753 -0.22317094
00000000: 43a6 00be 30ce 023e d7c0 37bd 69ae fc3d
00000010: e0bf 853e 4cff 24bd 4344 e73d f8f8 52bd
00000020: ccd3 2b3e de5f f9bc 8aec 5ebd 20b7 10be
00000030: c2bd 15bc 46cf c6be d90d 23be a733 4ebb
00000040: a0a8 39be cb55 5abd 3896 90bc 4243 023e
00000050: afc3 26be 9dee 3abd 4cb6 7f3d 293a 603d
00000060: 1f99 3ebd baf6 1a3e d2e8 1ebd a26d 94bd
00000070: 242e 3f3e 5be8 15bd f7aa 0bbd c3c9 a33c
00000080: 2b09 063e 8a6d f03d 8aae 33bd 0d7e 93bc
00000090: 31e8 223d f702 4d3e 67df 863d 9177 8e3d
000000a0: 1b2a 13be 1610 9e3e 2a88 a8bd c1dc 6e3c
000000b0: bfb7 c63d 76b4 d63d ac7d 8b3e e29d bfbc
000000c0: 138b b2bd df80 253e fec5 a03d 4658 95bc
000000d0: 4837 423e 570f 0c3e 636a 84bd f146 a4bd
000000e0: acba 0d3d aeb2 0dbe 033f c93e cd1a 12bd
000000f0: e192 173d f130 61bd 5722 f9bd ec86 64be

fc3.weight f4 [32, 64]
0.1731644 0.33351767 -0.14358018 0.06446571 0.21284227 0.026218323 0.19884808 -0.01702205
0.3893177 -0.11286244 0.14453006 0.0749797 0.022229599 -0.24286337 0.19345737 0.10511657
-0.056803904 -0.16912837 -0.09318038 -0.043801975 -0.21176173 0.05591403 0.098603874 -0.17295182
-0.05335045 -0.07273821 0.025257925 -0.005371106 -0.18090712 0.079603285 -0.085920446 -0.12089538
-0.020618761 -0.047429074 -0.0003501014 0.00033692614 0.0649362 0.3555156 -0.1006906 0.10061705
-0.021188604 0.37283644 0.010694577 0.0014061681 0.1812786 0.018312838 0.3724209 -0.04464107
-0.12320668 0.05765483 -0.032973416 0.009503246 0.23766659 0.3602537 0.09838423 0.12162519
0.005952111 0.17252441 0.13764943 0.25446418 -0.010886814 0.069294155 -0.26013142 -0.25583333
0.2531035 0.08577715 0.01329699 0.02032231 -0.026291423 -0.114912 0.1022152 0.088501066
-0.22642566 -0.1412681 0.24428444 0.048787083 0.083363086 -0.28982678 0.022964144 0.09287808
-0.027653957 0.021206412 0.029464127 0.07570842 0.06484146 0.10245017 0.0669458 0.07825825
0.11363044 0.31985575 0.091348805 -0.082605 -0.04319991 -0.043100767 -0.12989466 -0.08905067
-0.121188566 -0.032127872 -0.041162163 -0.18535452 0.042354763 0.17098047 0.027026938 -0.015570343
0.19672184 -0.16607572 -0.058986723 0.017791284 0.04447309 0.031231113 -0.19332483 -0.009989715
0.052781284 0.40913084 -0.30651948 0.10155572 0.19107385 0.07031685 -0.020410366 0.05846707
-0.107852 0.14159292 0.26030436 0.14281698 0.0666664 -0.022161692 0.15567267 0.29253268
-0.0576134 -0.13930772 -0.2722243 0.20195365 -0.14617419 0.064280115 0.41574305 0.015472721
0.22532596 0.14803086 0.20288503 0.08719577 -0.07959777 0.36854097 -0.11320852 -0.111182824
-0.059664663 -0.025524644 -0.03708442 0.06161303 0.03578909 -0.04777604 -0.032690857 0.2153482
0.096494295 0.077868454 0.0007156532 0.10741211 0.37576 -0.045973886 0.13759923 -0.05351902
-0.17005838 0.2813166 -0.15051179 0.12587693 -0.12076614 -0.023138307 0.069405176 -0.107406706
0.22162525 -0.23418032 0.08211297 0.107665986 0.06335861 -0.09261098 -0.16918363 -0.08753343
-0.047321044 0.11355931 0.07825914 -0.12368059 0.14466923 0.33896366 -0.052673567 -0.082584105
0.27273357 -0.044265002 -0.17954873 0.20768122 0.04566164 -0.055818956 -0.16426824 0.20438126
0.10851387 -0.20045729 -0.19755366 0.00737047 0.12515245 0.12473974 0.23312579 -0.0960372
-0.0071145925 0.13063528 0.010045337 -0.0013583647 0.116376325 0.20253791 -0.039868724 -0.0761935
-0.28835076 0.011758365 -0.111616574 0.18550275 -0.090156615 0.10782288 0.063225575 0.13233878
-0.07456601 0.15996625 -0.12790027 -0.07596205 0.20496142 0.040261596 0.105176345 0.04207787
0.13966525 0.08955795 -0.064963624 0.22330464 0.10993704 0.07711203 0.035971 -0.094152644
0.026737852 0.13463198 0.082827665 0.025682656 0.10382321 -0.15662321 0.111367024 -0.10043902
0.08808479 0.34009987 0.09006016 -0.05916637 0.41998658 -0.0029848649 -0.06489566 -0.09830982
-0.05271143 -0.07003015 -0.20727852 -0.16290835 -0.057011582 0.05865101 -0.05863709 -0.059891224
00000000: 0252 313e d4c2 aa3e af06 13be 9906 843d
00000010: 53f3 593e cfc7 d63c d59e 4b3e d471 8bbc
00000020: a654 c73e 6c24 e7bd b0ff 133e f58e 993d
00000030: d91a b63c 2db1 78be b019 463e 5b47 d73d
00000040: 36ab 68bd fd2f 2dbe 5bd5 bebd b369 33bd
00000050: 11d8 58be 1c06 653d d4f0 c93d 481a 31be
00000060: 0086 5abd c5f7 94bd b5e9 ce3c 1a00 b0bb
00000070: b73f 39be 0c07 a33d 0ff7 afbd ff97 f7bd
00000080: ade8 a8bc fd44 42bd d18d b7b9 76a5 b039
00000090: 45fd 843d 2406 b63e e036 cebd 5010 ce3d
000000a0: b993 adbc 6be4 be3e 4f38 2f3c 2c4f b83a
000000b0: 19a1 393e ce04 963c f4ad be3e 8ed9 36bd
000000c0: c953 fcbd 7927 6c3d 220f 07bd 81b3 1b3c
000000d0: df5e 733e 2c73 b83e ac7d c93d a116 f93d
000000e0: ed09 c33b 3daa 303e f9f3 0c3e 2149 823e
000000f0: 9c5e 32bc 18ea 8d3d f22f 85be 96fc 82be
00000100: c896 813e eeab af3d 9edb 593c f97a a63c
00000110: 1c61 d7bc fc56 ebbd 3456 d13d 0c40 b53d
00000120: 21dc 67be 96a8 10be b325 7a3e f7d4 473d
00000130: 44ba aa3d 2d64 94be 4d1f bc3c dd36 be3d
00000140: 8d8a e2bc 12b9 ad3c c15e f13c 040d 9b3d
00000150: 99cb 843d 65d1 d13d e11a 893d dd45 a03d
00000160: 13b7 e83d 22c4 a33e 1515 bb3d cf2c a9bd
00000170: 64f2 30bd 6e8a 30bd 1b03 05be 3360 b6bd
00000180: b631 f8bd 8498 03bd a899 28bd 93cd 3dbe
00000190: 307c 2d3d 8115 2f3e 9967 dd3c c01a 7fbc
000001a0: 7371 493e c10f 2abe 109c 71bd 07bf 913c
000001b0: 6a29 363d 64d8 ff3c f2f6 45be e7ab 23bc
000001c0: 3031 583d 9979 d13e 1ff0 9cbe 72fc cf3d
000001d0: dda8 433e 4802 903d a433 a7bc 2b7b 6f3d
000001e0: 82e1 dcbd bcfd 103e 9d46 853e 9d3e 123e
000001f0: 6588 883d 708c b5bc a868 1f3e d8c6 953e
00000200: 07fc 6bbd afa6 0ebe fc60 8bbe f0cc 4e3e
00000210: b0ae 15be 4ba5 833d 46dc d43e 4c81 7d3c
00000220: d9bb 663e 6795 173e 18c1 4f3e b293 b23d
00000230: 2804 a3bd 67b1 bc3e ded9 e7bd d2b3 e3bd
00000240: ef62 74bd 0f19 d1bc d5e5 17bd f25d 7c3d
00000250: 9597 123d cfb0 43bd d9e6 05bd 3d84 5c3e
00000260: cd9e c53d 7f79 9f3d ac9a 3b3a e1fa db3d
00000270: 9d63 c03e 1d4f 3cbd d0e6 0c3e c336 5bbd
00000280: c923 2ebe bb08 903e c31f 1abe e2e5 003e
00000290: 3d54 f7bd 8c8c bdbc 4d24 8e3d 0cf8 dbbd
000002a0: bbf1 623e f7cc 6fbe d82a a83d fc7f dc3d
000002b0: 29c2 813d d3aa bdbd 793e 2dbe ba44 b3bd
000002c0: b6d3 41bd c991 e83d 5446 a03d 404c fdbd
000002d0: 2c24 143e a58c ad3e 3dc0 57bd db21 a9bd
000002e0: bca3 8b3e 384f 35bd 9fdb 37be 63aa 543e
000002f0: b307 3b3d 6ba2 64bd ef35 28be 5249 513e
00000300: 853c de3d ad44 4dbe 824b 4abe fc83 f13b
00000310: f727 003e 8c77 ff3d 87b8 6e3e 27af c4bd
00000320: 8721 e9bb 41c5 053e 3295 243c 280b b2ba
00000330: b656 ee3d 1966 4f3e 634d 23bd 560b 9cbd
00000340: b6a2 93be 28a6 403c 3b97 e4bd 6ff4 3d3e
00000350: 08a4 b8bd 3ed2 dc3d 697c 813d d183 073e
00000360: 10b6 98bd 31ce 233e 4af8 02be fe91 9bbd
00000370: 68e1 513e 58e9 243d b266 d73d d859 2c3d
00000380: 6804 0f3e 296a b73d a60b 85bd f9a9 643e
00000390: ac26 e13d e9ec 9d3d 5456 133d 1ad3 c0bd
000003a0: 5709 db3c f7dc 093e 8da1 a93d 6f64 d23c
000003b0: 43a1 d43d d661 20be 6514 e43d f9b2 cdbd
000003c0: cc65 b43d 9221 ae3e 7671 b83d 7058 72bd
000003d0: 7b08 d73e b99d 43bb 04e8 84bd a956 c9bd
000003e0: f1e7 57bd f86b 8fbd d240 54be 72d1 26be
000003f0: fa84 69bd 0b3c 703d 722d 70bd 8050 75bd

fc3.bias f4 [32]
0.72329736 -0.4611619 -0.08949754 0.40911058 0.3087427 0.017644243 0.024500202 -0.045075033
0.21403934 -0.023943204 -0.065547034 0.31930605 -0.06418949 0.29251924 0.20877153 -0.12638249
-0.16552094 -0.07991133 0.0072315196 -0.12594593 -0.20515248 -0.033701897 0.008248529 0.2578872
-0.07849088 -0.2257168 -0.11906149 -0.10288958 0.10500731 -0.075722195 -0.01162727 -0.048648827
00000000: 042a 393f 6a1d ecbe 7c4a b7bd f176 d13e
00000010: 8613 9e3e a98a 903c a6b4 c83c 99a0 38bd
00000020: 212d 5b3e 8a24 c4bc 863d 86bd 157c a33e
00000030: c875 83bd 15c5 953e 34c8 553e 696a 01be
00000040: 527e 29be 8da8 a3bd 62f6 ec3b f8f7 00be
00000050: 7e13 52be 000b 0abd d724 073c cb09 843e
00000060: d4bf a0bd 4e22 67be 83d6 f3bd c6b7 d2bd
00000070: 130e d73d 3d14 9bbd 4e80 3ebc fe43 47bd

fc4.weight f4 [10, 32]
-0.3892943 -0.049260724 0.38909227 0.23215239 0.3468067 0.3950166 -0.04395442 0.015661137
0.20751779 0.044345036 -0.18832392 0.1913655 -0.37829095 0.3233377 -0.32704473 0.19991033
-0.3088385 -0.16832305 0.46387053 0.36909357 -0.058460876 -0.055806704 0.04875176 0.021143587
-0.09970944 -0.25031626 -0.25330985 0.13638504 -0.024279585 -0.09672372 -0.120548174 -0.21936068
-0.8127723 -0.45621678 -0.21755797 -0.07746893 -0.33784285 0.33169767 0.19667982 0.5601995
0.8859136 -0.05124744 -0.17319702 -0.1261618 0.22533849 0.20151646 0.35651225 0.2827126
0.28620052 -0.050109044 0.1578164 -0.12509161 0.2487472 0.046098143 0.1090503 -0.65127593
0.82438886 0.017931942 0.24017818 -0.044362433 0.027460085 -0.080949366 -0.024853311 0.18935192
-0.21355365 -0.36702025 0.48239127 0.051888045 -0.12029638 -0.07558877 -0.12657884 -0.08065917
-0.08603939 0.12579286 0.037206087 0.077809826 -0.10066186 0.006372406 -0.33204168 0.37159058
0.15592083 -0.028158268 0.45358977 0.011357232 -0.21715605 0.049841553 -0.13832545 0.11501836
-0.0004209553 0.103379935 0.4333728 -0.18797135 0.08872763 -0.10702963 -0.06466902 -0.63732046
-0.13904367 -0.013579866 0.38561234 0.67068607 -0.44095495 0.042338718 -0.21425335 -0.13688073
0.18964158 -0.1329454 0.17016597 0.37488988 -0.16999766 0.022489319 -0.30074212 0.28088796
0.39654624 -0.13914786 -0.2985033 -0.13914314 -0.28352726 -0.10584081 0.12889224 -0.3409284
0.08571607 0.271749 -0.10356796 0.03930492 0.43586093 -0.14561896 0.17507452 -0.14523177
-0.09393839 0.2363016 0.1803208 -0.12536834 -0.45271268 -0.5486424 0.0016728522 -0.093717426
-0.054094683 0.10852554 -0.11908129 0.3141258 0.19060045 0.22315036 -0.32680014 0.34200302
-0.20186116 0.11959608 0.33672968 -0.11887776 -0.20036976 0.052434236 -0.07644344 0.04273062
0.32093036 -0.23111607 0.45346156 0.16031802 -0.2492067 0.10852231 0.16231382 0.37369436
1.0534139 -0.55766153 -0.51899177 -0.11025367 0.4370993 -0.08047868 0.37651294 0.11173684
-0.33155677 -0.1141921 0.14413328 0.41555598 0.12586641 -0.101563536 0.23910137 -0.8974069
-0.25835988 0.17487815 -0.20541514 -0.15660793 -0.12623194 -0.16152562 0.13677177 -0.04182478
-0.289009 0.1862684 -0.36358556 -0.052645657 0.25106066 0.10022319 -0.11486434 -0.07249845
-0.22683506 -0.15006793 0.27772793 0.3765544 0.16989063 0.0063257813 -0.059563357 -0.074063696
-0.11246799 -0.1346233 -0.06714245 -0.019474767 -0.25314206 0.58146805 -0.33697984 -0.06036665
-0.14492841 -0.13472511 0.17852804 0.5278243 -0.0362858 -0.09545416 -0.14548256 0.040434923
0.09459761 0.44184342 0.5115086 -0.10898118 0.037315913 -0.020321365 -0.017463204 -0.11244689
0.5342858 0.109553814 -0.9301085 -0.27397835 0.20316921 -0.16570085 -0.028316878 0.17378682
-0.34278935 0.13696489 -0.02640361 -0.6196322 0.066997886 -0.18263118 0.6653454 0.024580715
-0.075894244 0.17510687 -0.37247166 0.02819247 0.24795885 0.03760706 -0.15959193 0.5208363
-0.31158906 -0.028543264 -0.63398033 -0.14800632 -0.17733286 0.10094151 0.13916837 0.06404674
00000000: 9551 c7be 9dc5 49bd 1a37 c73e 5bb9 6d3e
00000010: a690 b13e 9e3f ca3e 8d09 34bd c94b 803c
00000020: 8b7f 543e 24a3 353d fcd7 40be 51f5 433e
00000030: 5aaf c1be 858c a53e 6872 a7be 4bb5 4c3e
00000040: 1420 9ebe e15c 2cbe 7080 ed3e d5f9 bc3e
00000050: ac74 6fbd 9295 64bd edaf 473d 5135 ad3c
00000060: 7634 ccbd 7429 80be d4b1 81be 85a8 0b3e
00000070: fbe5 c6bc 1617 c6bd f6e1 f6bd 16a0 60be
00000080: d811 50bf 3f95 e9be 84c7 5ebe 08a8 9ebd
00000090: bdf9 acbe 47d4 a93e 6f66 493e 3c69 0f3f
000000a0: 3ccb 623f d6e8 51bd 8f5a 31be 8f30 01be
000000b0: 22bf 663e 555a 4e3e c688 b63e b5bf 903e
000000c0: e088 923e 243f 4dbd 9f9a 213e 0418 00be
000000d0: 96b7 7e3e 68d1 3c3d c455 df3d 05ba 26bf
000000e0: 260b 533f 02e6 923c 45f1 753e 62b5 35bd
000000f0: f9f3 e03c c8c8 a5bd 2c99 cbbc 78e5 413e
00000100: cfad 5abe 14ea bbbe fdfb f63e 8f88 543d
00000110: f35d f6bd 49ce 9abd e29d 01be a330 a5bd
00000120: 6b35 b0bd d8cf 003e 6965 183d c25a 9f3d
00000130: ce27 cebd 9ecf d03b 5e01 aabe 1f41 be3e
00000140: b6a9 1f3e 2bac e6bc eb3c e83e af13 3a3c
00000150: 285e 5ebe a826 4c3d 30a5 0dbe bf8e eb3d
00000160: aab3 dcb9 dcb8 d33d 0ae3 dd3e 907b 40be
00000170: d5b6 b53d 5a32 dbbd 3171 84bd 6f27 23bf
00000180: 7761 0ebe 167e 5ebc fb6e c53e 15b2 2b3f
00000190: d9c4 e1be 5d6b 2d3d 3b65 5bbe 762a 0cbe
000001a0: 6731 423e d722 08be fd3f 2e3e 91f1 bf3e
000001b0: de13 2ebe 853b b83c dffa 99be 8cd0 8f3e
000001c0: 1c08 cb3e c77c 0ebe 6dd5 98be 8a7b 0ebe
000001d0: 7c2a 91be 11c3 d8bd 54fc 033e 2b8e aebe
000001e0: e88b af3d af22 8b3e 701b d4bd 32fe 203d
000001f0: 2a29 df3e 231d 15be bc46 333e a3b7 14be
00000200: c562 c0bd 0cf9 713e 04a6 383e 8f60 00be
00000210: f5c9 e7be d473 0cbf 9b43 db3a ecee bfbd
00000220: 6392 5dbd a342 de3d e4e0 f3bd 19d5 a03e
00000230: c42c 433e 8781 643e 5952 a7be 051b af3e
00000240: b1b4 4ebe caee f43d d567 ac3e 2f76 f3bd
00000250: bb2d 4dbe 48c5 563d 618e 9cbd 4d06 2f3d
00000260: fc50 a43e b1a9 6cbe 1d2c e83e 682a 243e
00000270: 0b30 7fbe f240 de3d 9835 263e de54 bf3e
00000280: 44d6 863f e8c2 0ebf a5dc 04bf adcc e1bd
00000290: 7bcb df3e 02d2 a4bd 4ec6 c03e 49d6 e43d
000002a0: cfc1 a9be 8cdd e9bd ad97 133e c1c3 d43e
000002b0: 20e3 003e 8b00 d0bd fdd6 743e 75bc 65bf
000002c0: bf47 84be 4213 333e 5958 52be d45d 20be
000002d0: f242 01be f966 25be e60d 0c3e 7650 2bbd
000002e0: fdf8 93be 25bd 3e3e e327 babe f9a2 57bd
000002f0: 068b 803e d141 cd3d ff3d ebbd 117a 94bd
00000300: 7347 68be 68ab 19be 5b32 8e3e bdcb c03e
00000310: cff7 2d3e 8048 cf3b b5f8 73bd b5ae 97bd
00000320: 9e55 e6bd b1da 09be fb81 89bd 8c89 9fbc
00000330: d69b 81be 17db 143f 9f88 acbe 0543 77bd
00000340: 1d68 14be 61f5 09be 0ed0 363e 7e1f 073f
00000350: 6ba0 14bd 787d c3bd 61f9 14be 179f 253d
00000360: 64bc c13d 4d39 e23e 3af2 023f 8631 dfbd
00000370: 92d8 183d fe78 a6bc fe0e 8fbc 8e4a e6bd
00000380: f4c6 083f c05d e03d 971b 6ebf e446 8cbe
00000390: 970b 503e 7cad 29be ccf8 e7bc 2cf5 313e
000003a0: 1682 afbe 8640 0c3e 624c d8bc 37a0 1ebf
000003b0: 3036 893d ab03 3bbe 1354 2a3f 7f5d c93c
000003c0: 716e 9bbd 374f 333e 9bb4 bebe e5f3 e63c
000003d0: ede8 7d3e dc09 1a3d 116c 23be 8755 053f
000003e0: 9a88 9fbe 90d3 e9bc 894c 22bf f88e 17be
000003f0: bf96 35be 6cba ce3d 2782 0e3e f02a 833d

fc4.bias f4 [10]
-0.088359445 0.076204814 0.01120187 -0.06921441 -0.3711675 1.0406033 0.03429497 0.39806807
-0.47854492 -0.48565942
00000000: ccf5 b4bd 4511 9c3d 0c88 373c 49c0 8dbd
00000010: ab09 bebe 7d32 853f e278 0c3d 94cf cb3e
00000020: d703 f5be 5aa8 f8be
