COMP 219 Advanced Artificial Intelligence /Resilience-to-Adversarial-Attack-main/ep0.06num30epoch10batch256.pt (torch, 446863 bytes, 8 tensors)

fc1.weight f4 [128, 784]
00000000: d1e7 983c 01f4 83bc f610 ebbb 837f 8c3c
00000010: 3249 0abd 88c6 ae3c c235 dfbb 0de5 923c
00000020: 629e a13b da96 8ebb 6a69 263c 339f 163b
00000030: 41ad 573c d19a 62bc a715 32bb dab7 81bb
00000040: d939 b43b b9f8 c439 8035 013d 8bed 3c3c
00000050: cc20 56bc 3f10 adbc 99c2 cebb 3bbc 78bc
00000060: 7727 33bc eac5 123b 0b22 ab3c 5db2 9b3c
00000070: 8bff 0dbd 62af b53c 0900 2d3c a350 083d
00000080: 6eb9 c03c a695 05bd 70bd 08bd de34 81bc
00000090: ade8 043d a6dd 95bb 4fb2 893c 6333 79bc
000000a0: a965 143d 0714 61bc ac08 e73c ae40 e23a
000000b0: cfae 8ebc b9b5 a23c ea8d 8ebc 0ff4 433c
000000c0: b873 0ebc 6744 48bb 6224 0abd 9c4a 8bbc
000000d0: c4b2 9e3c 87fb 05bc 6908 0f3d c6fa e93c
000000e0: 1fed a2ba 9e3b bebc 7543 b23c 14d0 403c
000000f0: 5d37 babc d6db c63c 5c67 c43c 0665 0a3d
00000100: 17dd 8fbc d8d4 97bb dcaa 0e3a e8f6 d53b
00000110: 6f48 d7bc cb32 c5bc 8394 ab3c 4234 e5bb
00000120: 3cc8 963c 7cb1 453b 9adb 4d3c 0e71 1d3c
00000130: d40e 7c3c 5b13 a53c 79c2 fcbc 9c3e 993c
00000140: 75b0 c8bc 9c7b e0bc 18a9 103b 1079 afbb
00000150: 0025 a83c edd4 a9bc 717e ffbc 08cd d43c
00000160: 5615 9cbb c288 b83c f857 663c c2a6 c8bc
00000170: f02e 163c 7d5a 1c3c 8c46 bdbc 23ef 85bc
00000180: 9d7a 4e3c 6315 ed3b 6673 6abc d533 22bc
00000190: 65c1 093d 4ac5 bbbb 1bf2 a73c 5131 8a3c
000001a0: e262 a8bc 15e4 e0bc 0f24 193d d02a 813b
000001b0: 88d4 ca3c 5be0 fc3b dcf6 3e3c 6596 d63c
000001c0: ab94 0c3d ebee bbbc efe4 903b 7705 e13c
000001d0: 2811 df3c 94d5 ce3c 2a8e bebc d22f c3bc
000001e0: bfe8 a1bc 62c0 af3b 1422 143d 8e77 b6bc
000001f0: 9c71 a03c 868c 98bc c4ce 06bd 5b9a d4bb
00000200: 02c6 ac3c f8a9 093d e32f adbc f859 0f3c
00000210: c777 073d a6bc d23c 2cc8 d03c 62a1 e83c
00000220: 097d c23c 331f 203c 96bc c9bc ccff f6bc
00000230: 3e9d 81bc e7be 66bb 3830 b0bc 9a8f 5d3c
00000240: 62fe 593c f570 adbb 6500 863c e2fa 5a3c
00000250: 5899 bb3c ba7d cc3c 611d 3fbc 4192 0f3d
00000260: ae6c 70bb 2ec0 aab9 6ac4 07bd 65a4 b8bc
00000270: f339 a8bc 9053 62bc 1340 d53c fb5d 29bc
00000280: 1c85 c7bc 3138 863c 544d 713c 6de3 d73c
00000290: 08f3 87bc e329 043c 7789 4bbc d6f8 fdbb
000002a0: 8ab6 e5bc cf07 85bc 641b 2dbc f1a9 813c
000002b0: 4548 233c 10c6 423c ff38 1d3d f618 153d
000002c0: 27c6 d13c a13a ed3a 74bf c5bc 75a0 e53c
000002d0: d8b8 0cbc 5290 0cbb 67b8 f7bc 0a19 d8bb
000002e0: 5236 adbc 3108 0d3d f807 f2bc 501f d0bc
000002f0: c9e4 b03a eb45 85bc e2b4 843c b155 24bc
00000300: d16e 6cbc 8dd8 3f3b 1f9a d33c 9033 cabc
00000310: 7fb4 873c 6c9b ba3c e3b1 0d3d 3acc bebc
00000320: ea2e 3d3c e8d6 bfbc a7c7 073d 3167 42bc
00000330: 489f bb3c 9e6e 013b a317 14bb f0b6 37ba
00000340: 23e5 cd3b fd65 8f3c 7e4a d03b 236b 363c
00000350: 0319 02bd 946b dd3c 41ae 053d 469d ff3c
00000360: c585 ef3c 6df2 b9bc 26ca 23bc 650c 103d
00000370: 6847 cabc f85d 073d fc7b e8bc dae3 c9bc
00000380: dd7b 8d3c 1d31 cdbc d680 fdbb a62e e23c
00000390: 80e6 fe3c 19ef 153d ca86 8abb 4a13 d0bc
000003a0: 2825 163d 88af debb a416 68bc db8a 123c
000003b0: 167e c9bc 82e9 c13c b5b5 bc3c 6126 dabc
000003c0: e5a6 e4bc 62f6 47bb d5bf 853c cc48 b63a
000003d0: 9cc0 81bc 9aed 823b fd84 f8bc acb2 b1bc
000003e0: 9e14 a8bc 0ba8 fd3c ed58 033d a0bf 4ebc
000003f0: 5527 003b 373f 813c 66d6 953b d19a 87bc
0.018665226 -0.016107561 -0.0071736528 0.017150646 -0.03376121 0.021334901 -0.0068118284 0.017931486
0.004932211 -0.004351479 0.010156969 0.0022983074 0.013163866 -0.013830856 -0.002717355 -0.0039586844
0.00550006 0.00037569346 0.031545162 0.011531244 -0.013069343 -0.02112591 -0.006309819 -0.015181596
-0.010934702 0.0022395798 0.020890256 0.019005949 -0.034667533 0.022178356 0.01055909 0.033280026
0.02352592 -0.03261342 -0.033383787 -0.01577228 0.03244846 -0.0045735417 0.016808657 -0.015210005
0.036229763 -0.013737685 0.028202377 0.0017261708 -0.01741734 0.019862043 -0.017401654 0.011960044
-0.008694582 -0.003055835 -0.033726104 -0.01700335 0.019372351 -0.008177645 0.03492013 0.02856196
-0.0012430287 -0.023221787 0.021760682 0.01176836 -0.022731477 0.024274748 0.023975067 0.03378775
-0.017561479 -0.0046335272 0.000544233 0.0065296777 -0.026279656 -0.024072072 0.02094484 -0.006994755
0.018406026 0.0030165603 0.012564564 0.009609474 0.015384395 0.020150831 -0.03085445 0.018706612
-0.024498204 -0.027402692 0.0022073444 -0.005355008 0.020525455 -0.020731414 -0.031188222 0.025976673
-0.0047632856 0.022526149 0.014059059 -0.024493579 0.009166464 0.009543058 -0.023104928 -0.01634938
0.0126024755 0.0072352155 -0.01430974 -0.009900053 0.0336317 -0.005730306 0.020501187 0.016869219
-0.020554963 -0.027452508 0.037387904 0.003941871 0.024759546 0.007717175 0.011655536 0.02619476
0.03432147 -0.022941073 0.0044218223 0.027468426 0.02722986 0.025248326 -0.023261148 -0.023826513
-0.019764302 0.00536351 0.036165312 -0.022273805 0.019585423 -0.018621694 -0.03291203 -0.006488127
0.021090511 0.03360936 -0.021140998 0.008749478 0.033073213 0.02572472 0.025486074 0.028397266
0.023741262 0.0097730635 -0.024626058 -0.03015127 -0.01582205 -0.0035209002 -0.021507367 0.013523007
0.0133052785 -0.0052930065 0.01635761 0.013365479 0.022900268 0.024962295 -0.011664719 0.035051588
-0.0036685872 -0.00032568112 -0.0331463 -0.022539327 -0.020535445 -0.013813868 0.02603153 -0.010337348
-0.024355464 0.016384216 0.014727909 0.026353562 -0.016595379 0.008066627 -0.012422911 -0.007750611
-0.028041143 -0.016239075 -0.010565612 0.015828105 0.009965961 0.011888042 0.038384434 0.036400758
0.025607182 0.0018099138 -0.024139144 0.028030613 -0.008588992 -0.0021448326 -0.030239297 -0.0065947818
-0.021144066 0.03443164 -0.029544815 -0.025405556 0.0013495918 -0.016268691 0.016199533 -0.010030196
-0.014430718 0.0029273361 0.025830327 -0.02468279 0.01656556 0.022779189 0.034593474 -0.023290742
0.01154683 -0.023417905 0.033149388 -0.011865423 0.0229031 0.001974977 -0.0022597096 -0.0007008156
0.0062834187 0.017504686 0.0063565364 0.011133942 -0.031762134 0.027028836 0.032636885 0.031202924
0.029238591 -0.022698605 -0.009996926 0.03516807 -0.024692252 0.0330486 -0.028379433 -0.02464478
0.017270977 -0.025047833 -0.0077363057 0.027610134 0.03111577 0.036604974 -0.004227494 -0.025399823
0.03665653 -0.0067958273 -0.014165554 0.008944239 -0.024596255 0.023670916 0.023035863 -0.026629629
-0.027911613 -0.0030511846 0.016326824 0.0013907193 -0.015838914 0.0039956095 -0.030336851 -0.021691643
-0.020517644 0.030963918 0.032067228 -0.012618929 0.0019554694 0.015777213 0.0045726774 -0.016553314

fc1.bias f4 [128]
00000000: b332 bbbc 477e a7ba cad4 243c 51ee e2ba
00000010: 4bec 49bc c3a1 173d 0242 cf3c 7b1f ab3a
00000020: 9de2 d9bb 9ddc 343d d0bb 9c3b 0169 10bd
00000030: bb17 0b3d 2298 303c 0d0b 963c 7c61 63bc
00000040: 31af 873c d419 10bc 77db af3c aa69 b9bc
00000050: 77ee 55bc c747 e7bc ae7c 89bc 8a64 0c3d
00000060: 94a8 fb3c 6a77 923b 5a58 08bc 983d 8dbb
00000070: 8338 8ebc 4af6 03bc bc19 093d 64e0 443c
00000080: 01b0 7dbc 35a6 d63a 9dd5 4cbc d9a6 9e3a
00000090: c3d5 d33b a412 a2bc 49f5 37b9 ddab 23bc
000000a0: 0e3c 1e3d 3a0a e0ba 7825 eb3c 1dd9 3abd
000000b0: 8988 5abc dfff 973c 43fa af3c f1da 303d
000000c0: 1074 6039 978d 3cbd 4cfc 9fba 5807 503b
000000d0: 3c78 0abd 77cb 193c 9179 75bc 3941 103c
000000e0: 6dd3 d53c 32e0 07bc 3dd9 92bc ef39 b13c
000000f0: d86b 7e3c 575b 3c3b 0ae5 3a3c 46a7 a3bc
00000100: 6429 1f3c 14c3 b93c 857d 8dbc 4128 c4bc
00000110: ff69 063b 2d05 01bd 4800 8bbc d68a c6bc
00000120: b8f7 23bd c452 54bb f384 993c 8534 3d3d
00000130: a506 133d 0185 96bc dc1a 2abc f878 033c
00000140: b11d 693d 7e4e 0bbd 13c7 02bd 94f2 11bc
00000150: 8028 05bd 8321 113d 1957 11bc 7c01 e9bb
00000160: e575 e9ba 97e3 cf3c 0ce6 bfbc e5a5 f3ba
00000170: 95a4 0d3d 4a12 4bbc d84e 03bd 9d91 ef3b
00000180: f3bc 173c 266c 093d d0aa 663c 4042 0d3d
00000190: f6cf 813c 5b7c dbbc d5f2 28bd a1dc 90bb
000001a0: fd4e d83c 14eb 6e3d 1bd5 fbba aadb a4bc
000001b0: 540d 85bc 0d25 893a 4e31 abbc 6d57 8bba
000001c0: 1938 a7bb b3ce 04bd 4eb8 b2bc f6e7 98b8
000001d0: 80ae ccbc c095 963b 96f3 983c 7ca9 153d
000001e0: e8ac 4fbc 24a8 383c 66c1 2c3d d439 253c
000001f0: 18ea 59bc 3655 14bc d70a 293d 0d94 23bc
-0.022851324 -0.0012778722 0.0100604985 -0.0017313455 -0.012324403 0.037019502 0.02530003 0.0013055647
-0.006649329 0.044155706 0.004783131 -0.03525639 0.033958178 0.010778459 0.018315816 -0.013878223
0.01656303 -0.00879522 0.021466954 -0.022633392 -0.013057343 -0.028232468 -0.016783085 0.03427557
0.030720033 0.0044698017 -0.008321846 -0.004310321 -0.017360931 -0.008054325 0.033471808 0.0120163895
-0.015483857 0.0016376438 -0.012502101 0.0012104168 0.0064646914 -0.01978428 -0.00017543616 -0.009989706
0.03863149 -0.0017092892 0.02870439 -0.04561721 -0.013338217 0.018554626 0.021481639 0.04317755
0.00021405541 -0.046033468 -0.0012205928 0.0031742658 -0.03380607 0.009386889 -0.014982597 0.008804613
0.026101792 -0.008293198 -0.017925853 0.02163407 0.015528642 0.0028740966 0.011407146 -0.019977223
0.009714458 0.022676028 -0.017271766 -0.023944976 0.0020509956 -0.031499077 -0.016967908 -0.024236124
-0.040031165 -0.0032397965 0.018740153 0.046192665 0.03589501 -0.018373968 -0.01038238 0.008024447
0.05691308 -0.034010403 -0.031928133 -0.008907933 -0.032509327 0.03543235 -0.008870863 -0.0071107727
-0.0017811625 0.025377078 -0.023425125 -0.0018588869 0.034580786 -0.012394497 -0.032057613 0.0073110596
0.009261358 0.033550404 0.014078811 0.03448701 0.015846234 -0.026792696 -0.041247208 -0.0044208323
0.026404852 0.058329657 -0.0019213291 -0.020124275 -0.016241707 0.0010463313 -0.020897534 -0.0010630913
-0.005103123 -0.032423686 -0.021816399 -7.291131e-05 -0.024985552 0.0045954883 0.018670838 0.036538586
-0.012675501 0.011270557 0.042176627 0.010084588 -0.013300441 -0.009053519 0.041270103 -0.0099840285

fc2.weight f4 [64, 128]
00000000: 3216 0d3d 0aff 593d 866b c3bc f223 0c3c
00000010: 5b85 87bd 21c5 2a3d 94d5 e7bc dd19 943d
00000020: 96a6 aabd b92d 41bd 36d8 663d adb1 61bd
00000030: 007f a3bd 5f1c a53d e569 29bd cb9c 553d
00000040: e558 973d 0950 bb3a b861 64bd 1644 a43d
00000050: b30a 5d3d 32e3 0ebd 7b24 cabc 0c40 1f3d
00000060: 74c1 873d fbc7 13bd 6eb2 cbbd f08d 9f3d
00000070: 307f fdbc 9bbc 97bd 375a 973d 4833 36bd
00000080: ebce adbd c4d8 a03c 17f5 4f3d 0d05 b6bc
00000090: 2992 333d 2534 87bd 42f8 a93d ca64 a23d
000000a0: 3014 e3bc cb59 743d 6f42 6bbd 9674 55bb
000000b0: 9f6b 2d3d 5e79 6abd a5eb 893c 1f4a c13d
000000c0: e0de 7ebd 25e6 0dbd 3f55 a2bd 72b9 1ebd
000000d0: 4c66 afbc 2b89 8dbd ef0e adbd 0dd9 a93c
000000e0: c7e4 143d 0a91 59bd a4df 913d ee54 633c
000000f0: cfbf a43d e646 5e3d 7b66 2c3d ecde 99bd
00000100: 4168 91bd 0cac 813d a016 8c3c 09c9 71bd
00000110: dccc 33bb 0fbb 6a3c c94e 3e3d 3e35 de3c
00000120: c4fa 773d 829d 3fbd 8292 22bd d78d 15bd
00000130: 35dc 423d 16ec 913d 5894 b13d 71db 70bd
00000140: 70b8 f93c c17b ec3c 1f47 993c eaf9 78bd
00000150: 2ea1 50bc 5e90 ecbc 98bf 533d 9882 6cbd
00000160: b841 3c3d 4d3b 903d cb94 703d 9989 ad3d
00000170: 60af 8bbc 38c8 d4bc 9486 a83d 14ce 96bd
00000180: 3c53 153d 5fc6 8e3d b8b7 44bc e35e b53d
00000190: 5bf8 963c c308 86bd 757e b1bc 170f 8e3d
000001a0: 3ad0 2abd 2ca0 13bd 1ea4 0c3b c60c a13d
000001b0: dd11 4ebb ecb9 a33d 0c3a 993a 4cca 8c3d
000001c0: daa2 5dbd c5d0 97bd bc08 273c b16f ae3d
000001d0: 34be b83d 66d5 0c3d 12d7 a2bd eb94 863d
000001e0: d82b 16ba 9e8e a53d 5b3d 25bd 2003 693d
000001f0: c2f7 3b3d 6837 213d 0a39 f53c 9a29 acbd
00000200: 2615 b23d 3d8a 53bd 9e71 713d c106 07bd
00000210: acf3 ddbc d58e 90bd e249 de3d 5c78 24bb
00000220: 4c25 6c3c 894d c2bb 5b20 31bd 06f7 833d
00000230: 4434 a53c fb9e 983d 8f1d cf3d a585 013d
00000240: 01e4 b7bd 8847 653d 6d97 74bd fbbf 8dbd
00000250: 462b 773d c4f1 99bc 77d5 193d 77c2 c9bc
00000260: 8eec a1bd 1c92 15bc 9bef 6c3d 75dd 2ebd
00000270: e12b 8cbd de1e 833a c2fa b2bd 2632 983d
00000280: f87e f73b 2db8 8ebd 8264 7e3c e98b aebd
00000290: 0eb1 30bd 718f 32bd d275 1fbd fefb 2f3d
000002a0: bb30 f23d fca0 3bbd bcd1 55bd 998d 91bd
000002b0: 072a 2dbd 5fbb 8d3d e1e7 49bc f572 54bd
000002c0: a363 993d f62e a0bd 8194 a9bd 92e8 b73c
000002d0: 92b1 e73c e35b 323d 7c52 1f3d d7f2 3b3d
000002e0: 1539 973c eb66 083d 1733 a63d 0ff5 39bd
000002f0: 85e3 77bd 1eff 96bd 98b4 5b3c 218a 71bd
00000300: 709b 40bd b4ef 883d 2b74 a23c 7cf5 4abd
00000310: fc79 afbd 269e 56bd 2fca 9d3d 7dea 9dbc
00000320: 9cb9 ae3c cd12 9e3d 113f d4bb 4e8a 813d
00000330: 4698 76bd bbbc 913d 8558 943d 3578 75bd
00000340: d696 a93d 2f5b 50bd 8535 a73c b63e a0bd
00000350: fb7a 87bd 5195 e53c da53 1a3d 2361 12bd
00000360: 631b 373b bbc5 7bbd c270 27bd ef6b b2bd
00000370: 4a04 853d 2672 6fbd 13ce 8f3c b66b 5ebd
00000380: 7487 85bd 04f7 843d dd3c 9c3d 4899 c8bc
00000390: d78e efbc fa8a 053c a546 b3bd 4220 b5bc
000003a0: 282a 0f3d d7ab 0d3d d5bc 73bc fe44 f23a
000003b0: 0bc4 4abd 10df 103d ed8c 8d3d f694 b4bc
000003c0: cf37 833d c221 173d 7491 793d ca3b 8dbd
000003d0: 3abe 62bd ac13 a83d 3e34 e13d 2e5e 673c
000003e0: fc7c 873b 74fa 9c3d 4b04 813b 3cd2 8e3d
000003f0: 609b 9f39 e495 a3bd 27b3 aa3c 7a3c 5b3d
0.034444995 0.05322174 -0.023854982 0.008553492 -0.066172324 0.041691903 -0.028300084 0.072314955
-0.08332555 -0.047162745 0.05635854 -0.055101085 -0.07983208 0.08062052 -0.041360755 0.052151483
0.07390002 0.001429082 -0.055757254 0.08020799 0.05396528 -0.03488464 -0.024675598 0.03887944
0.06628695 -0.036079388 -0.09946142 0.07790744 -0.030944437 -0.074090205 0.07390254 -0.0444825
-0.08486732 0.019634612 0.050770845 -0.022219205 0.04384056 -0.06601743 0.082993045 0.0792938
-0.027719587 0.059655946 -0.057436403 -0.0032570711 0.042338964 -0.05724465 0.016835997 0.094379656
-0.06222427 -0.03464331 -0.07926416 -0.038751073 -0.021411084 -0.06910928 -0.08450114 0.02073338
0.03635099 -0.053116836 0.07122734 0.013875229 0.08044397 0.054266833 0.04208992 -0.07513222
-0.07099963 0.063316435 0.017100632 -0.059029613 -0.0027435338 0.014326825 0.046461854 0.027124997
0.060541883 -0.04678107 -0.039690502 -0.036512222 0.047573287 0.07125108 0.086708724 -0.058803026
0.030483454 0.028867604 0.018710671 -0.06078521 -0.012733741 -0.028877433 0.05169639 -0.05774173
0.04596111 0.07042561 0.05873565 0.0847351 -0.017051399 -0.025974378 0.08228794 -0.07363525
0.03645633 0.0697143 -0.012006693 0.08855989 0.018428972 -0.0654464 -0.021666745 0.06936472
-0.041702487 -0.036041424 0.0021460126 0.078637645 -0.0031443753 0.07994446 0.0011690273 0.068745226
-0.054110385 -0.074128665 0.0101949535 0.08517397 0.09020653 0.0343832 -0.07951178 0.065713726
-0.0005728579 0.08083843 -0.040341716 0.056887746 0.045890577 0.03935948 0.029934425 -0.08406372
0.0869544 -0.051645506 0.058946244 -0.032965425 -0.02709373 -0.07058493 0.10853936 -0.0025096154
0.014413189 -0.005929653 -0.043243747 0.064436 0.020166524 0.07452198 0.1011306 0.031621594
-0.08979035 0.05597642 -0.059714723 -0.06921383 0.060344003 -0.01879204 0.03755709 -0.02462886
-0.07906447 -0.0091290735 0.057845693 -0.042691667 -0.06844307 0.0010003706 -0.087392345 0.0743144
0.0075529777 -0.069687225 0.015526893 -0.085227795 -0.043137603 -0.043593828 -0.03893072 0.042964928
0.11825701 -0.045807824 -0.05220197 -0.07107086 -0.04227641 0.06920504 -0.012323351 -0.051867444
0.07489707 -0.07821457 -0.08280278 0.022449765 0.028282914 0.04354466 0.038897023 0.045885887
0.018459836 0.033301275 0.08115213 -0.04539972 -0.060519714 -0.073728785 0.013409756 -0.05896962
-0.047023237 0.06686345 0.019830784 -0.04955052 -0.085681885 -0.052396916 0.07704579 -0.019276852
0.02132874 0.0771843 -0.0064772447 0.06325208 -0.060203813 0.071160756 0.07243446 -0.05992909
0.08280723 -0.05086821 0.020411262 -0.07824461 -0.066152535 0.028025301 0.037677623 -0.035737168
0.0027939908 -0.061467867 -0.04087902 -0.08711993 0.06494959 -0.05845847 0.017554319 -0.05430194
-0.06519976 0.06492427 0.07628796 -0.024487153 -0.029242916 0.00815081 -0.08753709 -0.022110108
0.034952313 0.034587707 -0.014876564 0.0018483696 -0.049503367 0.03536898 0.06911645 -0.022043686
0.06407129 0.03689743 0.06092973 -0.068961695 -0.055357195 0.08206877 0.109962925 0.014121575
0.0041347723 0.07664958 0.0039372793 0.06973693 0.00030442607 -0.07987574 0.02083738 0.05352447

fc2.bias f4 [64]
00000000: 9ab2 a4bd 229c b93c e891 023d 58a9 183d
00000010: 9171 163e d0c5 1bbd f98c ecbb 2987 43bd
00000020: 7126 0b3c 9ab5 6dbd acb0 40bd 24e9 59bd
00000030: dcdb b6ba b6ee 96bd b948 4e3c f093 18bd
00000040: 4cf7 aabd 6d2e c5bd 72d9 49bc aa19 7b3d
00000050: df5a 80bd ad0e 35bd 5e03 803d 0caa bebc
00000060: 3c34 3ebd a813 c33d 759a 76bd 3597 8fbd
00000070: 9708 0b3d 4eeb 653d 81e7 58bd dcdb 363d
00000080: fbae ad3d b6f2 e0bb 4e17 83bd 85e5 45bd
00000090: cac6 383d bc8f c73d 86d4 223d 6eed 8d3d
000000a0: 4b83 babd 02b0 123e 0c48 a8bd ae57 8d3c
000000b0: 8478 843d eb8d 8b3c e6d5 d63d 2c51 42bd
000000c0: 9126 b2bd 28b1 7e3d ea23 413c ed76 3ebc
000000d0: 1ffb 613d cfea 163d 42c5 97bd f5a7 a5bd
000000e0: 10c9 723a 1655 d2bd daf5 e33d 37d9 cbbc
000000f0: 13f2 87bc 251b 5fbd 8058 71bc 58cc 00be
-0.08041878 0.022657458 0.03187743 0.037270874 0.1469176 -0.038030446 -0.0072189537 -0.04773632
0.008493052 -0.058034517 -0.047043487 -0.053200856 -0.0013951021 -0.07369749 0.012590581 -0.03725046
-0.083479494 -0.09627996 -0.012319909 0.061303772 -0.06267332 -0.04420345 0.06250642 -0.023274444
-0.046436533 0.095252335 -0.060205895 -0.07011262 0.03394374 0.056132607 -0.052955154 0.044643268
0.084806405 -0.006864871 -0.064009294 -0.04831459 0.045111455 0.09744212 0.03975346 0.06930052
-0.091070734 0.14324954 -0.08216867 0.017253723 0.06468299 0.017035445 0.10490017 -0.047440693
-0.08698762 0.062180668 0.011788348 -0.011625034 0.05517113 0.036845025 -0.07410671 -0.08088676
0.0009261528 -0.10270135 0.11130877 -0.02488385 -0.016594922 -0.054469246 -0.014730573 -0.12577951

fc3.weight f4 [32, 64]
00000000: 13a8 8f3d e10b 1f3e 37dd 6dbd 9654 c73d
00000010: d9e1 4a3e 16b4 d63c b6b9 073e c315 8ebc
00000020: 7750 5f3e 1ac3 95bd 465d 753e e106 f23c
00000030: 283e b43c 185d a4bd 587f f43d 0b47 bd3d
00000040: 85f8 223c 411a b9bd 800a c2bd c964 dcbd
00000050: 1138 dabd 97e9 643d 55ec c93d cd87 05be
00000060: e07f 5abd d3e3 07bd e008 0f3c 14b9 f1bb
00000070: 5449 ffbd b477 0a3d eea6 a0bd b026 d3bd
00000080: 7a4e 25bc 2890 0fbd 7ff2 d73c 5825 86bc
00000090: d3be 813d 83dc c03e db17 c0bd a005 ce3d
000000a0: 06a8 773d e009 0a3e ecd7 2d3c ff89 ab3a
000000b0: 87db 093e 5025 2a3d 4fc8 9a3d e41e 92bd
000000c0: dc42 fcbd 128e 313e eb06 3dbc e766 0b3c
000000d0: 8bf8 6b3e 3368 8a3e 4899 bf3d 4548 f83d
000000e0: 8b8c f03c 9619 393e f1b9 243d b7e9 613e
000000f0: d810 843c a000 8e3d 99b8 87bd 3c12 bebd
00000100: eb93 f93d f48d ac3d c035 07bc d7eb d13c
00000110: b242 343d b3e4 ebbd cd7e 163d 2eea b53d
00000120: d7ab 6dbd 493c a7bd 04ad ca3d da15 20bd
00000130: c299 ab3d acde e3bd 9b13 bf3c 0767 973d
00000140: 4a03 00bd 884c 873d e832 003d 8ebb 763d
00000150: 7c6b dfbc 3052 d13d 871a 893d 8f6f 4e3d
00000160: 3c9e e83d c7d2 fb3d ac01 a83d 68e0 aabd
00000170: 31dd c9bd 37a5 343d 4509 dabd 65e4 813b
00000180: 4f2a 3abd 2657 a1bd 4352 45bd 415c 8ebd
00000190: b465 2f3d 377f 333e 2d81 38bd 901a 7fbc
000001a0: c3db 083e f058 74bb c815 71bd 0da8 953c
000001b0: fa05 d1bc 90ac deb9 c7e9 6dbd c6c3 97bc
000001c0: 5f38 583d 3ad5 293e de34 d7bd 1334 d33d
000001d0: b544 3d3e edcd 073e 5021 eebc 06dc 713d
000001e0: 9296 8fbd a66f 8b3d cf19 dc3d 8fa3 303e
000001f0: 3fbb 5d3d 45bc b5bc 4c39 be3d a587 233e
00000200: da0d b4bd 5e4e b7bd 4241 b7bd a101 393e
00000210: 07b0 3abe f096 823d 2ea3 713e c362 7f3c
00000220: 2584 b63d cc5c 633e f32d b13d 5fa0 9a3c
00000230: 30f0 a3bd 15a5 b53d 19c6 dfbd 3e5f cabd
00000240: 5797 ae3b decc 1e3a 1016 19bd 0e03 533d
00000250: be5b ce3d 5717 43bd 62dd 05bd e6d0 803e
00000260: 21b0 c53d 1748 263e 50f4 443b d24a e63d
00000270: 86e9 243e 6172 c6bd 8390 1c3e fbf5 40bc
00000280: fa1c afbd 2551 063e 4ce4 d6bd 3f85 083e
00000290: 367b f6bd d266 a7bd 3358 293e eeed dbbd
000002a0: c5ed 9a3d 99f8 15be f667 a83d ec50 dd3d
000002b0: 1513 0c3b 3bb8 9cbc 9493 cebd c82d e7bd
000002c0: b4c7 41bd 71a7 0f3e 4052 4bbc 681b febd
000002d0: 387a ad3c d126 383e 5f92 42bd dc95 aabd
000002e0: 5d32 563e a95c 9dbd a480 0abe b60c 5f3d
000002f0: 365d e3bc 14db 64bd c57f 06be 1da0 503e
00000300: a739 fb3d 59e3 24be d9a7 48bc f72a 8fbd
00000310: 38ac 6c3d 8ba4 fd3d 5c0d 003e feee c4bd
00000320: 594c 99bd debb 1c3d 4a2c cbba d8c2 09bd
00000330: 4877 ed3d 03a0 a13d b90a a6bc b3be 93bd
00000340: 735b 08be 8049 1d3c 7035 e6bd 644d 953d
00000350: 5e45 143c 654c dd3d d978 813d 94ce b33d
00000360: 3494 98bd bfdb 4d3e 8d5e cebd ac29 9bbd
00000370: c063 393e 4ced 503c 5af6 083e e456 a83d
00000380: 525c b23d 50ec 433e f33d fa3c b99c 76bd
00000390: d4f9 e23d 0e13 b8bc 6d04 373e 73d3 c0bd
000003a0: 89b0 3cbd ee4e 093d cc6b a93d 5a47 d33c
000003b0: add9 d63d 01e4 04be ec0c ff3d 3c5f ddbd
000003c0: f761 b43d e10d 783e 6230 f43c 9de8 74bd
000003d0: 2790 0e3e 614f eabc ae9a 80bd 147a cabd
000003e0: c906 b6bd b59a 98bd c5af ccbd 81e0 3abe
000003f0: aef3 bcbd 416e 703d 28d1 40bd b692 04bd
0.070144795 0.15531875 -0.058072295 0.0973293 0.19812717 0.026208919 0.13254437 -0.017344361
0.21808039 -0.07312603 0.23961362 0.029544296 0.022002295 -0.08025569 0.119383514 0.09242066
0.009946947 -0.09038211 -0.09474659 -0.10761411 -0.10655225 0.05588683 0.0985953 -0.13040085
-0.053344607 -0.033176254 0.008730143 -0.0073767994 -0.12465158 0.033805564 -0.07844339 -0.103101134
-0.010089511 -0.035049587 0.026360748 -0.016375229 0.06335225 0.37668237 -0.0937955 0.10059667
0.060462974 0.1348033 0.010610562 0.0013087391 0.1346265 0.04153949 0.07557737 -0.07134798
-0.1231744 0.17339352 -0.011537294 0.008508421 0.2304403 0.27032623 0.09355408 0.12123159
0.029363891 0.18076167 0.04021639 0.22061811 0.016121313 0.06933713 -0.06627006 -0.09280822
0.12186416 0.08425513 -0.008252561 0.025625153 0.044008918 -0.1151823 0.03674202 0.08882557
-0.058025207 -0.08165795 0.09896281 -0.03908334 0.08378936 -0.11126456 0.023324778 0.07392698
-0.031253137 0.06606394 0.031298548 0.06023746 -0.027272932 0.10220754 0.06694513 0.05039936
0.11358306 0.12296062 0.08203444 -0.08343583 -0.09856642 0.044102874 -0.10646299 0.0039639943
-0.045450505 -0.0787795 -0.048174154 -0.0695119 0.0428216 0.17528997 -0.045045067 -0.015570298
0.13365082 -0.0037284456 -0.058858663 0.01826861 -0.025515545 -0.0004247171 -0.058084276 -0.01852597
0.052788135 0.16585246 -0.105081305 0.10312667 0.18483241 0.13262148 -0.029068619 0.05904772
-0.07011141 0.068084046 0.1074711 0.17249893 0.05413365 -0.0221845 0.09288272 0.15969713
-0.087917045 -0.08950494 -0.08947994 0.18067028 -0.18231212 0.06376445 0.23597404 0.0155875115
0.08911923 0.22203368 0.08651342 0.018875299 -0.080047965 0.088693775 -0.10926456 -0.09881447
0.0053280997 0.0006057749 -0.037374556 0.051516585 0.10076092 -0.04762968 -0.03268183 0.25159377
0.096527345 0.16238438 0.0030052848 0.112447396 0.16104707 -0.09689785 0.15289502 -0.011777396
-0.08550449 0.13116892 -0.10492763 0.1333208 -0.12035219 -0.08173908 0.16537552 -0.10738741
0.07564882 -0.14645614 0.08222954 0.1080645 0.0021373678 -0.019130817 -0.10086742 -0.11288029
-0.047309592 0.14028718 -0.012409747 -0.12407571 0.021176443 0.17983557 -0.04750287 -0.08329365
0.2091765 -0.07683689 -0.13525635 0.05445548 -0.027754407 -0.05587299 -0.13134678 0.20373578
0.12266856 -0.16102351 -0.012247049 -0.06990617 0.057781428 0.123849 0.12505096 -0.09615897
-0.07485265 0.0382651 -0.001550087 -0.033633083 0.11595017 0.07891848 -0.020268785 -0.07214107
-0.13316135 0.009600043 -0.11240661 0.07290152 0.009049742 0.10805587 0.06321878 0.08779636
-0.074501425 0.20103358 -0.10076628 -0.07576308 0.18104458 0.0127518885 0.13375226 0.08219698
0.08709015 0.19133115 0.030547118 -0.060208056 0.11082807 -0.022470023 0.17872782 -0.09415331
-0.046066795 0.03352254 0.08272514 0.025790859 0.10490737 -0.12977602 0.124536365 -0.1080918
0.08807748 0.24224044 0.029808227 -0.05979215 0.13922177 -0.028602304 -0.06279503 -0.09886566
-0.08888013 -0.07451383 -0.09994463 -0.18249704 -0.09226166 0.058698896 -0.047074467 -0.032366477

fc3.bias f4 [32]
00000000: 03ed d73e 9586 36be 893a fabc e373 133e
00000010: 91f0 143e 1090 443d ae48 35bd 3543 a3bd
00000020: 8499 0e3e d3f7 c4bc baee 70bd 1d2c e23d
00000030: 6ce1 8fbd 2305 063e 2890 293e bbf6 f2bd
00000040: 9777 c8bd e7af 01be 3ad0 c3bd 14eb 94bd
00000050: 6548 223d 000b 0abd fffb 3b3c 5e95 103e
00000060: 52e7 153c aab9 11be d65a cbbd cc6c cebd
00000070: eac5 2bbd 3cb9 97bd 5781 63bb 43e8 98bd
0.42173013 -0.17824776 -0.03054549 0.14399676 0.14544894 0.04798895 -0.044258766 -0.07971803
0.13925749 -0.024043953 -0.058821417 0.1104357 -0.07025418 0.13087897 0.16558897 -0.11863466
-0.09788435 -0.12664758 -0.095612004 -0.072714 0.039619822 -0.033701897 0.011473655 0.14119479
0.009149389 -0.14230981 -0.09929435 -0.10079345 -0.041936792 -0.074083775 -0.0034714544 -0.074661754

fc4.weight f4 [10, 32]
00000000: 0d33 8ebe 96b0 e2bd e2fd bb3e 0e2f 313e
00000010: 850c 113e ea0a 883e 5bac 19bd a9c2 063e
00000020: 484d 2d3e 20a7 353d 366d 34be ad2b c33d
00000030: 873a adbd c92f 5f3e 5708 0ebe 076c 4e3e
00000040: 58eb 25be f122 2abe 56ba 9d3e 4e4b 1f3e
00000050: db8d 47be 9295 64bd 28b3 3d3d f0b6 b3bb
00000060: 0dd6 12be fe77 05be 2b35 41be b54d 0c3e
00000070: 3911 253e bb10 c5bd b25d e7bd 8df5 a4bd
00000080: 698d fdbe dc0a a0be 1d95 2b3d 95ff 393e
00000090: 1837 95be 67a3 0b3e 9560 193e 9772 123e
000000a0: ae4a f03e 8bee 51bd 7dec 30be c83b 2c3e
000000b0: 0047 4e3d 8961 303e fac1 13be 5fa7 033e
000000c0: ed22 233e 4108 90bd aaf2 493d bf61 a5bc
000000d0: 9f76 dfbb 68d1 3c3d 2d20 e13d ab6c e4be
000000e0: 140c c23e 8ebe 2c3e fdf5 ce3d 58df 41bd
000000f0: dacb b03d 802a a9bd c4a8 e5bc 660d a13b
00000100: a809 45be 41f9 19be a6d1 463e 7c91 b2bd
00000110: f91b 91bc 2972 203d a0ae f0bd e5b5 bd3c
00000120: 45ee 9abe 75cd 003e fe13 243d 3cba d2bb
00000130: db67 1fbe fa51 0c3d 0bf1 3bbe 98e2 ff3d
00000140: fd9a da3d c3ab 7fbc 38a9 9d3e 5da1 ea3d
00000150: cd29 a93b a826 4c3d 7587 10be cf49 953c
00000160: 73a7 ba3d ec54 4abd 548e b53e 2100 2cbe
00000170: 4356 da3d 299f dcbd c47b 83bd e55d 86be
00000180: fa0f 82bd 30bc fa3c efca da3d 1378 a13e
00000190: b186 48be f49a e83c 7403 18be d38a 733d
000001a0: 741b 993e b927 08be a28e 323e 4805 8a3e
000001b0: f3a7 01bd 5808 05bc 99f4 dcbd 7916 4d3e
000001c0: 6bf9 3d3e 4454 f3bd 7489 f3bd 58d8 9e3c
000001d0: 3800 12bd 11c3 d8bd 5e7c 043e d726 88be
000001e0: 59b4 1f3e a668 a33d 186d f63c 08d8 223d
000001f0: 7905 2c3e b42c 14be e0de 263e 7c38 843c
00000200: 9b9d dabd 8438 003e 1bdd 2a3d 7c1f 36be
00000210: 1e40 4bbe 4c18 65be d4d6 353d 382e 8cbc
00000220: 6891 5bbd ae43 de3d 8b11 f0bd 1a0a bb3d
00000230: c14b 7abd 8c94 073e cac9 1bbe 4c84 843e
00000240: 177e 673c 69a2 123d 1f37 573e 0e06 093e
00000250: e8dd b1bc 48c5 563d 0753 9abd e8d0 23bd
00000260: 1ac4 213e 291e cd3d 34d5 ba3e 5738 213e
00000270: 0de5 e63c d69a de3d 4ac7 2d3e bed0 12be
00000280: 8381 d13e 0aa5 eabd 7146 94be 5a23 06bd
00000290: 064f 6e3e 26af fcbc f42c 313e 50d5 003e
000002a0: 9775 43be 3af3 e9bd 214e 063e 9439 103d
000002b0: 2dd1 293e f692 d93d d796 543e f454 8abe
000002c0: 6c19 a7bd 8239 343e 15ff 31be f479 32be
000002d0: 16e7 1d3d f966 25be 2e94 0b3e 5a7a 7a3d
000002e0: 0ac6 39be d12c ed3d 69a8 50be bcc9 40bd
000002f0: 6ed3 843d ce50 cd3d 14b4 e8bd 5a25 703d
00000300: ecaf 47be 9b4a 28be 1d69 4c3e 56c7 823d
00000310: 066b 973d 4119 113d 453e 08bd 5a72 15be
00000320: 0cc7 5fbd 7ece 09be 794e babd 65f5 81bd
00000330: 40e6 24be b1c1 463e ac5e ccbd 3a6e 153c
00000340: 41eb a5bd b95e 7dbd e98b 383e e06b dd3d
00000350: 3f5e ae3d 787d c3bd 2d03 13be 07d9 bfbc
00000360: 8605 153e 2b1f 113e 5b79 983e 9201 06be
00000370: 537d bbbc 9065 a0bc c035 9abc 649c 0ebe
00000380: 2848 d83e c163 983c 2f4a fdbe 2c08 5fbe
00000390: 5035 f43d c8f5 9cbc 53df 9c3d 958e 333e
000003a0: 5db7 61be 8940 0c3e 98c9 fbbc d04f 3dbe
000003b0: b6bd a03d 3483 3cbd d6eb 803e b7d8 3abe
000003c0: a76d 7bbd bd56 333e 8efe 3fbe 2fde 1a3d
000003d0: 739b 023e dc09 1a3d 5b2e 23be aef4 2c3e
000003e0: fe93 62be cc31 bebb 1ec6 b2be 0801 17be
000003f0: 3622 a3bd 2ec5 ce3d 08d8 0e3e 8f15 de3d
-0.27773324 -0.11068837 0.36717135 0.17303106 0.14164932 0.26570827 -0.037517887 0.13160194
0.16924012 0.044348836 -0.17619786 0.09529815 -0.08458429 0.21795572 -0.13870369 0.20158397
-0.16203058 -0.16614892 0.30806226 0.1555607 -0.19487707 -0.055806704 0.046313435 -0.0054844543
-0.14339466 -0.13034055 -0.18867938 0.13701518 0.16119851 -0.09622332 -0.11297168 -0.080546476
-0.4952195 -0.31258285 0.041890252 0.18163903 -0.29143596 0.13636552 0.1497825 0.14301525
0.46931976 -0.051252883 -0.17277713 0.1681968 0.05036068 0.17224707 -0.14429465 0.12856816
0.15931292 -0.07032824 0.049303688 -0.02018821 -0.0068195607 0.046098143 0.10992465 -0.44614157
0.3789984 0.16869566 0.10105512 -0.047332138 0.086326316 -0.08260059 -0.028034575 0.0049149273
-0.19241965 -0.15036489 0.19415912 -0.08719155 -0.017713534 0.03917137 -0.11752057 0.023158023
-0.3025991 0.12578376 0.04005813 -0.0064308923 -0.15566961 0.034257866 -0.1835367 0.12494391
0.10674093 -0.015604916 0.30793166 0.11456559 0.0051624537 0.049841553 -0.14114173 0.018223671
0.0911397 -0.049397394 0.3546015 -0.16796924 0.10660984 -0.10772545 -0.06420091 -0.2624351
-0.063507035 0.030607313 0.10683238 0.31536922 -0.1958263 0.0283942 -0.14845067 0.059458565
0.29903758 -0.13296403 0.17437223 0.26957154 -0.03165431 -0.008119665 -0.10788841 0.20028104
0.18552177 -0.11881307 -0.118914515 0.01939027 -0.03564474 -0.10584081 0.12938067 -0.26592132
0.15596141 0.079789445 0.030081317 0.039756805 0.16798963 -0.14470178 0.16295958 0.016140215
-0.10674592 0.12521559 0.04171477 -0.17785448 -0.19848678 -0.2237255 0.04439433 -0.017111883
-0.053605467 0.108527526 -0.11722096 0.09132786 -0.0611074 0.1324026 -0.15213695 0.25882185
0.014129183 0.035799418 0.21017121 0.13381216 -0.021712258 0.052434236 -0.075353675 -0.03999415
0.15797463 0.10015518 0.36490786 0.15744148 0.028185392 0.10869376 0.16970554 -0.14337441
0.40919122 -0.1145726 -0.28959993 -0.032748558 0.23272333 -0.030845236 0.17302305 0.12581372
-0.19087826 -0.11423345 0.13115741 0.03521116 0.165837 0.10623734 0.20760666 -0.2701794
-0.08159146 0.17600062 -0.17382462 -0.17429334 0.03855046 -0.16152562 0.13630745 0.06115184
-0.18141952 0.11580814 -0.20376743 -0.04706739 0.064856395 0.10025178 -0.11362472 0.05862937
-0.19500703 -0.1643471 0.19961973 0.063856766 0.0739346 0.035424475 -0.03326251 -0.14594403
-0.054633185 -0.13457677 -0.09096999 -0.063456334 -0.16103458 0.19409825 -0.09978995 0.009120518
-0.08101512 -0.061857913 0.18022121 0.10811591 0.0851407 -0.09545416 -0.1435668 -0.023418916
0.14552888 0.14172046 0.29780087 -0.13086537 -0.022886908 -0.019579679 -0.018824458 -0.13926846
0.4224255 0.018602254 -0.4947066 -0.21780461 0.11924231 -0.019160166 0.07659783 0.1753486
-0.22042604 0.13696493 -0.030735776 -0.18487477 0.078486845 -0.046023563 0.2517993 -0.18246733
-0.06138387 0.17513557 -0.18749449 0.037809547 0.12754612 0.03760706 -0.15935652 0.16890213
-0.22126767 -0.005804276 -0.34916776 -0.14746487 -0.079655096 0.10096203 0.13949597 0.10843956

fc4.bias f4 [10]
00000000: e601 1abe 52fb 013e e821 35bd 8cc9 cdbd
00000010: 1a44 81be 6caf e23e faa0 82bd d4e0 c23e
00000020: 6e5c 40be 8057 abbd
-0.15039787 0.12693527 -0.04422179 -0.10048208 -0.2524727 0.4427446 -0.0637836 0.38062155
-0.18785259 -0.08366299
