COMP 219 Advanced Artificial Intelligence /Resilience-to-Adversarial-Attack-main/ep0.05num30epoch10.pt (torch, 446863 bytes, 8 tensors)

fc1.weight f4 [128, 784]
0	0x3c96bf33	0.018401718
1	0xbc811383	-0.015756374
2	0xbbdf9dd3	-0.006824234
3	0x3c88e4e3	0.016710704
4	0xbd0c0d98	-0.03419265
5	0x3ca11599	0.019663619
6	0xbc3545a9	-0.011063972
7	0x3c756070	0.014976606
8	0x3bf35484	0.0074258465
9	0x3ab3b1f3	0.0013709649
10	0x3c880cd0	0.016607672
11	0xbb54640c	-0.0032408265
12	0xbac812f6	-0.001526444
13	0xbd06b273	-0.032885026
14	0xbcb79e8b	-0.022414466
15	0xbcb2aebc	-0.021811835
16	0xbbb0c2cb	-0.005394315
17	0x3ba66be6	0.0050787805
18	0x3d21825b	0.039430957
19	0x3c741db0	0.014899656
20	0xbc883c89	-0.016630428
21	0xbcef99ac	-0.029248081
22	0xbc388bc2	-0.01126379
23	0xbc91e0db	-0.017807415
24	0xbc4ee61d	-0.0126281055
25	0x3a8f7f4d	0.0010947973
26	0x3cacd207	0.021096243
27	0x3c9f2b5c	0.019429855
28	0xbd0f095b	-0.03492103
29	0x3cb4bcc2	0.022062663
30	0x3c2496cc	0.010045718
31	0x3d0848e7	0.03327265
32	0x3cb1eee1	0.021720352
33	0xbd15763a	-0.036489703
34	0xbd1742b7	-0.03692886
35	0xbbbd4aa4	-0.00577672
36	0x3d2e6bf5	0.042583425
37	0xbb4f20c0	-0.0031605214
38	0x3c35b7be	0.011091171
39	0xbccdf763	-0.025142377
40	0x3d2a2ec3	0.0415485
41	0xbc310cc3	-0.010806265
42	0x3ce750fe	0.028236862
43	0x3bf5105d	0.0074787573
44	0xbc99c431	-0.01877031
45	0x3c4eb4b6	0.012616327
46	0xbc5fd6f3	-0.013662088
47	0x3c90dd7b	0.017683735
48	0x38bf8b08	9.133486e-05
49	0xbbde5d2c	-0.0067860093
50	0xbd3695d9	-0.0445765
51	0xbcce71c6	-0.025200736
52	0x3c666933	0.014063167
53	0xbc43e2d5	-0.011955936
54	0x3d0ceb27	0.034403946
55	0x3ce9e2d1	0.028550537
56	0xbae5c7ad	-0.0017530821
57	0xbcc56b1e	-0.024098929
58	0x3caca75d	0.021075899
59	0x3c2388e4	0.009981368
60	0xbcc5d70e	-0.024150398
61	0x3ce82a0c	0.028340362
62	0x3d345919	0.044030283
63	0x3d61d818	0.055137724
64	0xbc942daa	-0.01808818
65	0xbc20f17c	-0.009823199
66	0xba8d8dfd	-0.0010799762
67	0x3bd37a70	0.0064538047
68	0xbc995cdd	-0.018721038
69	0xbc48618e	-0.01223029
70	0x3cfc7b25	0.030820439
71	0xba58f8c9	-0.0008276818
72	0x3c87b96b	0.016567906
73	0xbaed7f42	-0.0018119591
74	0x3bfa03e1	0.007629857
75	0x3b919168	0.0044423826
76	0x3cc75450	0.024332196
77	0x3d1dc691	0.038519446
78	0xbcc40ccb	-0.023931881
79	0x3c593112	0.013256328
80	0xbd02cba9	-0.031932507
81	0xbd04a3fb	-0.032382946
82	0xb8d19e5b	-9.9953926e-05
83	0xbbd3612f	-0.006450794
84	0x3caa37e2	0.0207786
85	0xbcaeed52	-0.021353398
86	0xbd04e211	-0.032442156
87	0x3ccc93ac	0.02497276
88	0xbab4d403	-0.0013796095
89	0x3d21f9e9	0.039544974
90	0x3d15f264	0.036608115
91	0xbc93b840	-0.018032193
92	0x3c09e45b	0.008416261
93	0x3c5ee065	0.0136033045
94	0xbcaef2ac	-0.02135595
95	0xbcab1896	-0.020885747
96	0x3c4cb74a	0.012494871
97	0x3b989488	0.004656378
98	0xbcaa8f8e	-0.020820405
99	0xbc94fa26	-0.018185686
100	0x3cd1f41f	0.025629101
101	0xbc25d23c	-0.010120925
102	0x3cb1d369	0.021707254
103	0x3c62eea9	0.013850846
104	0xbcbbd32a	-0.02292784
105	0xbc712cf9	-0.014720195
106	0x3d61393c	0.054986224
107	0x3c0c6e5d	0.0085712345
108	0x3ca0d6ed	0.019633735
109	0x3a6f9c07	0.00091403764
110	0x3bfff02e	0.007810614
111	0x3cd3ec1a	0.025869418
112	0x3d0937cd	0.03350048
113	0xbccab378	-0.02474378
114	0x3b6cec50	0.0036151595
115	0x3cdfb3a9	0.027307348
116	0x3d15c4f0	0.036564767
117	0x3d301a8b	0.042994063
118	0xbb93eb28	-0.004514117
119	0xbcc38093	-0.02386502
120	0xbcd063b5	-0.025438169
121	0x3c3688fe	0.01114106
122	0x3d119222	0.035539754
123	0xbcf7d487	-0.030252708
124	0x3c6f71b6	0.014614513
125	0xbcbea98d	-0.023274207
126	0xbd25eab6	-0.04050704
127	0xbc84b43b	-0.016199222
128	0x3c25a603	0.010110381
129	0x3cddbae4	0.027066655
130	0xbcb60e72	-0.022223685
131	0x3b758449	0.0037462881
132	0x3cc2a6bc	0.023761146
133	0x3d006ffc	0.031356797
134	0x3d284732	0.041083522
135	0x3d26c4e9	0.040715132
136	0x3cbcf6c5	0.023066888
137	0x3b78f368	0.0037986878
138	0xbcec395a	-0.028835941
139	0xbcfea893	-0.031086242
140	0xbc8a95c5	-0.016917119
141	0xbbadd13a	-0.0053044828
142	0xbcb337e3	-0.021877235
143	0x3c87ba41	0.016568305
144	0x3ce24b87	0.027623905
145	0x3c68f6d9	0.014219009
146	0x3d01b43b	0.03166602
147	0x3bd54484	0.006508412
148	0x3c9f0590	0.019411832
149	0x3cebe44c	0.028795384
150	0xbc1f23b5	-0.009713103
151	0x3d0100c5	0.031494875
152	0xbc1b498d	-0.009477985
153	0xbb9c4ce5	-0.0047699087
154	0xbd1d1567	-0.03835049
155	0xbcfe3c76	-0.03103469
156	0xbcec0fff	-0.028816221
157	0xbc91bc68	-0.017790034
158	0x3cc64879	0.02420448
159	0xbc56c3e0	-0.013108224
160	0xbd12b23b	-0.035814505
161	0x3c868e2c	0.016425215
162	0x3cf3e4c9	0.02977218
163	0x3d328c8f	0.04359108
164	0xbc2960e3	-0.010338041
165	0x3bd9b0b2	0.006643378
166	0xbc876748	-0.01652874
167	0xbc145674	-0.009053815
168	0xbcecd804	-0.028911598
169	0xbc8923ec	-0.016740762
170	0xbc12e7ad	-0.008966369
171	0x3cb8d527	0.022562576
172	0x3ccd5925	0.025066921
173	0x3d079df1	0.03310961
174	0x3d575e47	0.052580144
175	0x3d0f2784	0.034949794
176	0x3d02aab3	0.031901073
177	0x3c2726d6	0.01020213
178	0xbc913129	-0.017723637
179	0x3cf798ae	0.03022417
180	0xbc31178d	-0.010808838
181	0xbb16aa59	-0.0022989719
182	0xbd0456a7	-0.0323092
183	0xbbfb7bdc	-0.0076746773
184	0xbccc3a49	-0.024930136
185	0x3cece4e4	0.028917737
186	0xbd1e1095	-0.038590033
187	0xbd0887ba	-0.033332564
188	0xbc12df62	-0.008964391
189	0xbc88e380	-0.016710043
190	0x3d0b7f1c	0.034056768
191	0x3c21bd3f	0.00987178
192	0xba98894f	-0.0011637601
193	0x3c1247af	0.0089282235
194	0x3cdd98be	0.027050372
195	0xbcd24ba6	-0.025670838
196	0x3c88a97c	0.016682379
197	0x3cc45369	0.023965554
198	0x3d208491	0.039188925
199	0xbc58406f	-0.013198956
200	0x3ceb281e	0.028705653
201	0xbae7a2eb	-0.0017672455
202	0x3d4c2e18	0.049848646
203	0xbb42a28b	-0.0029698934
204	0x3d28fae7	0.041254904
205	0x3c9dfdf3	0.019286131
206	0x3c26fa05	0.010191445
207	0x3b932867	0.0044909003
208	0x3c13e8e6	0.009027695
209	0x3c9523f0	0.018205613
210	0x3c076e01	0.008265973
211	0x3c75ed78	0.01501023
212	0xbcfdf659	-0.031001257
213	0x3caa5bb1	0.020795675
214	0x3cc25003	0.023719793
215	0x3cbf4461	0.023348035
216	0x3ca57fdb	0.020202568
217	0xbcb7a6df	-0.022418438
218	0x3be9f4d2	0.0071397806
219	0x3d63fafe	0.055659287
220	0xbb946091	-0.004528113
221	0x3d43f7bb	0.047843676
222	0xbcb04648	-0.021517888
223	0xbccd4351	-0.025056513
224	0x3c9193f4	0.017770745
225	0xbcbe37b8	-0.023219928
226	0xba74e168	-0.00093414495
227	0x3d2de98a	0.04245905
228	0x3d4d8b39	0.0501816
229	0x3d6e7a5d	0.058222163
230	0x3c62dcc8	0.013846584
231	0xbbef0280	-0.007293999
232	0x3d87b3b8	0.066260755
233	0x3cc01e97	0.023452086
234	0x3c066d10	0.008204713
235	0x3c96f1a4	0.01842577
236	0xbc99d4a3	-0.01877815
237	0x3cd60da6	0.026129555
238	0x3cd66eaa	0.026175816
239	0xbcb485e2	-0.022036497
240	0xbd0a5e9f	-0.033781644
241	0xbc373af9	-0.011183494
242	0x3c9518d4	0.018200316
243	0x3ba1b03c	0.004934339
244	0xbc9829c6	-0.018574607
245	0x3a9d8470	0.0012017619
246	0xbc90b460	-0.017664135
247	0xbb7f44f4	-0.0038951011
248	0xbaffe566	-0.0019523322
249	0x3d39cf85	0.04536392
250	0x3d201b1f	0.039088365
251	0xbc4c7a23	-0.012480292
252	0x3b0531b4	0.0020323815
253	0x3ca174b8	0.019708976
254	0x3c63d31e	0.013905315
255	0x3a9f5133	0.0012154937

fc1.bias f4 [128]
0	0x3c610d2c	0.013736051
1	0x3b5b13be	0.0033428515
2	0x3ca1de02	0.019759182
3	0x39fb7eb7	0.0004796886
4	0xbc210fb2	-0.009830402
5	0x3d9dad25	0.0769904
6	0x3c3deb0b	0.011591683
7	0x3d222b1b	0.03959189
8	0x3cee74b4	0.029108383
9	0x3bc9f1a7	0.0061628404
10	0x3b449513	0.0029996082
11	0xbd146193	-0.036225867
12	0x3ca757d9	0.020427631
13	0x3d36a0f2	0.044587083
14	0x3c274cc9	0.010211178
15	0xbc5246c5	-0.012834256
16	0x3d8f2843	0.06990101
17	0xbaf140b2	-0.0018406122
18	0x3c4dee55	0.01256903
19	0xbce8541c	-0.028360419
20	0xbc1133da	-0.00886246
21	0xbd1dede8	-0.038556963
22	0x3cadaa15	0.021199265
23	0x3d1f02ae	0.038820915
24	0x3cfdf1f5	0.030999163
25	0x3bac5341	0.005258948
26	0xbcc5ba37	-0.024136646
27	0x3a74338a	0.0009315541
28	0x3ce21192	0.027596269
29	0xbc34e22a	-0.01104025
30	0x3c4d76f3	0.012540567
31	0xbc83f11e	-0.016106185
32	0xbc4301e2	-0.011902304
33	0x3d22b94b	0.03972749
34	0xbc480bc7	-0.012209839
35	0xbabe1d60	-0.0014504604
36	0x3c21ef7f	0.0098837605
37	0xbc82258c	-0.015887044
38	0x3ccfbb4f	0.02535787
39	0xbb887e1a	-0.004165423
40	0x3c6ffbde	0.014647452
41	0xbc4beb91	-0.0124463
42	0x3d32177e	0.043479435
43	0x3c8866fb	0.016650667
44	0xbc9eb6ea	-0.01937433
45	0x3dd04f0a	0.101713255
46	0xbc477e16	-0.012176057
47	0x3d389364	0.045062438
48	0x3bea836a	0.007156779
49	0xbc8486df	-0.016177593
50	0x3d856d7b	0.06515022
51	0x3b33735f	0.0027382
52	0xbd4f17b6	-0.050559722
53	0x3c4f67c5	0.012659018
54	0xbcea7608	-0.028620735
55	0xbc1cf646	-0.009580201
56	0x3cd0bbde	0.025480207
57	0xbd0d85e3	-0.034551512
58	0xbca97c0a	-0.02068903
59	0x3cd3b8fb	0.025845041
60	0x3d9f6b5b	0.07784148
61	0x3d543d62	0.05181635
62	0x3c867d98	0.01641731
63	0xbd258cea	-0.04041759
64	0x3c806303	0.015672212
65	0xbcc3eeed	-0.02391764
66	0xbb9892c6	-0.0046561686
67	0x3bf779ec	0.007552376
68	0x3d015ac6	0.03158071
69	0xb9dc52e0	-0.00042023417
70	0xbd3bcccb	-0.045849603
71	0x3c83c443	0.016084796
72	0xbda0a55e	-0.07844041
73	0x3c3f816b	0.0116885705
74	0x3cfadc24	0.03062255
75	0x3cc19a39	0.02363311
76	0x3d9d57d1	0.07682765
77	0xbce20807	-0.027591718
78	0xbb82da93	-0.0039933412
79	0x3d2aea5f	0.04172742
80	0x3d91aedb	0.07113429
81	0xbcbfdc59	-0.0234205
82	0x3cff290f	0.031147508
83	0xbd0359e4	-0.03206815
84	0xbb367a34	-0.0027843835
85	0x3dc0a945	0.094072856
86	0xbb9d03f7	-0.0047917324
87	0x3c8a3f29	0.01687582
88	0xbc30803b	-0.01077276
89	0x3d870799	0.06593246
90	0xbc9f1a35	-0.019421676
91	0x3bc11882	0.005892814
92	0x3d6af7e8	0.057365328
93	0x3d888ad2	0.06667103
94	0xbc5c8381	-0.013459087
95	0x3d2c6419	0.042087648
96	0x3c05cc86	0.008166438
97	0x3dc0312f	0.09384381
98	0x3b914570	0.0044333264
99	0x3d856fb7	0.065154485
100	0x3c438a1b	0.011934782
101	0x3ca5506c	0.02017995
102	0xbbc50370	-0.0060123727
103	0xbb8d121f	-0.0043051387
104	0x3dc98e31	0.09841574
105	0x3da8042c	0.08203921
106	0x3db9bda2	0.09069373
107	0x3ce1d3e7	0.027566863
108	0x3c2736b1	0.010205911
109	0x3cc13b8a	0.02358796
110	0xbc1ab2b8	-0.009442024
111	0x3bf61cd2	0.00751076
112	0xbbf6967c	-0.0075252634
113	0xbd0c98ca	-0.0343254
114	0xbcadf3ea	-0.021234471
115	0xbc540052	-0.0129395295
116	0xbbfe04d8	-0.0077520423
117	0x3c5b64fd	0.013390777
118	0x3b1f4c2c	0.0024306877
119	0x3d4da931	0.05021018
120	0xba2dd720	-0.00066314824
121	0x3c7c954a	0.015416453
122	0xbc35cc2d	-0.011096043
123	0xba82a841	-0.0009968356
124	0xbc6ba6f6	-0.014383068
125	0x3d11ffb9	0.035644267
126	0x3d89b997	0.067248516
127	0x3d5ebb64	0.05437793

fc2.weight f4 [64, 128]
0	0x3cc4c3f6	0.024019223
1	0x3d5f7277	0.05455252
2	0xbc8b1ec7	-0.01698245
3	0x3c102dd1	0.008799986
4	0xbd8716ab	-0.065961204
5	0x3d6f905f	0.058487292
6	0xbd005d46	-0.031338952
7	0x3dc76102	0.097353
8	0xbdb38fc0	-0.087676525
9	0xbc9684c6	-0.018373858
10	0x3d67c681	0.056585792
11	0xbd60cb99	-0.054881666
12	0xbd009488	-0.03139165
13	0x3da9bcd4	0.08287969
14	0xbb4fca04	-0.0031706104
15	0x3da89fda	0.08233614
16	0x3da1697c	0.07881448
17	0x3b7649a9	0.0037580526
18	0xbd885739	-0.066572614
19	0x3d9375df	0.072002165
20	0x3d62f13c	0.05540584
21	0xbc74f2e4	-0.014950488
22	0xbc6b50aa	-0.0143624935
23	0x3c772961	0.015085549
24	0x3d880e94	0.066434056
25	0xbd13e081	-0.036102775
26	0xbdda7c6e	-0.10668264
27	0x3da1fa2d	0.07909045
28	0xbd334c8e	-0.04377418
29	0xbd97cc79	-0.07412047
30	0x3d9e606b	0.07733234
31	0xbd132998	-0.03592834
32	0xbd8f5ecd	-0.07000504
33	0x3c82b63f	0.015956042
34	0x3d51e786	0.05124619
35	0xbcb5fc9b	-0.022215178
36	0x3d62d611	0.05537993
37	0xbd886681	-0.06660176
38	0x3dbb196d	0.09135709
39	0x3da6a361	0.08136631
40	0xbcb5da17	-0.02219872
41	0x3d88de45	0.066830195
42	0xbcb46c66	-0.022024345
43	0xbb97f705	-0.0046376013
44	0x3d34ed3a	0.04417155
45	0xbc94bc0d	-0.018156076
46	0x3d237e55	0.0399154
47	0x3dff4966	0.124651715
48	0xbd7a6e9d	-0.061140645
49	0xbcebd3fb	-0.028787604
50	0xbd5b75f2	-0.05357928
51	0xbc9609dc	-0.018315248
52	0xbcce40d6	-0.0251774
53	0xbd8ccca1	-0.06874967
54	0xbd8b507d	-0.06802461
55	0x3c95a798	0.018268391
56	0x3d5c7f3d	0.05383228
57	0xbd9adce9	-0.075616665
58	0x3da32a80	0.079670906
59	0x3c9a44de	0.018831667
60	0x3db1a46c	0.08673939
61	0x3d7a8417	0.061161127
62	0x3d2e38e8	0.04253474
63	0xbd90d5b2	-0.07072009
64	0xbd8d012b	-0.068849884
65	0x3d9792ee	0.074010715
66	0x3ca4445a	0.020052124
67	0xbd19542e	-0.037433796
68	0xbc15d7ff	-0.009145736
69	0xbbe45f18	-0.006969344
70	0x3d19f89c	0.037590608
71	0x3d28044f	0.041019734
72	0x3d833917	0.064073734
73	0xbd2c2bd5	-0.04203399
74	0xbd1d0240	-0.038332224
75	0xbce67304	-0.028131016
76	0x3d6e0045	0.058105726
77	0x3da374d0	0.079812646
78	0x3db3a462	0.08771588
79	0xbd58648e	-0.05283027
80	0x3d44128c	0.04786925
81	0x3d00689f	0.031349774
82	0x3d23c9b9	0.0399873
83	0xbd6beca2	-0.057598718
84	0x3d078cdc	0.03309332
85	0xbc363c03	-0.011122706
86	0x3d610c7c	0.054943547
87	0xbd9dccd9	-0.07705087
88	0x3d9cb08d	0.07650862
89	0x3da645b7	0.08118766
90	0x3d73ad23	0.059491288
91	0x3de4ec45	0.11177877
92	0xbbf0d583	-0.0073496713
93	0xbcc6d1b1	-0.02426991
94	0x3da63f5e	0.08117555
95	0xbd9b01cb	-0.07568701
96	0x3d16e4b1	0.03683919
97	0x3dcdad11	0.100427754
98	0xbbb1bbcf	-0.005424
99	0x3df769eb	0.12080749
100	0x3cf32423	0.029680317
101	0xbd72eeb3	-0.059309673
102	0xbd2b6a1c	-0.04184924
103	0x3d8fac6d	0.070153095
104	0xbd346a31	-0.044046585
105	0xbcb4b974	-0.022061087
106	0x3cf02076	0.029312354
107	0x3debfc91	0.115227826
108	0xba6fae0b	-0.0009143061
109	0x3dcb0f50	0.0991503
110	0xb8ef2e3b	-0.00011405019
111	0x3dba1494	0.09085956
112	0xbd9aec06	-0.07564549
113	0xbd96a00f	-0.073547475
114	0x3c2ac81e	0.010423688
115	0x3dc4bec3	0.096066974
116	0x3e0172f5	0.12641509
117	0x3d3c8b27	0.046031144
118	0xbd2a6342	-0.041598566
119	0x3d92ab49	0.07161576
120	0x3ac3981d	0.0014922653
121	0x3dad3adf	0.084584944
122	0xbd225116	-0.03962811
123	0x3d7d639a	0.061862566
124	0x3d3c8e98	0.046034425
125	0x3d312bfc	0.043254837
126	0x3d2d6ee3	0.042342078
127	0xbd7d0381	-0.06177092
128	0x3d952c34	0.07283822
129	0xbd53431e	-0.05157768
130	0x3d51f1b9	0.051255915
131	0xbd06ed54	-0.032941177
132	0xbcdd8787	-0.027042164
133	0xbd8a234c	-0.067450136
134	0x3e24eaa5	0.16105135
135	0x3b86a7b5	0.0041093477
136	0xbac1eb86	-0.0014794923
137	0x3aedf229	0.0018153834
138	0xbd30c11a	-0.043152906
139	0x3d84bfc9	0.064818926
140	0x3d297af3	0.04137702
141	0x3dc52061	0.096253164
142	0x3dde67f3	0.108596705
143	0x3d29d863	0.041466128
144	0xbdb25583	-0.08707716
145	0x3d831782	0.06400968
146	0xbda28736	-0.07935946
147	0xbd979f06	-0.07403378
148	0x3d803c09	0.06261451
149	0xbc97bfd4	-0.018524088
150	0x3d43931f	0.047747727
151	0xbd577ff1	-0.05261225
152	0xbda1db84	-0.079031974
153	0xbc15abb1	-0.009135173
154	0x3d4b8ba5	0.049693722
155	0xbd398060	-0.045288444
156	0xbd8eab42	-0.069662586
157	0x3a87ee2c	0.0010370663
158	0xbdc99301	-0.09842492
159	0x3d8b07f3	0.067886256
160	0x3bf8ea33	0.007596278
161	0xbdabca93	-0.08388247
162	0x3c7cb52d	0.015424055
163	0xbdae7615	-0.08518616
164	0xbd0a26bf	-0.033728357
165	0xbd3fe55a	-0.046849586
166	0xbd4008fa	-0.04688356
167	0x3d55df34	0.052214816
168	0x3e1320cb	0.14367978
169	0xbc9639d1	-0.018338116
170	0xbd30ed1b	-0.04319487
171	0xbda804c7	-0.08204036
172	0xbd3ef80a	-0.046623267
173	0x3d9ea5e6	0.07746486
174	0x3bfba1bd	0.007679193
175	0xbd06aae3	-0.032877814
176	0x3d99017c	0.07470986
177	0xbd8391eb	-0.06424316
178	0xbdcfaffa	-0.10140987
179	0x3c8e26b1	0.017352434
180	0x3d30dcd7	0.04317936
181	0x3d2f174c	0.042746827
182	0x3d3deed4	0.046370342
183	0x3d45faae	0.04833477
184	0x3d402667	0.046911623
185	0x3d1b5447	0.03792217
186	0x3d8a4274	0.06750956
187	0xbd525d8d	-0.05135875
188	0xbd9b08d4	-0.07570043
189	0xbd431a5d	-0.047632564
190	0x3c5b39a0	0.013380438
191	0xbd20b75f	-0.039237376
192	0xbd457b5f	-0.04821336
193	0x3db65fff	0.089050286
194	0x3c905b46	0.017621648
195	0xbcf33a43	-0.029690867
196	0xbda053dd	-0.07828496
197	0xbdad8106	-0.08471875
198	0x3d8da45a	0.06916113
199	0xbccd684f	-0.025074152
200	0x3d4d7edc	0.05016981
201	0x3d9e65c3	0.07734253
202	0xbc2a138f	-0.01038064
203	0x3d4df1bc	0.050279364
204	0xbd1c3ecc	-0.038145825
205	0x3d87dfe8	0.066345036
206	0x3d930594	0.07178798
207	0xbd90327c	-0.07040879
208	0x3dabf14d	0.08395634
209	0xbd614a6b	-0.05500261
210	0x3d1779ca	0.03698138
211	0xbda7004c	-0.081543535
212	0xbd776c01	-0.060405735
213	0x3d4b8762	0.049689658
214	0x3cf0f0f3	0.029411769
215	0xbcbca400	-0.02302742
216	0x3d0de9ad	0.03464668
217	0xbd69e12f	-0.057099517
218	0xbd24b8ca	-0.04021529
219	0xbda3a33c	-0.07990119
220	0x3d9d2c34	0.07674447
221	0xbd5d5ff5	-0.05404659
222	0x3c7068eb	0.014673452
223	0xbd9559f0	-0.07292545
224	0xbd850f6a	-0.064970806
225	0x3dc6bd28	0.097040474
226	0x3de03cc8	0.10949093
227	0xbc47be84	-0.012191419
228	0xb8b8e8c9	-8.817163e-05
229	0x3be0d43f	0.006861239
230	0xbda22372	-0.07916917
231	0xbcb5cb27	-0.022191597
232	0x3cfdf32a	0.030999739
233	0x3d5a10d9	0.053238723
234	0xbc93d84b	-0.018047472
235	0x3d02e0fc	0.031952843
236	0xbd7ee904	-0.06223394
237	0x3d3f4807	0.04669955
238	0x3d3df837	0.046379294
239	0xbc843c1e	-0.016141947
240	0x3d8a4e7c	0.06753251
241	0x3d16995a	0.03676734
242	0x3d79bc65	0.060970683
243	0xbd97d256	-0.07413165
244	0xbcbb9fe8	-0.022903398
245	0x3db568ee	0.088579044
246	0x3e082fe9	0.13299526
247	0x3ccb5ff4	0.024826027
248	0x3ae54805	0.0017492777
249	0x3d9f4dbb	0.07778498
250	0x3d0391fd	0.032121647
251	0x3d3f4932	0.046700664
252	0x399e1139	0.0003014894
253	0xbdb99a2e	-0.090626106
254	0x3b0a676c	0.0021118773
255	0x3d40403b	0.046936255

fc2.bias f4 [64]
0	0xbd272a6b	-0.040811937
1	0x3ce05571	0.027384492
2	0xbbf6e1aa	-0.0075342255
3	0x3e040c38	0.12895286
4	0x3ded4762	0.11585881
5	0xbce59752	-0.028026257
6	0xbc710c88	-0.01471246
7	0xbd428fd0	-0.04750043
8	0x3d947cca	0.07250364
9	0xbd3302aa	-0.043703713
10	0xbd97760b	-0.07395562
11	0xbd58dd7d	-0.052945603
12	0x3d258fb7	0.04042026
13	0xbd781183	-0.060563575
14	0x3c0b0a09	0.008486279
15	0x3cc80a44	0.024418958
16	0xbe5f28e9	-0.2179295
17	0xbdb4d833	-0.08830299
18	0xbc18b68f	-0.009320869
19	0x3e0a4223	0.13501792
20	0xbdac7fa2	-0.084227815
21	0xbd35d46d	-0.044392038
22	0x3d7e05e2	0.06201733
23	0x3df0d225	0.11758832
24	0xbd38935a	-0.0450624
25	0x3e2341f9	0.15943135
26	0xbd7f6947	-0.06235626
27	0xbd95a4de	-0.073068365
28	0x3d339616	0.043844305
29	0x3dcc2062	0.09967114
30	0xbdb73102	-0.089448944
31	0x3da32b10	0.07967198
32	0x3e363e18	0.17797124
33	0x3e03e9dd	0.1288218
34	0x3c594cf8	0.01326298
35	0xbc872eea	-0.016501863
36	0x3d38c54d	0.045110036
37	0x3ddc9825	0.10771207
38	0x3d281c61	0.04104269
39	0x3d9595e2	0.073039785
40	0xbde16576	-0.1100568
41	0x3e4d8b62	0.20072702
42	0xbda7e712	-0.0819837
43	0x3cbb9f99	0.02290325
44	0x3d9b262f	0.07575642
45	0xbcc369e6	-0.023854207
46	0x3e5d01fd	0.2158279
47	0xbdd809cb	-0.10548743
48	0xbdb509e9	-0.08839781
49	0x3db86679	0.0900392
50	0x3d4d97c3	0.05019356
51	0xbc23440f	-0.009964957
52	0x3e1e7b46	0.15476713
53	0x3d43f349	0.047839437
54	0xbd97c6fc	-0.07411
55	0xbda5a7d5	-0.08088652
56	0x3d17e80a	0.037086524
57	0xbdbd6471	-0.09247673
58	0x3da96846	0.08271842
59	0xbda852d8	-0.08218926
60	0xbc7a7fcf	-0.015289261
61	0xbd352912	-0.04422862
62	0x3c483b57	0.012221179
63	0xbd490c4b	-0.04908399

fc3.weight f4 [32, 64]
0	0x3dc19a5e	0.09453271
1	0x3e2a707f	0.16644476
2	0xbdc0bd26	-0.09411077
3	0x3cdd3e1b	0.027007153
4	0x3e91828b	0.2841991
5	0x3d0a2ea8	0.0337359
6	0x3e2e1f7c	0.17004198
7	0xbc8e07a4	-0.017337628
8	0x3e83eb83	0.2576562
9	0xbe0a0735	-0.13479312
10	0x3e7c78de	0.24655482
11	0x3cf20ba2	0.029546563
12	0x3d2f70cc	0.04283218
13	0xbe0772cd	-0.13227387
14	0x3dd009a3	0.10158088
15	0x3e69aedd	0.22820611
16	0xbcce1c77	-0.025160057
17	0xbe3ad83f	-0.18246554
18	0xbdc6557f	-0.09684276
19	0xbdd9c8c1	-0.10633994
20	0xbe113f97	-0.14184414
21	0x3d64f8ec	0.055901453
22	0x3dca0859	0.098648734
23	0xbe59d567	-0.21272813
24	0xbd590f33	-0.05299301
25	0xbd00b93f	-0.031426664
26	0xbc1c66d0	-0.009545997
27	0xbbd6dfa1	-0.0065574204
28	0xbdd9cd9b	-0.10634919
29	0x3dcd41a1	0.10022283
30	0xbe0cb900	-0.13742447
31	0xbe1b0cbc	-0.15141577
32	0x3d376309	0.04477218
33	0xbd7394e4	-0.059468165
34	0x3c044a8a	0.008074412
35	0xbe207d4e	-0.156728
36	0x3d8335e2	0.06406762
37	0x3ee7dcdc	0.4528569
38	0xbe04b36e	-0.12959072
39	0x3dcec44f	0.10096037
40	0x3d29c659	0.041448925
41	0x3e35cb69	0.17753376
42	0x3c2db3e4	0.010601971
43	0x3c6684dc	0.014069762
44	0x3e23df2c	0.16003102
45	0x3d2e8b7b	0.042613488
46	0x3e322a03	0.17398839
47	0xbdc1cf10	-0.09463322
48	0xbe00a947	-0.12564574
49	0x3e01d55b	0.12679045
50	0xbd3717c0	-0.044700384
51	0x3c20fe2c	0.009826224
52	0x3ea7f7d8	0.32806277
53	0x3e43bb6f	0.19114469
54	0x3dbf816c	0.09350857
55	0x3df84aa8	0.121236145
56	0x3c03638a	0.008019337
57	0x3db72d23	0.08944156
58	0xbcdf8b86	-0.02728821
59	0x3e243ff0	0.16040015
60	0x3c813ec8	0.015777007
61	0x3d98dbe6	0.07463817
62	0xbd2beaf5	-0.04197212
63	0xbe3a470a	-0.18191162
64	0x3e14adef	0.14519475
65	0x3dc4839b	0.09595414
66	0x3ac6bccc	0.0015162467
67	0xbd51d8b7	-0.051232066
68	0x3da6b913	0.08140769
69	0xbdf529ee	-0.11970888
70	0x3d99463a	0.07484098
71	0x3db5f1ce	0.08884011
72	0xbe0e8161	-0.13916542
73	0xbdeb4edc	-0.114896506
74	0x3de6233a	0.11237188
75	0xbd2025e4	-0.039098635
76	0x3d9b5d60	0.07586169
77	0xbdd3cd50	-0.103418946
78	0x3d169d0a	0.036770858
79	0x3e1413a4	0.14460617
80	0xb9bf631e	-0.00036504207
81	0x3d5ce6c9	0.05393103
82	0x3cfd0e37	0.030890567
83	0x3d4e6825	0.05039229
84	0xbc589771	-0.0132197
85	0x3dd1331f	0.10214829
86	0x3d891bc0	0.06694746
87	0xbd0632c7	-0.03276327
88	0x3de92d33	0.11385574
89	0x3df6c2e2	0.1204889
90	0x3dc45f67	0.09588509
91	0xbdaaeb8f	-0.083457105
92	0xbdc06b90	-0.09395516
93	0x3d323abf	0.043513056
94	0xbd6a378d	-0.057181884
95	0xbc26244b	-0.010140489
96	0xbd7288ca	-0.059212483
97	0xbddbaa55	-0.10725848
98	0xbd8735fe	-0.06602095
99	0xbdfbffd2	-0.12304653
100	0x3d2e96cb	0.042624276
101	0x3e526496	0.20546183
102	0xbcd43a23	-0.025906628
103	0xbc7f1a8b	-0.015570293
104	0x3dfaacae	0.12239967
105	0xbcdd3d88	-0.02700688
106	0xbd711a39	-0.0588629
107	0x3ce99ec0	0.02851808
108	0x3c88dfaa	0.016708214
109	0x3cf972e8	0.0304503
110	0xbd5194b4	-0.051167205
111	0x3c5ea0ec	0.013588171
112	0x3d6f3f2d	0.05840986
113	0x3e2395ea	0.15975156
114	0xbe110fce	-0.14166185
115	0x3dd1b720	0.102400064
116	0x3e3796e2	0.17928651
117	0x3d9f054b	0.077646814
118	0xbcee4ce1	-0.029089393
119	0x3d71cebf	0.05903506
120	0xbdbf6397	-0.09345167
121	0x3d34a0b0	0.044098556
122	0x3dcf478f	0.101210706
123	0x3e2a8796	0.16653284
124	0x3d5c57dc	0.053794727
125	0xbca0079e	-0.019534882
126	0x3dd4bad8	0.103872
127	0x3e0d3c3b	0.13792507
128	0xbe0a9dc0	-0.1353674
129	0xbdf05208	-0.11734396
130	0xbe00d11a	-0.12579766
131	0x3df97c67	0.12181931
132	0xbe48f1ae	-0.19623443
133	0x3da3f3e3	0.08005502
134	0x3e59113b	0.21197979
135	0x3c7f8263	0.015595051
136	0x3d2758b3	0.040856075
137	0x3e73a8e2	0.23794892
138	0x3df102ba	0.11768098
139	0x3c9ad92f	0.01890239
140	0xbdc71f0b	-0.09722718
141	0x3e998026	0.29980582
142	0xbe0edcbf	-0.13951395
143	0xbe114b58	-0.14188898
144	0x3cb9d9f7	0.022686942
145	0x3d6af083	0.057358276
146	0xbd191a77	-0.037378754
147	0x3dbcbb20	0.09215379
148	0x3dba2544	0.09089139
149	0xbd434add	-0.047678817
150	0xbd06268b	-0.0327516
151	0x3ebac702	0.36479956
152	0x3dc5bcd7	0.09655159
153	0x3e16ab77	0.14713846
154	0xbbb99a6e	-0.0056641614
155	0x3de5f3b8	0.11228126
156	0x3e0939d1	0.13400961
157	0xbdfda9b6	-0.123858854
158	0x3df47f0a	0.11938293
159	0x3db833ca	0.08994253
160	0xbe21ed91	-0.1581328
161	0x3e450cee	0.19243214
162	0xbd8cd928	-0.06877357
163	0x3e8380df	0.25684258
164	0xbdf7d28a	-0.12100704
165	0xbdae4149	-0.08508546
166	0x3de03a2a	0.10948594
167	0xbddcdd7b	-0.107844315
168	0x3d8a812f	0.06762921
169	0xbe249016	-0.1607059
170	0x3da872e1	0.082250364
171	0x3de42161	0.11139179
172	0xbd7d640f	-0.061863
173	0x3ddba7b5	0.10725347
174	0xbde34806	-0.11097722
175	0xbe200ccf	-0.15629886
176	0xbd3f9f87	-0.046782997
177	0x3e19f66b	0.15035407
178	0x3cc9c3e3	0.024629539
179	0xbdfe4c60	-0.12416911
180	0x3d75f8c6	0.060051702
181	0x3e52533b	0.20539562
182	0xbd42e253	-0.04757912
183	0xbdaa940f	-0.08329021
184	0x3e8df2e9	0.27724388
185	0xbe1047a0	-0.14089823
186	0xbe003a00	-0.12522125
187	0x3b0dff57	0.0021667087
188	0xbceecc20	-0.029150069
189	0xbd7f6ea5	-0.06236138
190	0xbe15f0e5	-0.14642675
191	0x3e6780e4	0.22607762
192	0x3dfa3dbd	0.12218807
193	0xbe4084b8	-0.18800628
194	0xbdba045b	-0.09082862
195	0xbd9377b1	-0.07200564
196	0x3d7acc3c	0.06122993
197	0x3e1f56cc	0.15560454
198	0x3d4f721a	0.050645925
199	0xbdc4f6d1	-0.09617389
200	0xbd81c650	-0.06336653
201	0xbcb7fdb1	-0.022459837
202	0xbd556f1a	-0.052107908
203	0xbd099b52	-0.03359539
204	0x3e0ac659	0.13552226
205	0x3dfd6038	0.12371868
206	0xbd499cab	-0.049221676
207	0xbcf8a196	-0.030350488
208	0xbea43054	-0.3206812
209	0xbbc7ce6b	-0.006097605
210	0xbde552a6	-0.111974046
211	0x3e41dec8	0.1893264
212	0xbd4c4f80	-0.049880505
213	0x3ddd80f9	0.10815615
214	0x3d8173ab	0.0632089
215	0x3e4241e2	0.18970445
216	0xbd98f0d9	-0.07467813
217	0x3e751d4c	0.23936957
218	0xbded8d5d	-0.115992285
219	0xbd9b788a	-0.075913504
220	0x3e167fdc	0.14697212
221	0x3d6d2f20	0.05790627
222	0x3d0d1cf0	0.034451425
223	0x3e1c9c3c	0.15293974
224	0x3dfa8cdc	0.12233898
225	0x3e9b14ef	0.3028941
226	0x3e01d478	0.12678707
227	0x3c2e41b2	0.01063578
228	0x3de39dfa	0.11114116
229	0xbd16ea7f	-0.036844727
230	0x3e219fa2	0.15783551
231	0xbdc10c73	-0.094262026
232	0xbdb76ae0	-0.08955932
233	0x3db25515	0.08707634
234	0x3da973a8	0.08274013
235	0x3d4066b7	0.046972957
236	0x3e1c4bdb	0.15263312
237	0xbe54e125	-0.20789011
238	0x3e98af1e	0.29821104
239	0xbe48549d	-0.19563527
240	0x3d958178	0.07300085
241	0x3e89538a	0.26821548
242	0x3d8cddc0	0.06878233
243	0xbd707126	-0.058701657
244	0x3e8a2533	0.26981506
245	0xbccbc6f9	-0.024875151
246	0xbd80e86c	-0.06294331
247	0xbdca6eef	-0.0988444
248	0xbdf33e20	-0.11877084
249	0xbdf99e32	-0.121883765
250	0xbdc5bcbc	-0.09655139
251	0xbe6a4e82	-0.22881511
252	0xbdbf26e9	-0.093335934
253	0x3d68f2cb	0.05687217
254	0xbc1612d6	-0.009159764
255	0x3cd5b8eb	0.026089152

fc3.bias f4 [32]
0	0x3ee0ad86	0.43882388
1	0xbe80b86c	-0.25140703
2	0x3d6cdf62	0.057830222
3	0x3ea27fce	0.31738132
4	0x3e970748	0.29497743
5	0x3db52217	0.08844393
6	0xbc10b0bf	-0.008831202
7	0xbd0ba3f8	-0.03409192
8	0x3c9c4e51	0.019080313
9	0xbc53b077	-0.0129204905
10	0x3da63bb4	0.08116856
11	0x3e720934	0.23636323
12	0xbd904e0a	-0.07046135
13	0x3df0defa	0.117612794
14	0x3e18755f	0.14888524
15	0xbe1693b3	-0.1470478
16	0xbe060e6e	-0.13091442
17	0xbe165737	-0.14681707
18	0x3d1729c5	0.03690507
19	0xbe543048	-0.20721543
20	0xbcb5e81f	-0.02220541
21	0xbd0a0b00	-0.033701897
22	0x3e03602b	0.12829654
23	0x3e137997	0.14401852
24	0x3b0712f8	0.0020610671
25	0xbe02245f	-0.12709187
26	0x3b3978f6	0.0028300858
27	0xbdce4334	-0.10071412
28	0xbd8a83ec	-0.06763443
29	0xbd97b93c	-0.074083775
30	0xbe1f2323	-0.15540747
31	0xbda18392	-0.07886423

fc4.weight f4 [10, 32]
0	0xbe7414d3	-0.23836069
1	0xbe16ab93	-0.14713888
2	0x3ebbf2f0	0.36708784
3	0x3e900169	0.28126076
4	0x3e86ac88	0.26303506
5	0x3eb82555	0.35965982
6	0xbd90d0c4	-0.07071069
7	0x3e600e2b	0.21880405
8	0x3e57c4ba	0.21071139
9	0x3d37bc8a	0.04485754
10	0xbe361178	-0.17780101
11	0x3d953ac1	0.07286597
12	0xbdae277a	-0.08503623
13	0x3e67b44c	0.22627372
14	0xbe250998	-0.16116941
15	0x3e4201de	0.18946025
16	0xbe3fab28	-0.18717635
17	0xbe568828	-0.20950377
18	0x3e9c653b	0.30545983
19	0x3e309e0d	0.17247792
20	0xbe68b5dc	-0.22725624
21	0xbd649592	-0.055806704
22	0x3e1cb349	0.15302767
23	0xbd24084f	-0.040046986
24	0xbe413e90	-0.18871522
25	0xbe05eb8c	-0.13078135
26	0xbe77e669	-0.24208988
27	0x3e0cf74e	0.13766214
28	0x3e28aac0	0.16471386
29	0xbdc510bb	-0.09622332
30	0xbe361bb7	-0.1778401
31	0xbd5421bc	-0.051789984
32	0xbedda73d	-0.43291655
33	0xbe833142	-0.25623518
34	0xbda798a0	-0.08183408
35	0xbd3957ae	-0.045249633
36	0xbedfd313	-0.43715724
37	0x3d0bdb0e	0.034144454
38	0x3ed95d48	0.4245398
39	0x3eb4f1cc	0.35340726
40	0x3eb1c08c	0.34717214
41	0xbd50ae52	-0.050947495
42	0xbe955cc3	-0.29172334
43	0x3e3b6c83	0.18303113
44	0x3d5addc2	0.05343414
45	0x3e01cc56	0.12675604
46	0xbdbc9c40	-0.0920949
47	0x3e031d4c	0.12804145
48	0x3e7eda1a	0.24887887
49	0xbd131d57	-0.035916653
50	0x3e068365	0.1313606
51	0xbd6acbaf	-0.057323154
52	0x3dc6127f	0.096714966
53	0x3d3cd168	0.046098143
54	0x3f0a999c	0.5414064
55	0xbf0006e2	-0.500105
56	0x3eaa64f0	0.33280134
57	0x3e2cf54c	0.16890448
58	0x3e608857	0.2192701
59	0xbd4131d2	-0.047166653
60	0x3daee3a8	0.08539516
61	0xbda92a80	-0.08260059
62	0xbd737155	-0.059434254
63	0x3cea0493	0.028566634
64	0xbee5b236	-0.44862527
65	0xbe6ab486	-0.22920427
66	0x3e9c17ea	0.30486995
67	0xbdcdfd33	-0.100580595
68	0xbd3ba1f3	-0.045808744
69	0x3e47d609	0.19515242
70	0xbe1be8f3	-0.15225582
71	0xbd5b951e	-0.053609006
72	0xbe9b95ed	-0.30387822
73	0x3e016e29	0.12639679
74	0xbc327ea4	-0.010894451
75	0x3ceedd5e	0.02915829
76	0xbe1418fb	-0.14462654
77	0x3e012d60	0.12614965
78	0xbeaab384	-0.33340085
79	0x3e333ebd	0.17504402
80	0x3e4455e1	0.19173385
81	0x3c357672	0.011075603
82	0x3edd8161	0.4326277
83	0x3e8f2466	0.27957457
84	0x3c792106	0.015205627
85	0x3d4c26a8	0.049841553
86	0xbf1b810f	-0.607438
87	0xbdc1eb37	-0.09468692
88	0x3e58bf7a	0.21166793
89	0xbd474259	-0.04864726
90	0x3ebbb89d	0.36664286
91	0xbe2b6bac	-0.16740292
92	0x3dd74a0b	0.105121695
93	0xbddc9f29	-0.10772545
94	0xbe135d70	-0.14391112
95	0xbea2fc57	-0.31833145
96	0x3d898109	0.06714065
97	0x3d8d3aec	0.06896004
98	0x3dcce2de	0.10004209
99	0x3eb0edb8	0.34556365
100	0xbe65773d	-0.22408767
101	0xbdecaff3	-0.11556997
102	0xbe893a59	-0.26802328
103	0x3e507cfb	0.20360176
104	0x3e8bf689	0.2733653
105	0xbe087166	-0.13324508
106	0x3ea74e74	0.32677042
107	0x3eb3637e	0.35036844
108	0xbcf6c658	-0.030123875
109	0xbd8b78e5	-0.06810168
110	0xbebad6d7	-0.36492035
111	0x3e42714a	0.18988529
112	0x3e24dc07	0.16099559
113	0xbe08fe3d	-0.13378234
114	0xbe32fbd9	-0.17478885
115	0xbd493aa2	-0.049128182
116	0xbe3a3edb	-0.1818804
117	0xbdd8c311	-0.10584081
118	0x3e9b1d52	0.30295807
119	0xbe648d07	-0.22319423
120	0x3ce06f94	0.027396955
121	0x3da18d39	0.07888264
122	0x3d963f64	0.073363096
123	0x3d221689	0.039572272
124	0x3e299b0d	0.16563053
125	0xbe142cb4	-0.14470178
126	0x3e2c7992	0.1684325
127	0x3cb3d7dd	0.021953518
128	0xbd3ed5e8	-0.046590716
129	0x3e4379ca	0.19089428
130	0xbc349ba7	-0.011023439
131	0xbe83f38a	-0.25771743
132	0xbec669f9	-0.38752726
133	0xbea3ef43	-0.3201848
134	0x3c003f87	0.007827646
135	0xbe17d651	-0.14827849
136	0x3dc80421	0.097664125
137	0x3ddf5a33	0.10905876
138	0xbe36fe03	-0.17870335
139	0x3d4ba369	0.049716387
140	0xbd84a9b5	-0.064776815
141	0x3e35f6a9	0.17769875
142	0xbe351745	-0.17684658
143	0x3e981a64	0.29707634
144	0x3dee42eb	0.11633857
145	0x3d982265	0.07428435
146	0x3df8e301	0.121526726
147	0x3ea143c0	0.31497002
148	0x3ca117c5	0.019664655
149	0x3d56c548	0.052434236
150	0xbe6dcdb9	-0.23223008
151	0xbc583787	-0.0131968325
152	0x3e9ec320	0.31008244
153	0x3dcca502	0.0999241
154	0x3ed2ea43	0.41194353
155	0x3e20bd9d	0.15697332
156	0x3cad532f	0.02115783
157	0x3dde9ad6	0.10869376
158	0x3e76aec4	0.24090105
159	0xbe24b9a3	-0.1608644
160	0x3f03c6ee	0.5147542
161	0xbe2de032	-0.16980055
162	0xbe5e936a	-0.21735922
163	0x3ea4d12a	0.3219083
164	0x3f0464fb	0.51716584
165	0x3d341fd0	0.04397565
166	0x3e2a542b	0.1663367
167	0x3dac8350	0.08423483
168	0xbe729308	-0.236889
169	0xbdeceea3	-0.11568954
170	0x3e35f86b	0.17770545
171	0x3eae0b5b	0.3399304
172	0x3e29e5be	0.16591546
173	0x3d8d617d	0.0690336
174	0x3e7aed0f	0.24504493
175	0xbeb9ca00	-0.36286926
176	0xbe090cfd	-0.13383861
177	0x3e316b26	0.1732603
178	0xbe1f2b89	-0.15543951
179	0xbedaf06c	-0.42761552
180	0xbd28296e	-0.041055135
181	0xbe2566f9	-0.16152562
182	0x3dc4968f	0.09599029
183	0x3d43d3cd	0.04780941
184	0xbe053e75	-0.13012107
185	0x3e12bf06	0.14330682
186	0xbe394641	-0.18093206
187	0xbd5012a2	-0.05079902
188	0xbbaa5f9e	-0.0051993867
189	0x3dcd50ce	0.10025178
190	0xbe978755	-0.29595438
191	0x3d4433bc	0.0479009
192	0xbe33c456	-0.17555365
193	0xbe56c23d	-0.20972534
194	0x3ea97f8b	0.3310512
195	0x3e5c54a5	0.21516664
196	0x3e4a5139	0.19757546
197	0x3d8c8735	0.06861726
198	0xbd1b754e	-0.037953667
199	0xbe1b56b5	-0.15169795
200	0xbc84dfe8	-0.016220048
201	0xbe0ad6dd	-0.13558526
202	0xbd5ebbcf	-0.054378327
203	0xbd9db2d6	-0.07700126
204	0xbe31ffd6	-0.1738275
205	0x3e890b9e	0.26766676
206	0xbe1497c5	-0.1451102
207	0x3ab1e946	0.0013573549
208	0xbe13b1d5	-0.14423306
209	0xbda7dd92	-0.08196558
210	0x3e30ae00	0.17253876
211	0x3e4e7d67	0.20165025
212	0x3d4e62ad	0.050387073
213	0xbdc37d78	-0.09545416
214	0x3c5775e0	0.013150662
215	0x3d86379a	0.06553574
216	0x3e07e50c	0.13270968
217	0x3e134743	0.14382653
218	0x3e6e48a9	0.23269905
219	0xbe08225e	-0.1329436
220	0xbcfbea40	-0.030751348
221	0xbca06590	-0.019579679
222	0xbdb72d48	-0.089441836
223	0xbdc2e98c	-0.09517202
224	0x3f2f20d3	0.6840946
225	0x3e06798e	0.13132307
226	0xbf45bec3	-0.77244204
227	0xbee21bf1	-0.44161943
228	0xbdb163c0	-0.08661604
229	0xbdacbeb9	-0.08434815
230	0x3d9421e1	0.072330244
231	0x3e265e90	0.1624701
232	0xbe79c658	-0.24392068
233	0x3e0cb29a	0.13740006
234	0x3c58e76d	0.01323877
235	0xbeb711ac	-0.3575567
236	0x3da0f711	0.07859624
237	0xbc4c9e05	-0.012488847
238	0x3eecee8b	0.46275744
239	0xbe77fd86	-0.24217805
240	0xbe0d66be	-0.13808724
241	0x3e32f1e9	0.17475094
242	0xbd8ceb47	-0.06880813
243	0xbe8a2a47	-0.2698538
244	0x3e2e59c8	0.17026436
245	0x3d1a09dc	0.03760706
246	0xbe3a6e2a	-0.18206087
247	0x3e29cea1	0.16582729
248	0xbec5cb8f	-0.38631865
249	0xbcc09078	-0.023506388
250	0xbee1aedb	-0.44078717
251	0xbe174912	-0.14773968
252	0xbc670f41	-0.014102758
253	0x3dcec52e	0.10096203
254	0x3ec343d1	0.38137677
255	0x3ddb560a	0.1070977

fc4.bias f4 [10]
0	0xbdcdabb9	-0.10042519
1	0x3d659662	0.05605162
2	0x3dcff2be	0.10153721
3	0xbe104921	-0.14090396
4	0xbe6a851e	-0.22902343
5	0x3f26c582	0.65145123
6	0x3e04d7ea	0.1297299
7	0x3e002d6e	0.1251733
8	0xbe84e800	-0.25958252
9	0xbe887d00	-0.26657867
