COMP 219 Advanced Artificial Intelligence /Resilience-to-Adversarial-Attack-main/ep0.06num30epoch100batch16_16.pt (torch, 446799 bytes, 8 tensors)

fc1.weight f4 [128, 784]
000000 8d 0a e5 37 cd 85 58 38 22 98 25 38 ca 43 49 38
       2.730384e-05 5.1623025e-05 3.948075e-05 4.7985268e-05
000010 be 07 dd 38 3c a4 6f 38 c0 21 35 37 02 94 ff 37
       0.00010539543 5.7134996e-05 1.0796299e-05 3.046729e-05
000020 68 72 9e b9 2b 08 44 ba c8 91 49 bc 60 d7 06 bd
       -0.00030221348 -0.0007478024 -0.012302823 -0.03292024
000030 e4 3a 81 3c 67 76 82 3c ec 28 f1 3b 12 7b a9 3c
       0.015775152 0.0159256 0.0073596146 0.020688567
000040 5f 42 a2 ba 56 45 2c bd a5 41 0a bb 18 d6 e6 bb
       -0.0012379399 -0.04205831 -0.0021096256 -0.007044565
000050 6d 3e 06 bc 12 e0 38 38 48 07 2a 39 7d 09 ae 39
       -0.008193594 4.40777e-05 0.00016215176 0.00033194936
000060 cc 23 b0 38 df f9 9b 38 8e b5 3c 38 40 ec dc 37
       8.399002e-05 7.437518e-05 4.499178e-05 2.6336056e-05
000070 ad 28 5f 38 1f 63 b4 38 57 a4 ae 38 80 fd 74 39
       5.3205225e-05 8.6015316e-05 8.327577e-05 0.0002336409
000080 8e 2c 83 39 7d d3 de 3a 78 07 80 3a f3 da fb ba
       0.00025019463 0.0017000284 0.0009767851 -0.0019215032
000090 79 e4 0a bb e6 14 23 bb 28 30 d5 3c da a4 9a bc
       -0.002119331 -0.0024884283 0.02602394 -0.018877435
0000a0 b2 a8 07 ba a9 79 1e bd 6a 62 25 bc 52 b9 4f bd
       -0.0005174979 -0.038690243 -0.0100942645 -0.050713845
0000b0 19 c3 18 bd d6 15 7f 3d e3 da 70 3c d9 fc 43 bd
       -0.037295435 0.062276684 0.014700624 -0.047848556
0000c0 3e ab 3a bd c3 24 98 bb db f6 3b 3d 12 65 3f 3d
       -0.045573466 -0.004643054 0.045889717 0.046727248
0000d0 22 ce 42 3c 6b b0 d6 39 23 92 42 39 d6 91 29 38
       0.011889966 0.00040948702 0.00018555722 4.042856e-05
0000e0 a6 10 5f 38 1d 35 4a 38 86 84 e7 38 2c d7 ce 39
       5.318285e-05 4.821002e-05 0.00011039623 0.00039451697
0000f0 20 f1 1a 3a 19 3b 58 3a d4 8c 91 bc a4 96 9a bd
       0.0005910564 0.00082485523 -0.017767347 -0.07548264
000100 a1 35 77 3c 0b 0d 09 bc 63 4f 0e bc fd d1 af bb
       0.01508847 -0.008364926 -0.008685919 -0.0053656087
000110 e1 b3 90 bb 97 f4 16 bd 69 f1 30 bc c3 e1 9d bb
       -0.0044159745 -0.036854353 -0.010799744 -0.0048181727
000120 e5 2c ac bb ee 7f 46 bc 3d 92 d8 b9 1b 15 06 3c
       -0.0052543753 -0.012115462 -0.00041307686 0.008183743
000130 c7 61 8d bd 68 13 ab bd 61 1e 9d ba df 3b 4f 3d
       -0.06903415 -0.08353311 -0.0011987203 0.050594207
000140 e6 92 56 3d e9 19 8f 3a 0b da 50 39 26 4f c8 38
       0.052386187 0.0010917756 0.00019917653 9.551486e-05
000150 c1 e8 aa 38 70 6e e9 38 32 09 ce 38 7d df 9e 39
       8.1495855e-05 0.000111308764 9.824558e-05 0.0003030262
000160 e0 b6 77 39 35 a7 04 3c ee 9e a2 3a 24 ad 4c 3d
       0.00023623882 0.008096506 0.0012406984 0.049969807
000170 31 04 9f 3d 41 34 e6 ba 74 64 cb bb dd 92 9d bb
       0.07764471 -0.001756318 -0.0062070433 -0.0048087672
000180 1d d5 e7 ba d4 5c 0e bd 8b b0 86 bc 7d 80 d3 bb
       -0.0017687414 -0.034756497 -0.016441604 -0.006454526
000190 04 67 ee ba d0 be 4e bb 49 68 b0 ba 6c e3 6e 3b
       -0.001818866 -0.0031546839 -0.0013458814 0.0036451472
0001a0 ee 0f 24 3c 07 98 bb bc c3 27 bd bc 25 b2 1e ba
       0.010013564 -0.02289964 -0.023090249 -0.0006053767
0001b0 7c 05 50 3d 98 47 6f 3d bf df 1d 39 4b 06 be 38
       0.05078648 0.058417886 0.00015056039 9.061078e-05
0001c0 23 56 6c 38 f2 cb 00 39 18 b7 19 39 6b fa ad 38
       5.6347006e-05 0.00012283007 0.00014659425 8.295927e-05
0001d0 04 ca 6d 39 a3 c3 0c 3d 06 8d db 3c 3f 02 8a 3c
       0.00022677338 0.03436626 0.026800644 0.016846774
0001e0 df e6 fd 3c 9e 25 53 3b 50 d6 c4 3a 28 0a ef bc
       0.030993877 0.0032218467 0.0015017483 -0.029179648
0001f0 11 f3 22 bb 9d 95 de bc 0b 2c 1b bc 76 39 35 bc
       -0.0024864117 -0.02717095 -0.00947095 -0.011061063
000200 98 cd aa bb 16 7e 51 3b 94 28 a6 39 0a 3e 91 3b
       -0.005212497 0.0031966022 0.0003169222 0.0044324445
000210 36 4b c5 3b db e7 5d 3c a2 30 3d bb 88 e6 8f 3c
       0.0060209287 0.013544048 -0.0028868099 0.01756598
000220 c0 d5 33 3b 3f 4a 52 3d 43 e9 14 39 25 bd ff 38
       0.0027440637 0.051340338 0.00014201277 0.000121945784
000230 05 f4 0f 38 0c bc b0 38 7c 4f be 37 81 5f 34 b8
       3.4321118e-05 8.4273604e-05 2.2686778e-05 -4.300429e-05
000240 b4 0f 0a bc ad a5 c0 3c ae 5d 3b 3c 80 cc 29 3c
       -0.0084265955 0.0235165 0.011435909 0.010363698
000250 98 8b 12 3c 87 93 a5 bb c1 69 07 bc 80 e1 81 bc
       0.008944415 -0.005052987 -0.00826496 -0.015854597
000260 e0 f3 4a bb ce 80 9a bb 98 33 97 bc 3c e5 c9 bc
       -0.0030968115 -0.0047150617 -0.018457219 -0.02464544
000270 a9 8f 7b bb 49 04 3c 3b be 96 b9 ba 55 23 c2 3b
       -0.0038385189 0.0028689078 -0.0014159305 0.005924622
000280 4c d7 91 3b c6 91 16 bc 69 ca 01 bd ef c6 a9 3c
       0.004450714 -0.0091900285 -0.031687174 0.020724742
000290 d4 e9 8c bc 2e 9f 02 3d 8e 3b b8 b9 10 b4 b2 b4
       -0.017201342 0.031890087 -0.00035139587 -3.3286096e-07
0002a0 e9 3c 83 37 b2 a9 8e 38 a6 02 c7 39 3b a4 31 38
       1.564478e-05 6.802696e-05 0.0003795821 4.235304e-05
0002b0 2b 0c 04 bb 96 ee fd 3c 0d 74 cd 3b c1 5e 7d 3c
       -0.0020148854 0.030997556 0.006269938 0.015464486
0002c0 96 2b 15 3c 4f 0f 04 bd c9 cc 05 bc 12 45 09 ba
       0.00910463 -0.032241162 -0.0081665 -0.00052364275
0002d0 4f 42 64 3a 20 97 89 3a 19 46 ba bc f5 63 86 bb
       0.00087073905 0.0010497309 -0.022738503 -0.0041012713
0002e0 73 7e 85 3a 29 8a 21 3c 58 82 05 3c fc 8a 70 3c
       0.001018478 0.0098596 0.008148752 0.014681574
0002f0 0f 51 c5 ba f4 b6 77 bc cc aa 84 3b c0 1a 58 3c
       -0.0015054065 -0.015119303 0.004048681 0.013189971
000300 68 cb 15 bb 58 81 f8 3c c9 41 9a 3c 89 fd d3 38
       -0.0022856835 0.030335113 0.018830197 0.00010108489
000310 54 58 41 38 56 88 9b 39 15 18 6d 3a a3 a0 9b 3a
       4.6097048e-05 0.00029665482 0.0009044421 0.0011873435
000320 91 95 0b 3d 66 31 32 3c b3 c7 5a bb 90 dd 99 3c
       0.034078185 0.010876035 -0.003338319 0.018782407
000330 2a 49 9c 3d 02 5c 8f bc 65 fe 21 bb dd e3 04 bc
       0.076311424 -0.017499927 -0.0024718281 -0.008110967
000340 a5 9c 03 3c 84 9d 4f 3a 47 26 d1 3a c2 c9 95 3c
       0.008032952 0.0007919895 0.0015956842 0.018284682
000350 8d c9 b0 3b 32 fe 25 3c 36 53 94 3d 7e 84 1c 3e
       0.0053951205 0.010131406 0.07242434 0.15284917
000360 ec a7 bf 3c 59 ab 9e 39 82 57 60 3c 05 08 81 3c
       0.023395501 0.00030263772 0.0136927385 0.015750894
000370 f3 5a 4b bd 3c 7a f9 bc 9f 4b 24 bc 8c 2b 82 37
       -0.049647283 -0.030453794 -0.010027795 1.5517486e-05
000380 5e df d5 37 da 5a c4 39 fc 9a 18 3a 65 a5 13 3c
       2.5495592e-05 0.00037451723 0.00058214343 0.009011601
000390 d4 b0 fc 3c 4f 32 32 3d 8d 3f dd bc cf 53 97 3c
       0.030846037 0.04350501 -0.027007842 0.01847258
0003a0 a1 41 a1 3d d8 7d 92 bc 32 de 27 bb 7c 30 6e 3c
       0.07873846 -0.017882273 -0.0025614616 0.014537927
0003b0 47 ae 3d 3c 76 42 ce bb 23 75 33 bb 02 d0 d2 bb
       0.0115771955 -0.006294544 -0.0027383051 -0.006433488
0003c0 e8 4a 25 ba d6 54 b4 3c 79 7d 41 3c 0d 48 a9 3d
       -0.00063054124 0.02201311 0.0118097 0.08265696
0003d0 da 32 4c 3d 53 8d d0 3c 11 df 70 3b 84 79 9e bc
       0.049853183 0.025458014 0.0036754052 -0.019345053
0003e0 b6 1a 68 bd e5 4c 51 3c a2 04 52 3c bc 42 0d b9
       -0.0566661 0.012774681 0.012818487 -0.00013471668
0003f0 86 bd 5e 37 f4 b2 ed 39 2b ec d3 39 39 ef 6b bc
       1.3276358e-05 0.00045337493 0.00040421015 -0.014400297

fc1.bias f4 [128]
000000 fe ec a0 bd f7 ce 4a bc 42 75 ef 39 ce 4d f1 bb
       -0.07857703 -0.012378446 0.00045672996 -0.0073640114
000010 bd ec b8 bc 8c b4 03 3f ca 5a 59 be 0e 9c 48 3e
       -0.022573823 0.5144737 -0.2122604 0.1959078
000020 f5 83 85 3e ff 68 19 3f 88 76 88 3b a5 f9 70 3c
       0.26077238 0.59925836 0.0041645207 0.014707957
000030 04 6a c7 3e 92 4a 53 3e 70 2b 8a 3e 7d 62 76 be
       0.3894807 0.20633915 0.26986265 -0.24061008
000040 ba 00 80 3e 90 8c 8c 3d bb a8 3b 3e 98 98 f4 bd
       0.25000554 0.06862748 0.18326084 -0.119431674
000050 b3 91 85 3f 60 b4 71 be 7f ce d4 bc 6a dc 1b be
       1.0435089 -0.23603964 -0.025977371 -0.152208
000060 9b 0f c3 3c 8e 95 05 bb 45 7a a0 bd 8c 3c ae bc
       0.023811152 -0.002038333 -0.07835821 -0.021269105
000070 46 1f 76 3c 92 5e aa bc 47 4c ba be bb 65 5a 3e
       0.015022105 -0.020797048 -0.3638632 0.2132787
000080 2b d9 10 3e e8 03 6a 3d ea 3f d5 bc d1 d5 4f 3b
       0.14145343 0.05713263 -0.026031453 0.0031713138
000090 f9 5b 83 be c2 89 c8 bc 26 f1 18 3f 78 f1 3c 3e
       -0.25656107 -0.02447975 0.59742963 0.18451488
0000a0 9a fb cc 3e f8 b9 93 3c 33 5a be 3e f1 13 86 be
       0.40035707 0.018033013 0.37178192 -0.2618709
0000b0 cf e9 17 3f 72 06 01 3c e1 fa 0c 3e 14 23 0f be
       0.5934114 0.007875072 0.13767578 -0.13978225
0000c0 7c 1e d5 3e f0 24 60 be f2 86 1f 3e 6b 29 95 3d
       0.4162482 -0.2188909 0.15578821 0.072832905
0000d0 fb 64 98 be 98 ed b0 39 e3 00 b2 be db be 36 bd
       -0.29764542 0.00033746357 -0.34766302 -0.044615608
0000e0 bb 93 b5 3e 11 65 8f bc 67 1f 2a 3e 0a 04 36 bc
       0.35464272 -0.017504247 0.16613542 -0.011109361
0000f0 64 b3 fa 3e cb db 87 3e f0 39 6f 3b 26 7f a4 3e
       0.4896499 0.26534876 0.003650304 0.32128257
000100 ae b7 4d 3b c2 b0 05 3e ce 62 d8 bc 0f cd 09 3e
       0.003139 0.13055709 -0.026414301 0.1345713
000110 e5 49 77 3d cd 40 16 be 29 a2 33 3e 72 d1 1c 3e
       0.060373206 -0.14673157 0.17542328 0.15314272
000120 c5 84 0e bd d6 c1 94 bc 26 9a 39 3c 55 ab 13 bd
       -0.034794588 -0.018158834 0.011328256 -0.036052067
000130 8b d9 dd 3e 3e 84 23 be a2 a1 a1 bc 67 a2 46 3a
       0.43330035 -0.15968415 -0.019730393 0.00075773004
000140 1d 06 94 3d 80 1f 88 bd cc c5 3f ba 7c b9 1b bd
       0.072277285 -0.06646633 -0.0007315546 -0.03801869
000150 5a b4 c1 3e ab 20 90 3e ce 93 b7 bb 7a d0 9c 3d
       0.3783291 0.28149924 -0.0056023365 0.07656951
000160 0b 49 f5 3d 99 f1 17 be 08 98 31 3d 89 0c e2 3e
       0.119768225 -0.14838256 0.04335788 0.4415019
000170 3c 31 21 be b3 1e 4c be 5e 67 3a bd f8 90 6f 3e
       -0.15741438 -0.19933586 -0.045508735 0.23395145
000180 eb 1b 5d 3d dd ec 17 3f c8 46 e2 bd 57 be a8 3d
       0.053981703 0.593458 -0.11048657 0.082394294
000190 cc 74 3a 3f 13 cd 75 bd ab 87 4f bd 35 b3 86 bc
       0.7283447 -0.060010027 -0.050666492 -0.016442874
0001a0 67 68 7d 3c 8e 76 21 3e e5 55 89 3d 86 fb 1c 3d
       0.015466786 0.15767881 0.06705836 0.03832581
0001b0 19 6f fd 3d 95 d4 93 bb 82 dd c9 bc c1 97 85 3d
       0.12374706 -0.0045114257 -0.024641756 0.065230854
0001c0 ed 68 e8 bd 37 83 b5 3e ab 4f e5 bc ac 70 3b be
       -0.11348138 0.3545167 -0.02799209 -0.183047
0001d0 0b c0 44 bd 1e 09 ea bb 3a 84 f0 bc 6c ad 6a 3f
       -0.04803471 -0.0071422 -0.029359926 0.9167087
0001e0 7c fd de 3e e9 30 ea 3c dc 0b 28 be c9 d2 58 be
       0.43552768 0.028587775 -0.16410774 -0.21174158
0001f0 31 ba 99 bc 61 83 0d 3e 08 d8 43 3e 5a 47 a7 bc
       -0.01876554 0.13819648 0.19125378 -0.020419765

fc2.weight f4 [64, 128]
000000 40 8c 3f bc 13 15 5c 3d fa ff c2 bc 1f 9c 0c 3c
       -0.011691153 0.053731035 -0.0238037 0.008582144
000010 35 26 89 bd e7 9b 09 3d 84 bd fa be 4b 2a 63 be
       -0.066967405 0.033595946 -0.48972714 -0.22184102
000020 64 6f cc bd f7 b6 3b be fe 7c 67 3d 3e 1c 7f bd
       -0.099821836 -0.18331514 0.056515686 -0.062282793
000030 6a 36 95 3c d3 63 04 3e 31 e0 45 3d 4a e6 05 3d
       0.018214423 0.12928705 0.04830951 0.032690324
000040 cb 61 b8 3d 8a f4 d5 bc 4a 53 fe 3c 65 5c 23 3e
       0.090030275 -0.026117582 0.031045575 0.15953214
000050 fd 8f 2a bd 9a c7 1f bd f5 2c c8 bc 05 4f d2 bc
       -0.041641224 -0.039008714 -0.0244355 -0.025672445
000060 94 40 87 3d 84 74 12 bd 4a 72 1e be c7 52 9f 3d
       0.06604114 -0.03575565 -0.15473285 0.077794604
000070 ca 5e 23 be c3 3d 97 bd fc 89 65 bf f2 76 ff bc
       -0.15954128 -0.07384827 -0.8966367 -0.031184647
000080 4c 21 88 bc 47 80 23 3e b2 ce 47 3d d8 c1 a3 bc
       -0.01661744 0.15966903 0.048781104 -0.019989893
000090 90 2f 41 3a 7b d2 90 bd 3f 24 ab bc 07 0a 3e 3e
       0.0007369453 -0.07071396 -0.020891307 0.18558513
0000a0 8e e1 c6 bd 39 19 cd 3d 5b 20 71 bd 40 6a 95 bd
       -0.0971099 0.100145765 -0.058868747 -0.07295656
0000b0 d2 b6 86 be 9d ee 69 bd c3 ae 3c 3b ef 69 82 3d
       -0.26311356 -0.057112325 0.002879069 0.063678615
0000c0 ec 07 96 bd 5a 23 06 bc fa 95 cb bc 63 5f b5 be
       -0.0732573 -0.008187139 -0.024851788 -0.35424337
0000d0 d5 a2 19 bc 00 f1 8c bd 5e 7a 0f bd 93 c9 82 bd
       -0.009377201 -0.068819046 -0.035028808 -0.063861035
0000e0 7f 52 94 bc 4c 4d 59 bd e0 ac d6 3b 32 42 c0 bc
       -0.018105743 -0.05305223 0.00655137 -0.023469064
0000f0 a4 8f e1 bb 8d df e1 3d f9 e8 2c 3d 9b 45 95 bd
       -0.0068835784 0.11028967 0.042214368 -0.07288667
000100 e1 de 91 bd 65 f4 ec 3e 6d 14 8c 3c ee c4 2e be
       -0.07122589 0.46280208 0.017099584 -0.1706731
000110 ac 46 51 3d 10 82 47 3e 1d b4 0c 3e b9 59 c0 bd
       0.05109279 0.19483209 0.13740583 -0.09392113
000120 b9 2f cf 3d 07 c4 3d bd 6b c1 22 bd 43 fc e2 3a
       0.10116524 -0.046329524 -0.03973524 0.0017317611
000130 30 5c 86 bd 74 39 25 3d 31 1e b2 3d 4d 8c d2 bd
       -0.06560552 0.040337995 0.08697165 -0.102806665
000140 65 69 da bc 16 c1 9a 3c 22 dc df 3d 17 43 15 be
       -0.026661584 0.018890899 0.10930659 -0.14576374
000150 6d d9 cf bd dd 2a d5 bd af 7f 01 3c 3c bc ca bd
       -0.101488926 -0.10408566 0.007903977 -0.09899184
000160 6a e6 54 3e 81 66 d0 bd f1 eb d9 3c 13 fb b8 bd
       0.20791021 -0.10175801 0.026601763 -0.090322636
000170 38 40 03 bd 96 02 3d be fb 94 a9 3d 96 8c f9 bc
       -0.032043666 -0.18458018 0.08280369 -0.030462544
000180 18 63 df 3c a2 a0 5b 3e 02 94 f7 3c 1f 6f 5f be
       0.027268931 0.21447995 0.030221943 -0.21819733
000190 20 f2 16 3e 48 92 67 be 71 05 09 ba 3f 55 8e 3d
       0.14740801 -0.22614396 -0.0005226946 0.06949853
0001a0 cd 2b 26 bd 6c 16 af bd 25 58 3c bd cf f7 b8 bd
       -0.040569115 -0.085491985 -0.0459825 -0.09031641
0001b0 eb ca c6 bb c8 1d a1 3d 44 bb b2 39 d6 68 a1 bd
       -0.00606667 0.078670084 0.0003409033 -0.07881324
0001c0 ac fd 47 be ce b6 20 3c 50 86 27 3c 62 d0 20 3d
       -0.19530362 0.009809209 0.010224894 0.03926123
0001d0 50 5c 7a 3e e8 da b2 3c 2c a2 13 bd 90 87 51 bf
       0.24449277 0.021832898 -0.03604333 -0.81847477
0001e0 8f 3b 07 3d 40 71 99 3d 5e c0 a2 bd 4e 39 37 bd
       0.033015784 0.07492304 -0.079468474 -0.044732384
0001f0 51 43 3c 3d 5a 7c e6 bb 77 58 31 bd a0 0f ac bd
       0.045962635 -0.007033867 -0.043297257 -0.08401418
000200 74 27 97 3d e4 cc 4e bd da 7b 78 3d 62 fa fd bc
       0.07380572 -0.050488368 0.06066499 -0.03100318
000210 86 13 05 bd 6a 1e ac be 1f 69 f7 3d ff 16 86 3d
       -0.032489322 -0.33616954 0.12080597 0.06547355
000220 e3 11 d5 bc f4 7a d1 3c 07 8a d9 bc 86 c6 3e 3e
       -0.026009506 0.025571324 -0.026555074 0.18630418
000230 d3 e4 2b 3c df 9c 36 bd f2 ea 31 3e e9 01 c5 bd
       0.010491568 -0.044583198 0.17374781 -0.09619505
000240 24 5a 0b be b8 5a 86 3e 64 7e 00 be 8e 4c 6b be
       -0.13608605 0.26241088 -0.12548214 -0.22978422
000250 a0 7d 41 3d 8d 33 c3 bd 92 8a 1e 3d de 36 22 bc
       0.047238946 -0.09531317 0.03870637 -0.009900777
000260 fb 63 a1 bd 30 46 ed bb 15 67 f7 3c 90 26 f5 bc
       -0.07880398 -0.007241033 0.03020052 -0.029925615
000270 dc 89 bb bd b7 5b 1e bb a9 83 74 bd a5 62 bd 3d
       -0.09157154 -0.0024163553 -0.059695873 0.092473306
000280 f0 b3 48 be 28 86 0b be 33 d7 9c 3c d4 df 70 bd
       -0.1959989 -0.13625395 0.019145584 -0.05880721
000290 9b 00 0d bd de 57 21 bd d4 62 e5 3c ee 59 b7 3d
       -0.034424406 -0.039390437 0.028001226 0.089526996
0002a0 d5 e8 38 3e c5 dd c0 bc 41 fc e7 3d 93 f6 22 bf
       0.18057568 -0.023543248 0.113274105 -0.6365749
0002b0 0a 2d 2a be 80 70 90 3d 87 a3 40 3d 52 f8 dd bd
       -0.16618744 0.07052708 0.04703095 -0.10838379
0002c0 d2 78 07 be 7a 41 a1 be b7 d6 9f bd 84 76 64 3d
       -0.13229683 -0.31495267 -0.078046255 0.055777088
0002d0 02 8a 55 3d 29 7d 4b 3d 1c 3f 21 3c 6d 04 29 3b
       0.052133568 0.04967991 0.009841707 0.0025789991
0002e0 01 87 49 3d 1f a4 08 3d d3 88 6b 3e 5c dd c2 bb
       0.049201015 0.033359643 0.23001413 -0.0059467983
0002f0 42 f3 31 bd 0d e2 f6 bd 64 7a 60 3c 32 ad 81 3d
       -0.04344488 -0.120548345 0.013701055 0.063318625
000300 ac d3 1d bd 33 7d c8 3c b2 79 39 3c b6 8f 0b 3c
       -0.038531944 0.024473762 0.011320518 0.00851815
000310 48 1c 1a be d2 dc 27 be 47 8c f0 3d 64 fa 3f 3e
       -0.15049851 -0.1639283 0.11745506 0.1874786
000320 f1 1a c1 3d 85 3d 9f 3d ac 62 b4 bb 11 36 81 3c
       0.09428967 0.07775406 -0.0055049267 0.015772851
000330 9c 38 95 be ce 43 90 3e a5 b8 8b 3d 59 b9 08 be
       -0.29144752 0.2817673 0.068223275 -0.13351955
000340 c3 70 cb 3e da 65 33 bd ea 33 3f be 61 c6 bc be
       0.39734468 -0.043798305 -0.18672147 -0.368701
000350 b2 fe 6a 3c cc ff 25 3e fa 3d f3 3d 73 7e df bd
       0.014342951 0.1621086 0.118770555 -0.1091279
000360 05 66 ae bd 30 ce 5f bd 3b b7 f3 3d 89 11 ef bd
       -0.085155524 -0.054639995 0.11900183 -0.116732664
000370 4f 53 18 3d f8 18 84 be c4 c5 89 3c 2c 77 4d 3e
       0.037188824 -0.258003 0.016817935 0.20064992
000380 2e 79 f0 bd ea cc 80 3e c8 d9 01 be 42 68 9c bd
       -0.11741863 0.25156337 -0.12680733 -0.07637073
000390 23 b4 4e 3e 5a fc 20 bd 5b 0d 7d be 26 7a ac bc
       0.20185904 -0.03930316 -0.24712126 -0.021054339
0003a0 38 e0 15 3d 4b 44 99 3e b8 a8 b7 bd 5b 7c 0c be
       0.036590785 0.29934916 -0.089677274 -0.13719313
0003b0 89 ec 3a ba a1 48 0c 3d 47 33 8c 3d 4f f8 f8 bd
       -0.00071305834 0.03424895 0.06845718 -0.12156736
0003c0 1c 43 53 3d bd 97 f5 bd 9c af 78 3d 42 d4 d6 bd
       0.051577672 -0.119918324 0.06071435 -0.10489704
0003d0 dd a1 03 be d5 ce 42 3e 2f df 0e 3c c5 61 bc 3c
       -0.12854715 0.19024213 0.008720203 0.022995839
0003e0 e2 dd 0c be b8 ff e8 3d 10 eb 19 be c4 3a 41 3e
       -0.13756517 0.113768995 -0.15031075 0.18870074
0003f0 48 7b b6 b9 7c 4c 07 3e 63 0f 44 3e a9 2f 59 3d
       -0.00034805597 0.1321277 0.19146495 0.053023968

fc2.bias f4 [64]
000000 45 3a fe 3e c7 ee 2d 3f fa 74 82 3c 5e 14 9d 3f
       0.4965383 0.6794247 0.01592492 1.227184
000010 f0 b5 1f 3f 86 47 a3 3c 1c 84 74 3d 99 38 7f bd
       0.6238699 0.019931566 0.0596963 -0.062309835
000020 4d cc 9d 3e b5 72 82 be 96 21 d0 3c 71 b3 c4 be
       0.30819932 -0.2547814 0.02540664 -0.38418153
000030 60 90 31 3c 0a 6a c7 be 82 d9 99 3d 8f 67 50 be
       0.010837644 -0.3894809 0.075121894 -0.20352004
000040 b0 74 ab bb ff 98 97 3c d9 1a 53 bc b9 42 4c 3e
       -0.005232416 0.018505571 -0.012884819 0.19947328
000050 d4 ad 1b be 97 c7 5f bd 1e 88 66 3d 6d a8 01 3e
       -0.15203029 -0.054633703 0.056282155 0.12661906
000060 49 2a 65 bd 8d a7 61 3e 04 a9 a0 bd b8 61 aa bd
       -0.05594853 0.22036572 -0.07844737 -0.083194196
000070 30 0e da 3e 68 78 a5 bd a8 7e 0c 3f 82 fa d1 3a
       0.4258895 -0.08079606 0.5488076 0.0016020092
000080 19 fc d4 3e 9a 81 b5 3e 65 1a 06 3f 76 21 ff be
       0.41598585 0.3545044 0.52384025 -0.49830216
000090 14 7d f6 3d c3 8b 0d 3f 32 d9 a1 3e 53 5a 23 3e
       0.120355755 0.55291384 0.3161102 0.15952425
0000a0 65 89 20 be e0 84 b7 3e c0 df c2 bd 58 92 f0 bb
       -0.15677412 0.35843563 -0.09515333 -0.0073416643
0000b0 eb fe 60 3e 9e d6 e6 3c 4b d1 0b 3f 8a 72 56 be
       0.21972243 0.02817851 0.5461623 -0.2094213
0000c0 75 b7 c5 bd 53 c4 1a 3f 1d 88 9f 3d eb 47 0c be
       -0.09654132 0.60455817 0.077896334 -0.1369931
0000d0 49 44 18 3f 0b 4b 63 3d 0e 57 21 be 99 78 91 bd
       0.59479195 0.05549149 -0.15755865 -0.0710308
0000e0 ef bc 36 3e ae 83 d0 3d 47 94 4d 3f 04 04 e4 bd
       0.1784551 0.10181366 0.8030438 -0.111335784
0000f0 30 9e fd 3e 8e 7f 8f bd 6c b1 9d 3d 94 8e 52 be
       0.4953475 -0.07006751 0.07699856 -0.20562202

fc3.weight f4 [32, 64]
000000 3a fc 1f bd 57 c2 cf 3e 58 09 ac 3d d1 7c c0 3d
       -0.0390589 0.40577957 0.0840022 0.09398807
000010 a9 af f7 3d ce 1a 75 be ab bd 26 3e 60 fe 8a bc
       0.120940514 -0.23936006 0.1628329 -0.016966999
000020 54 a4 29 3e 55 fa cf bd fe f2 32 3d 69 56 5f bd
       0.16566592 -0.10155169 0.043688767 -0.054525767
000030 b7 d6 89 bc 6d 6f b1 be 93 e2 2e 3e 52 f9 b3 3c
       -0.016826017 -0.34655324 0.17078619 0.021969471
000040 47 ca 2d bd 6a 39 66 be c2 97 cd bd 5d e2 4c bd
       -0.042429235 -0.22482839 -0.10038711 -0.050020564
000050 86 ea 0f be 1e a3 56 3d f0 26 c7 3d b9 63 69 be
       -0.14054307 0.052401654 0.097242236 -0.22791947
000060 7c 4b e9 bd b3 d2 93 3d 89 38 59 bc df f4 21 3a
       -0.113913506 0.07217922 -0.013258108 0.0006178151
000070 7a cd c2 bc be e6 53 3e b2 71 e0 bd 19 c4 ac bd
       -0.02377962 0.2069349 -0.10959186 -0.0843584
000080 d5 95 2f be 86 45 9d bd 2a 2d de 3c fe d7 23 3d
       -0.17147 -0.07679276 0.027121145 0.040000908
000090 29 21 78 3e 4e 95 e5 3d 96 c8 86 bd 88 9c a5 3e
       0.242314 0.11210118 -0.065812275 0.32345986
0000a0 4a 2a 6d 3c 27 80 1b 3f 2a 68 2b 3c 63 20 45 be
       0.0144754145 0.6074242 0.010461846 -0.19250636
0000b0 5c f8 f4 3e 09 81 4a be a7 8b 45 3d 57 5d 62 be
       0.47845733 -0.19775786 0.048228886 -0.22105919
0000c0 ca ec 1a be c7 8e 31 3e 5c b2 4c be ef 60 0f 3e
       -0.1512939 0.17339621 -0.19989914 0.14001821
0000d0 88 92 13 3e f4 4d a1 3d 1f 8b 13 be 4c 8c d0 3d
       0.14411366 0.078761965 -0.14408539 0.101830095
0000e0 40 33 a3 be 17 4a 84 3e f2 0d c0 3c d9 8b a4 3b
       -0.31875038 0.25837776 0.02344415 0.005021554
0000f0 61 d3 82 be ef a8 91 3d 0b 22 19 bd be 30 87 be
       -0.25551894 0.071123 -0.03738598 -0.26404375
000100 2d b7 ce 3d 5a 6c 6c bb 71 94 f9 3d 5a ed 6c bd
       0.10093532 -0.0036075325 0.12186516 -0.057843544
000110 be 1d 2f 3c 21 ea 81 be b6 b2 a8 bd 75 40 b1 3d
       0.010688243 -0.2537394 -0.082372114 0.08654872
000120 24 7f e5 bd 34 02 b2 bd 54 89 4d 3e 4e 64 38 3e
       -0.11205891 -0.086918265 0.20071918 0.18007013
000130 f8 57 ed 3d 78 7b 96 be 3f 87 de bd 43 75 06 3e
       0.11589044 -0.29391074 -0.1086564 0.1313067
000140 a6 e8 a0 3d 7a df 59 3e 76 ec a6 3d 27 82 30 be
       0.07856874 0.21276656 0.0815057 -0.17237149
000150 63 9f 45 3e 30 c1 d1 3d 4a 93 8b 3d 87 45 ac 3e
       0.19299082 0.10241926 0.068152025 0.33646795
000160 b6 5b 97 3e d9 8a b1 3e 2b fc cb 3d 89 8f bc bd
       0.29562157 0.34676245 0.099602066 -0.09207065
000170 74 eb 82 bd 86 63 7d be ae d4 4e be 4f 5e 2e bd
       -0.06392565 -0.24744996 -0.20198318 -0.04257041
000180 37 78 cf bd c2 65 f7 bd fe c0 c7 bd 5a 04 90 be
       -0.10130351 -0.12079956 -0.09753607 -0.2812832
000190 fc 0e b6 bd 6d a0 40 3e 29 fc 2c bd 39 72 20 be
       -0.08889577 0.18811198 -0.042232666 -0.15668572
0001a0 4c 0a a3 3e 9a c1 17 be 3e 8d 6c bd e2 db 00 3e
       0.31843793 -0.14819947 -0.057751887 0.12583879
0001b0 c5 c9 51 3e 2c 5f 04 be 79 53 70 bd f1 0e 99 3e
       0.20487125 -0.1292693 -0.058673356 0.29894212
0001c0 08 0f cc 3d 91 38 a4 3e b4 6c 79 be a0 b9 e8 bd
       0.099638045 0.32074407 -0.24357873 -0.1136353
0001d0 bf 67 45 3e 42 bb b8 3d cb f7 20 3e 3b e4 06 3e
       0.19277857 0.090200916 0.15719526 0.13173
0001e0 ef 2a 3f 3d 42 19 18 3e c0 dd c0 3e f4 cc 1d bc
       0.046671804 0.14853385 0.37669182 -0.009631384
0001f0 05 94 29 3e 78 b1 b6 bc cf 1d 17 3e 55 52 21 3e
       0.16560371 -0.02230142 0.14757465 0.15754063
000200 82 7a 09 be 49 f4 e9 bd 82 5b 3f be c2 e9 b7 3d
       -0.1342564 -0.11423547 -0.18687251 0.08980133
000210 17 3c ff 3d 9f 71 1b bd e4 60 9e 3e 7d 09 84 3c
       0.12462633 -0.037950154 0.30933297 0.016117806
000220 f2 ae e5 3d 06 46 1e 3e 3b 82 32 3e 7b 2c 64 3e
       0.11215009 0.154564 0.17432491 0.22282593
000230 58 99 70 bd 3e 3a 5a bd 47 c2 5e 3c 6d 76 45 be
       -0.05873999 -0.0532782 0.013596124 -0.19283457
000240 0e 04 b7 bd 90 cd 0a be 87 29 59 bd 36 67 ab 3d
       -0.0893632 -0.13554978 -0.05301812 0.08369295
000250 7d 6e 06 3e 09 2e 3c bd 4d 64 05 bd 88 09 27 bd
       0.13128085 -0.04594234 -0.032566357 -0.040780574
000260 a2 e8 00 bb e5 20 02 3d cc 00 a4 bb 6c be d7 3d
       -0.001966991 0.031769652 -0.005004978 0.10534367
000270 26 e4 d8 3d 1e 31 1e be b6 f7 15 3d df b0 dd 3d
       0.10590391 -0.15448424 0.03661319 0.10824751
000280 1a c1 b6 be ec 54 2d 3e 76 b9 f7 bd 1a 31 63 bd
       -0.356942 0.16926926 -0.12095921 -0.05546675
000290 0d 1c 0c be 9d c6 15 3e c2 a7 4d 3e 8a 34 1e be
       -0.13682576 0.14626546 0.20083526 -0.1544973
0002a0 29 df c3 3d 60 eb 0e bc cb 64 a7 3d f7 5f 0f 3e
       0.09564049 -0.00872311 0.081735216 0.14001451
0002b0 8c 59 41 be aa 7e 76 be dd b0 1d 3d df 29 79 be
       -0.18881816 -0.24071756 0.038498748 -0.24332379
0002c0 ba ae c2 bc 9d 4d dd 3d 24 e8 03 3d 27 3a 42 be
       -0.023764957 0.10805819 0.03220381 -0.18967496
0002d0 5f 1c 9f 3d 85 be 7f 3e 91 25 ce 3c 39 ce d2 bd
       0.07769083 0.24975021 0.025164397 -0.1029324
0002e0 f1 10 c3 3d 4b 39 9e bd 2f 3b e1 bd cf 82 50 3e
       0.09524716 -0.077257715 -0.109976165 0.203624
0002f0 bf 0f 66 bd 2a 41 60 bd bf 12 38 be c8 a9 12 3e
       -0.05616736 -0.054749645 -0.17975901 0.14322579
000300 2d fe 0c 3f fb 76 f4 bd 93 0d 14 bd d7 7c 56 bd
       0.5507534 -0.11936756 -0.036145758 -0.05236515
000310 51 b1 3b 3e 2a cc a8 3e af af 0d be 68 2f c2 bd
       0.1832936 0.32968265 -0.13836549 -0.09481698
000320 96 5a b4 bd 70 0d 88 38 bc e4 e9 bc 33 31 51 3d
       -0.088063404 6.487488e-05 -0.028551452 0.05107231
000330 f5 6b bc 3d 25 7b 00 3e 37 09 06 be cc a3 1f be
       0.09200279 0.12546976 -0.13089453 -0.15589827
000340 0e 5a 63 be fc 13 0e bd 57 f4 16 be 85 f3 5b 3c
       -0.22202322 -0.034687027 -0.14741646 0.013424759
000350 bb 8e 8b bd f8 b5 e3 3d d8 97 80 3d e6 75 3d be
       -0.06814333 0.11118692 0.06278962 -0.18502006
000360 09 db 83 be 4c ec fd 3d ae 0c 01 be cc 84 9f bd
       -0.25753048 0.12398586 -0.12602493 -0.07789001
000370 be 99 a2 3e 60 0a 8b 3d 29 49 ae 3e dc 59 8f 3e
       0.3175792 0.06789088 0.34040192 0.27998245
000380 23 e4 7f bd 18 5c 35 3c 1c b8 49 3d b2 ee bd bc
       -0.062473428 0.01106932 0.049247846 -0.023185108
000390 34 ec 5f 3e 55 c7 a0 bb 20 81 c5 bc cc 37 00 be
       0.21867448 -0.0049065747 -0.024109423 -0.12521285
0003a0 f5 e1 05 3d 89 e4 99 3d f3 77 a9 3d 4e da c8 3d
       0.032686193 0.07514293 0.082748316 0.09807263
0003b0 15 0c a9 3d 75 92 d6 bd f6 6d ab 3d 8c e7 2d 3d
       0.082542576 -0.10477153 0.08370583 0.04245715
0003c0 f8 4d 92 3d b1 c6 80 3e 4c 98 a5 bd b8 a0 0c bd
       0.071437776 0.2515159 -0.08085689 -0.03433296
0003d0 04 3c 68 3e 9f e6 9e be d6 88 96 3c 02 fd cc bd
       0.22679144 -0.31035325 0.018375795 -0.10009195
0003e0 60 63 29 be 9f 35 56 be 52 da 35 3c cc 20 94 bd
       -0.16541815 -0.20918892 0.011099415 -0.07232818
0003f0 6c f9 7c bc 15 b4 5f 3d c5 2e 5e 3e 6d 7c dd bd
       -0.015440326 0.0546151 0.21697529 -0.10814748

fc3.bias f4 [32]
000000 7d 0d 56 3f ef 1f 39 be ef 82 a4 3d 16 8e 46 3f
       0.8361433 -0.18078588 0.08032786 0.77560556
000010 4a 69 9b 3e 1e 1f 4e 3f d5 81 6d 3e 22 d7 36 bd
       0.30353767 0.8051623 0.23194058 -0.04463876
000020 71 32 c4 3e db b0 ec 3d c3 a4 41 3d 19 88 0d 3f
       0.38319734 0.1155717 0.04727627 0.55285794
000030 f3 0a d4 bd dc e2 c6 3e ee 03 e4 3e e8 e0 71 3d
       -0.10353651 0.38844955 0.44534248 0.059052378
000040 70 36 ef 3d 8d 7b 5c 3e ab 06 6a 3e 4b ea 71 be
       0.11680305 0.21531506 0.22854106 -0.23624532
000050 87 25 23 3e c5 ac 11 bb 5d b6 8c bb 2d b1 b7 3e
       0.15932284 -0.0022228223 -0.0042942003 0.35877362
000060 e8 cb 2f 3e a9 9b e1 bd ae 20 7e bd 2a fe 97 be
       0.17167628 -0.11016018 -0.062042885 -0.296861
000070 5b 07 93 3e 14 e4 1b be 60 77 02 3e b0 4f d7 3d
       0.2871655 -0.15223724 0.1274085 0.10513246

fc4.weight f4 [10, 32]
000000 bc ab 3b bf 0e 8e af bc 41 49 e9 3e a5 b9 e1 3e
       -0.7330892 -0.021430042 0.455637 0.44086948
000010 1c fd 86 3e a1 5d 80 3e 68 cf cd 3e 89 4e 19 be
       0.26364982 0.25071433 0.401973 -0.14971365
000020 c8 12 ab 3e e5 48 16 3e 90 96 db be 7d 8d 20 3e
       0.33412766 0.14676245 -0.42888308 0.15678973
000030 13 af 70 bd 9c 86 e2 3e a9 97 09 bf 55 b6 e2 3e
       -0.058760714 0.44243324 -0.5374704 0.44279733
000040 87 60 81 3a ae 4b 10 be 78 0e 1b 3f 15 3d 4b 3f
       0.0009870686 -0.1409137 0.6056895 0.7939008
000050 f7 69 cb be 07 4c c8 bd 7d 4e b5 3d a3 c0 10 3b
       -0.39729282 -0.09780126 0.08852861 0.0022087477
000060 0b c9 12 3e ec ac 0a bd 2f 3b 15 bd 09 3f d3 bd
       0.14334504 -0.033856317 -0.036433395 -0.103147574
000070 82 06 86 be 86 c1 31 bd 6a 16 cc bd 74 4e 90 be
       -0.2617684 -0.04339745 -0.09965213 -0.28184855
000080 03 54 3f bf bc 03 cb be 42 75 1b bf 73 d6 01 bc
       -0.74737567 -0.39651287 -0.60725796 -0.007924664
000090 43 bb c1 be 6b 56 f2 3d 1f 3f 21 bd df 75 ac 3f
       -0.37838182 0.11832889 -0.039366838 1.3473471
0000a0 93 72 66 3f 65 54 d8 ba e0 36 36 be e4 10 54 be
       0.90018576 -0.0016504644 -0.1779437 -0.20709568
0000b0 c2 46 62 3e 7c ac a9 3d 22 8d df 3d 28 7d f1 3d
       0.22097304 0.08284852 0.10915591 0.1179145
0000c0 ca b7 39 3e 72 b1 8b bd d4 21 9c 3c d1 f1 24 be
       0.18136516 -0.068209544 0.0190591 -0.1610787
0000d0 57 e0 a2 bb 75 d8 8c bb 48 57 d8 3d 39 17 1e bf
       -0.004970591 -0.0042982646 0.105635226 -0.61754185
0000e0 8b a1 50 3f bf e5 42 bd 48 ca 2f 3e 9f 51 cb bc
       0.81496495 -0.047582384 0.17167008 -0.024819193
0000f0 51 a1 69 bd f5 13 ab bd fc 8e 2e 3e d3 9c 9a 3e
       -0.05703861 -0.08353416 0.17046732 0.30197772
000100 d9 6c 1f be 09 05 65 be 76 48 f7 3e 1c 8f e8 bd
       -0.15568866 -0.22365202 0.4829747 -0.11355421
000110 67 5a 3c be e0 0f c2 3e 37 25 20 be 0d 89 26 be
       -0.18393861 0.37902737 -0.15639196 -0.16263218
000120 80 c9 da b8 4a 33 96 3d 19 18 82 ba cf 02 14 3e
       -0.00010432582 0.07334001 -0.0009925395 0.14454196
000130 f4 7b c7 bc 8d c4 b1 3e 3b 97 1e bf 50 81 9e 3e
       -0.024351098 0.3472027 -0.6194951 0.30958033
000140 b2 f4 91 3e 4b 13 b7 3e fd ae c9 3e 77 35 8d be
       0.28507 0.35756907 0.39391318 -0.27579853
000150 84 c8 82 3d a4 4a b5 3d b6 5e e8 bd 83 54 cd 3b
       0.063859016 0.08852127 -0.1134619 0.006266178
000160 a5 9c e1 3d 09 53 39 3e 3b 37 60 3f 67 38 81 be
       0.11016206 0.18098082 0.87584275 -0.25238344
000170 49 b2 ae be 82 6b f6 bd ad 57 2a 3c 19 b6 f5 be
       -0.34120396 -0.12032224 0.01039688 -0.47990492
000180 b2 d5 09 be 76 dd 34 be cd 55 a7 3e a5 ba 00 3f
       -0.13460425 -0.17662606 0.32682648 0.50284797
000190 83 1c 0f bf be f8 0d 3e ae 73 93 be fc 3e 85 be
       -0.5590288 0.13864419 -0.28799194 -0.26024616
0001a0 80 fa eb 3e 05 79 0c be 29 48 df 3d 63 e6 03 3f
       0.46089554 -0.1371804 0.10902435 0.5152342
0001b0 59 61 0f bd bc 18 99 3e 17 c1 f8 be 1b 8c dd 3e
       -0.035004947 0.29901683 -0.48584816 0.43270954
0001c0 5d b1 cb 3e 8d bf 6c be 9c 9e a2 3d 27 04 34 bd
       0.39783755 -0.23119946 0.079404086 -0.043949272
0001d0 ca 61 4e bf 03 90 04 be b1 68 01 3e 48 e0 c3 bd
       -0.80617964 -0.12945561 0.12637593 -0.09564263
0001e0 0e 8b b4 3e c9 62 9e 3e e5 cb a8 3d 70 ca 9e 3d
       0.3526234 0.30934742 0.08242015 0.07753456
0001f0 aa d7 8e 3e 03 1f 95 be 3c c3 0f 3d 87 0c 91 3e
       0.27898914 -0.29125223 0.0350983 0.2832987
000200 b4 06 39 be a8 a9 98 3d 63 c2 f8 3e b6 7c 23 bd
       -0.18068963 0.07454234 0.48585805 -0.039913855
000210 9e 23 52 be 2f 8e f3 be 53 63 86 bd 3a 13 2e be
       -0.205214 -0.47569415 -0.06561913 -0.16999522
000220 9b 4d 4a bc 48 72 d7 3d ad af 19 be 08 b5 a9 3e
       -0.012347604 0.10519844 -0.15008421 0.33145928
000230 8f ab 16 3d 5a 7b dc 3e 7a 25 20 bf 30 de b2 3e
       0.036784705 0.4306286 -0.62557185 0.3493514
000240 ff 5c 21 bc 02 ff bc 3e 6b dc c7 3e d0 8f e4 be
       -0.009848832 0.36913306 0.39035353 -0.4464097
000250 05 a6 3a 3e 7b 34 5c 3e 41 02 db bd 72 ce 14 bd
       0.18227394 0.21504395 -0.10693789 -0.036329694
000260 a7 30 dd 3e d9 85 9d be ce 55 3a 3f 0e 9e da 3e
       0.4320118 -0.3076618 0.7278718 0.4269871
000270 7c 33 a7 be 2e 98 68 3e 70 9a 84 3e 42 df b2 3e
       -0.32656467 0.22714302 0.25899076 0.34935957
000280 4e 85 99 3f db c9 11 bf bf 03 26 bf ee 89 d6 be
       1.1993806 -0.5694863 -0.64849466 -0.41902107
000290 36 6a 26 3f fc 4e b4 bd b2 33 a3 3e a5 21 6e 3c
       0.65005815 -0.088041276 0.31875378 0.014534389
0002a0 94 c0 f8 be 9a 8f 0b be c6 d4 d5 3d b2 41 72 3e
       -0.48584425 -0.13628998 0.10440974 0.23657873
0002b0 04 3d df bd 3a 17 8c be 80 b4 18 3f 82 32 83 bf
       -0.1090031 -0.2736147 0.5965042 -1.0249789
0002c0 b7 3b da be c6 79 1b 3e 49 57 d3 be 64 a3 03 be
       -0.42623684 0.15183172 -0.4127753 -0.12855297
0002d0 fc 5e ce 3a b3 5c 51 be de 9b 6f 3e b3 ce ff bb
       0.001574486 -0.20445518 0.23399302 -0.007806623
0002e0 34 9e f5 be 60 20 06 3e 28 8c 36 bf 9b 16 44 bd
       -0.47972262 0.13098288 -0.7130761 -0.04787312
0002f0 f6 1a 50 3f 9e 54 db 3d 26 bf 31 be 6f e6 0d be
       0.8129114 0.10709499 -0.17358074 -0.13857435
000300 d0 fd 95 be 3a f9 4c bd 10 6d d7 3e 7b ba 0f 3f
       -0.29295206 -0.05004237 0.42075396 0.5614392
000310 cc d9 01 be b6 93 11 3d 7d d7 f4 3d 59 95 22 be
       -0.12680739 0.03554126 0.11955164 -0.15877284
000320 bd 4a 0a bd 5f 4c 36 be d5 25 95 3e 56 f1 6a 3e
       -0.033762682 -0.17802571 0.29130426 0.22943625
000330 5b 80 a7 be 7d 03 fb 3e 2b 1d 29 bf 81 c2 c9 3e
       -0.32715115 0.490261 -0.6606013 0.39406207
000340 a5 8c 8d ba 33 04 44 be 44 6a ba 3e 93 8c 36 3f
       -0.0010799362 -0.19142227 0.364092 0.7130825
000350 82 0e b6 3e a4 1d 7a be e1 10 18 be 5e 3c 77 bb
       0.35557944 -0.2442537 -0.14850189 -0.003772519
000360 0d 8f e0 3d 98 a0 fa 3e c1 39 3d 3f 53 95 8c bd
       0.10964785 0.48950648 0.7391625 -0.06864419
000370 40 c6 4e be 58 cb e0 3d 85 eb b0 be c1 fb 24 be
       -0.20192814 0.10976285 -0.34554687 -0.16111661
000380 fb f6 3d 3f 5f fc a1 bd 88 96 38 bf 1c 7b d5 be
       0.7420499 -0.07909464 -0.7210469 -0.41695487
000390 d2 f0 02 3d 3b 84 29 be ad c2 06 bd 6a e4 f8 3d
       0.031967945 -0.16554348 -0.0329005 0.121529415
0003a0 af 0e 28 bf 95 7b fd 3d 7a 15 0b bb a9 d4 3b bf
       -0.65647405 0.12377087 -0.0021222518 -0.7337137
0003b0 06 4e 85 3d be d6 b2 be a1 79 a9 3f d3 0e d0 be
       0.065090224 -0.3492946 1.3240243 -0.4063631
0003c0 52 c0 df be 05 58 dc 3d 7f 41 f6 be a3 03 ee bc
       -0.43701416 0.10758976 -0.48096845 -0.029054468
0003d0 ca 8e 4f 3d 74 06 84 3d 41 c7 0a be ae 64 2d 3f
       0.050673284 0.06446543 -0.13552572 0.6773175
0003e0 e2 22 d0 be 9b 8f e7 3d 25 7f 54 bf 1a be 5b be
       -0.40651613 0.113066874 -0.8300651 -0.21459237
0003f0 15 16 89 3e 87 95 cb 3d b8 35 87 3e 49 5a da bd
       0.2677466 0.099406295 0.26408172 -0.10661752

fc4.bias f4 [10]
000000 b4 9d a8 bc 4b 43 bb bc 49 9b 02 3d 67 23 8c bd
       -0.020583011 -0.022859236 0.031886373 -0.0684269
000010 44 34 97 be 4a ec 8c 3f f5 ef 9b 3c 95 da f5 3d
       -0.29532063 1.100961 0.019035319 0.12004582
000020 5f 2c bc be 5f 0e dc be
       -0.36752602 -0.42979714
