COMP 219 Advanced Artificial Intelligence /Resilience-to-Adversarial-Attack-main/test.pt (torch, 446799 bytes, 8 tensors)

fc1.weight f4 [128, 784]
00000000: 28bf 963c ad12 81bc 617e dfbb 2ffc 883c
00000010: 920c 0cbd 0918 a13c 64d7 34bc a5e6 753c
00000020: 74ac f23b 37e7 b63a 0076 873c 586a 4fbb
00000030: 0b37 c4ba 0611 07bd 8068 b8bc 8572 b3bc
00000040: 40b1 b5bb 6383 a53b 30ab 203d 86b6 733c
00000050: 6298 87bc 2e40 efbc 59e1 38bc 9fe7 91bc
00000060: 4fd4 4ebc 8358 8e3a 0bc5 ac3c 0430 9f3c
00000070: e308 0fbd fab6 b43c 7db1 243c f04c 083d
00000080: 7ec1 b13c 528a 15bd de90 16bd 78b9 b4bb
00000090: ea77 2f3d f194 60bb 5934 343c 9ca7 d2bc
000000a0: 72fa 293d 7854 30bc 0568 e63c ccaa f33b
000000b0: 8e47 9dbc 899f 433c cf7b 65bc ce16 8f3c
000000c0: 5526 ad39 d666 d9bb 789a 36bd 9d9a cebc
000000d0: 6ee5 653c c371 44bc ecd5 0c3d 31de e93c
000000e0: 66e1 e6ba 8d86 c5bc 4cb1 ac3c 10f8 233c
000000f0: 6ca1 c5bc 0b80 e83c 5144 353d 3a18 633d
00000100: 7b34 94bc 87e7 22bc 0c2b 9aba 7a6c cc3b
00000110: fc39 9bbc 65f2 4abc 52a9 fa3c 164a b6ba
00000120: 95f8 833c 54e7 0ebb 58a6 f43b c3f6 863b
00000130: d92d c63c 1998 1e3d 0fde c4bc 8949 573c
00000140: e8fa 02bd ead8 04bd b435 19b9 41f4 d3bb
00000150: cd2d aa3c b5d9 aebc 5fc3 04bd d69b cc3c
00000160: 0827 aeba 2e9e 223d 989e 163d 4409 92bc
00000170: 18a3 0a3c 9d17 5f3c 4049 afbc 15d9 acbc
00000180: 213f 493c cac3 913b 5cca acbc 5877 98bc
00000190: f8ab ce3c 27b3 28bc d34a b03c 5ca3 613c
000001a0: 4a5c bcbc d383 6ebc 2bcf 603d c8db 093c
000001b0: eb7b a03c ca12 693a 1754 ff3b e4ca d33c
000001c0: 8c3b 093d 5080 cabc d9da 6c3b c9dc df3c
000001d0: bbf5 153d 69d2 2f3d 87f6 8dbb 54c0 c2bc
000001e0: c149 d1bc 342b 343c 95c5 103d 874f f9bc
000001f0: b9c9 6d3c f7a1 c1bc 54bd 27bd 57d9 87bc
00000200: 2636 213c e931 dc3c 22ca b8bc fec4 633b
00000210: 719a c03c 8bb9 003d 26fc 273d f8da 253d
00000220: e30b bc3c c7b5 763b fa1c ecbc 8dd5 febc
00000230: dc80 8abc 6556 adbb 17d4 b2bc 8b04 883c
00000240: 5926 e23c 2a33 673c 9a65 023d d469 d43b
00000250: 756d 9c3c f79b ea3c 7f76 22bc 05a8 003d
00000260: fc06 1ebc e711 a5bb ce94 1fbd 0817 01bd
00000270: cf9b eebc b386 94bc e014 c33c 414d 5ebc
00000280: 657f 14bd 88bf 853c 2867 f33c af57 313d
00000290: 3fcb 2bbc 3936 da3b af80 87bc e94f 14bc
000002a0: f7a1 ecbc 5bb8 88bc 0113 12bc 515b b93c
000002b0: 3217 ce3c 149a 073d 60b1 573d 781e 0f3d
000002c0: 6bae 013d 94be 233c 32cc 92bc 5b91 f63c
000002d0: 71aa 36bc 8620 2abb 07ca 06bd 974d 05bc
000002e0: 94f1 cfbc 1fbf e93c 2025 1fbd 11b3 09bd
000002f0: f83a 17bc 31de 88bc 5952 0b3d 9c75 1f3c
00000300: e555 aaba fea5 103c 05e8 dd3c 0974 d2bc
00000310: c7db 883c bc00 c53c f0d8 203d b607 56bc
00000320: 6c5f eb3c de03 daba 8580 4c3d 85a9 45bb
00000330: b911 283d 0f18 9e3c f8bc 263c 17f3 923b
00000340: 3dec 0f3c 4e19 933c 0fd2 033c ded4 713c
00000350: 9005 00bd 9bd9 aa3c 67fa c13c b524 be3c
00000360: f26f a43c d808 b8bc 9f1f ed3b 974b 643d
00000370: 1e3b 93bb ab61 433d 2c5b afbc 16e2 ccbc
00000380: f8df 913c 2121 bdbc c83c 63ba 761c 2e3d
00000390: 59a8 4d3d 95b6 6e3d f4a8 613c 5c86 f0bb
000003a0: 7d5f 873d c60f bf3c 6232 063c 2ade 953c
000003b0: 6077 9cbc cea3 d33c 2ff9 d33c eeb4 b7bc
000003c0: f489 0bbd d370 37bc 6747 943c fb69 9d3b
000003d0: 68ec 99bc c9fe 863a 9c81 90bc 5eb2 7dbb
000003e0: 9dad 04bb 71aa 383d 0bf8 1f3d e9a4 4abc
000003f0: 70f3 073b 081c a23c 959e 643c 4be1 a83a
0.018401697 -0.015755976 -0.0068204855 0.016721813 -0.034191675 0.019664781 -0.011037681 0.015008603
0.007405812 0.0013954405 0.016535759 -0.003164908 -0.0014970017 -0.03297522 -0.022510767 -0.021905193
-0.0055448115 0.005051063 0.039225757 0.01487506 -0.016552154 -0.029205408 -0.011284196 -0.01781064
-0.0126238605 0.0010860119 0.021090051 0.019432075 -0.034920584 0.022059906 0.010052082 0.0332765
0.02169871 -0.036508866 -0.03675925 -0.0055152737 0.04283897 -0.0034268463 0.010998809 -0.025714688
0.04149861 -0.010762326 0.028125772 0.007436132 -0.019199159 0.011939892 -0.014006569 0.017466929
0.0003302569 -0.0066345735 -0.044580907 -0.02522021 0.014031751 -0.0119900135 0.0343837 0.028548332
-0.0017614781 -0.02411201 0.021080635 0.010007873 -0.024124824 0.028381368 0.044254605 0.055443026
-0.01809143 -0.009942896 -0.0011762097 0.0062385174 -0.018948548 -0.012386893 0.030598316 -0.0013907577
0.016109744 -0.0021805363 0.007466119 0.0041187718 0.024191784 0.03871927 -0.024031667 0.013140091
-0.031977564 -0.032433428 -0.00014611223 -0.0064683263 0.020773793 -0.021344045 -0.032412883 0.024976652
-0.0013286779 0.039701633 0.03677234 -0.017826684 0.008461736 0.01361647 -0.021397233 -0.021099607
0.0122831175 0.0044483887 -0.021092586 -0.018611595 0.025228485 -0.0102966195 0.021520054 0.013771858
-0.022993226 -0.0145577965 0.05488507 0.008414216 0.019590339 0.00088910444 0.0077920067 0.025853582
0.033504054 -0.024719387 0.0036141186 0.027326958 0.0366113 0.042925272 -0.004332367 -0.02377335
-0.025547864 0.010996629 0.03534468 -0.03043343 0.014513426 -0.023636801 -0.04095204 -0.016583128
0.00983957 0.026879268 -0.022557322 0.0034754868 0.023511143 0.031426948 0.041011952 0.040492028
0.022954887 0.0037644969 -0.02882241 -0.031107688 -0.016907148 -0.00528984 -0.021829648 0.016603729
0.027606176 0.01411132 0.031835176 0.0064823423 0.019095162 0.028638823 -0.009915947 0.031410236
-0.00964522 -0.0050375345 -0.03896027 -0.031516105 -0.02912703 -0.018130636 0.023813665 -0.013568223
-0.036254305 0.01632668 0.029712275 0.043296512 -0.010485469 0.006659296 -0.016540853 -0.009052255
-0.028885825 -0.01668947 -0.008915664 0.02262655 0.025157545 0.033105925 0.052659392 0.034941167
0.03166048 0.009994168 -0.017919634 0.030098608 -0.011149035 -0.0025959327 -0.032907512 -0.008136175
-0.025383748 0.028533516 -0.038853765 -0.033618037 -0.009230368 -0.016707512 0.03401408 0.00973263
-0.0012995569 0.008828638 0.027088175 -0.025690095 0.01670636 0.024048202 0.039269388 -0.013063362
0.028732024 -0.0016633233 0.049927253 -0.0030160856 0.041032527 0.019298581 0.01017689 0.004484545
0.008784351 0.017956402 0.008045687 0.014760224 -0.031255305 0.020855715 0.023678971 0.023210863
0.020072911 -0.022465155 0.0072364355 0.05573615 -0.0044931313 0.047700565 -0.021405779 -0.02501015
0.017806992 -0.023087086 -0.000866842 0.04250761 0.050209377 0.058279593 0.013773192 -0.0073402356
0.0661001 0.023322951 0.008190723 0.018294413 -0.019099891 0.025834944 0.025875656 -0.022425141
-0.03406711 -0.011196333 0.018100454 0.0048038936 -0.018789485 0.001029932 -0.017639928 -0.0038711051
-0.0020245083 0.04508442 0.03905491 -0.012368419 0.0020744465 0.019788757 0.0139538245 0.0012884525

fc1.bias f4 [128]
00000000: 3c85 6a3c f243 373b 6bfc 9d3c 87d7 cd39
00000010: d888 23bc 8965 9c3d 5a25 4c3c 98e8 203d
00000020: 90b2 f03c 873c b43b e158 473b 3f76 14bd
00000030: 3590 a03c 10aa 333d 0181 203c 0456 51bc
00000040: 2211 8c3d 3dca cbba 5c92 4d3c a3ae ebbc
00000050: cc3b 12bc 0677 1fbd 4479 a73c d217 253d
00000060: 44b8 fd3c 8e73 ac3b 4b16 c1bc cfba 863a
00000070: a76c ea3c b3dd 34bc 418f 433c 825e 81bc
00000080: 1515 45bc 60d1 1e3d e6ff 49bc f3a3 c3ba
00000090: 7af5 2f3c 6178 83bc d421 d13c ba58 a2bb
000000a0: 8498 673c 7499 68bc 424c 313d 8c48 8a3c
000000b0: da5f 9cbc bc34 d13d f999 4cbc 5f01 383d
000000c0: 67f8 043c f49e 90bc 2a5c 853d f3b0 133b
000000d0: 9576 4ebd 9ee6 4d3c 5203 ebbc f5b0 f8bb
000000e0: 49f1 d33c 0ac7 09bd a42c a1bc 26cb d43c
000000f0: 1704 a03d d8c5 583d 5f3d 863c 09c7 23bd
00000100: 26ed 7f3c 979e d0bc e62c a7bb 6825 003c
00000110: 41a1 013d 5e08 85ba b302 3fbd b17a 893c
00000120: e914 a2bd fe4e 453c 4a6a f93c 4a9c b53c
00000130: 3ae6 9c3d ea98 e7bc 5a14 8dbb f720 2c3d
00000140: a4f0 933d a93b c0bc 2ff8 f43c c9a2 03bd
00000150: 78c9 51bb e23c c13d 2f96 9cbb e6c4 8f3c
00000160: b3ce 45bc d8f4 863d 5835 9fbc 0f73 b73b
00000170: d481 6c3d 599a 8a3d e117 5abc 43cd 2b3d
00000180: edab 043c 7343 c03d fa8c 913b acea 843d
00000190: f5c6 4f3c b4d0 a93c 99cd b0bb 2d7a 90bb
000001a0: 1471 cd3d b576 a93d e596 bb3d 4b26 d83c
000001b0: fa73 1b3c 02f2 c03c f59a 27bc 7bee e63b
000001c0: 88db eabb 5154 0dbd 7951 afbc 5edc 6bbc
000001d0: b467 0dbc 9171 523c bc3a c93a 0669 4e3d
000001e0: 06d8 00ba 308b 703c 5004 30bc a6cb 88ba
000001f0: 05a1 6cbc a57e 113d b941 8a3d 781d 5e3d
0.014313992 0.0027964083 0.019285401 0.00039261227 -0.009981357 0.07636554 0.012460077 0.03928432
0.02938202 0.0055003795 0.0030417966 -0.03624558 0.019600013 0.043863356 0.009796382 -0.012776855
0.06839205 -0.0015547943 0.012547102 -0.028769797 -0.0089253895 -0.03893187 0.020443566 0.04030592
0.030971654 0.0052627986 -0.0235702 0.0010279062 0.028616263 -0.011039185 0.01193601 -0.015792135
-0.012028952 0.038773894 -0.012329077 -0.001492618 0.0107396785 -0.016048612 0.025528826 -0.0049544247
0.014135484 -0.014196742 0.043285616 0.016880296 -0.019088674 0.102151364 -0.012487882 0.044923183
0.008115864 -0.01765392 0.065117195 0.002253589 -0.050406057 0.01256719 -0.028688107 -0.0075894543
0.02587189 -0.033637084 -0.019674607 0.025975775 0.0781328 0.052923054 0.016386686 -0.039984737
0.015620505 -0.025466247 -0.005101788 0.007821418 0.031647924 -0.0010149588 -0.046633434 0.016782137
-0.079141445 0.012042759 0.03044619 0.022169251 0.076611 -0.028271157 -0.0043054046 0.042023625
0.07223633 -0.023465948 0.0299035 -0.032137666 -0.0032010954 0.094354406 -0.0047786455 0.017549943
-0.012073207 0.06589669 -0.019434616 0.005598433 0.057741 0.06767721 -0.013311357 0.0419438
0.008097631 0.09387865 0.0044418545 0.064900726 0.012681712 0.0207294 -0.005395603 -0.0044090957
0.100313336 0.08274595 0.0915964 0.026385447 0.0094881 0.023552898 -0.010229816 0.007047472
-0.0071672834 -0.03450424 -0.021401154 -0.014395801 -0.008630682 0.012844459 0.0015352587 0.050393127
-0.00049150025 0.014681622 -0.010743216 -0.0010436669 -0.014442687 0.03552117 0.06750817 0.054227322

fc2.weight f4 [64, 128]
00000000: 00f3 c63c 130e 5f3d f2a2 89bc 3cec 0f3c
00000010: ab21 87bd 085f 713d 5fc7 fdbc ceb8 c83d
00000020: 0515 b3bd c232 98bc 64be 673d 25de 60bd
00000030: cc71 03bd 4a8c a73d a853 9abb 2ea0 a83d
00000040: 2565 9f3d 174f c13b 7e3d 87bd 3908 933d
00000050: c981 623d e459 72bc 5939 66bc 7aee 833c
00000060: 4309 883d 98e2 13bd e0d5 d9bd 4dda a13d
00000070: 9451 32bd 46d2 97bd fac7 9f3d d765 12bd
00000080: f927 8ebd 4dbd 803c a8a3 513d 2d18 b6bc
00000090: a2cc 623d 0176 88bd a6df ba3d 020e a93d
000000a0: 995d b9bc ccc5 883d 0459 b3bc 5a83 60bb
000000b0: cb99 363d ff9f 9fbc 29fb 223d 7188 fc3d
000000c0: aa88 7abd eff9 e1bc 593e 61bd c4c2 90bc
000000d0: 3aec c5bc acdb 8cbd f10d 8dbd 6d3a 983c
000000e0: 8db1 5c3d 6b2d 98bd 42e7 a33d ce23 983c
000000f0: 50d8 b03d b84b 7a3d d50d 2e3d 28d0 90bd
00000100: 3719 8dbd 2058 953d 9617 a43c 587e 16bd
00000110: 0da0 11bc f464 9ebb c6e3 153d 2052 253d
00000120: 5c90 863d 6bd9 2bbd cf39 1dbd 5819 e3bc
00000130: 8000 713d 14a2 a33d 4972 b33d df79 5abd
00000140: 5738 413d 7c1e ff3c 4423 263d 39eb 64bd
00000150: 1848 083d 388a 44bc 86e1 5f3d e128 9ebd
00000160: ac5e 9c3d b68f a43d d683 733d af97 e43d
00000170: a9f2 02bc 1d41 c8bc d07d a93d 40b4 9abd
00000180: 40c8 163d 8914 cb3d afdd c8bb 858d f63d
00000190: 88b4 f93c 35ab 72bd 175f 24bd 4487 8f3d
000001a0: a89f 32bd 2bb8 bcbc afd5 f33c dca8 eb3d
000001b0: 86fe 72ba 21e7 cb3d 9d10 07ba 2472 ba3d
000001c0: 8721 98bd b7d0 96bd 4243 2a3c 7887 c33d
000001d0: 2ba7 013e f0d8 3d3d 634e 2bbd ccd4 903d
000001e0: 7841 b63a 94db ab3d 8fa8 23bd e923 7d3d
000001f0: ab84 3c3d e225 313d e978 293d 998f 7ebd
00000200: dd0d 963d 1874 52bd 56bc 513d deeb 06bd
00000210: 2689 ddbc 7058 88bd d7f0 253e 5627 953b
00000220: 0f0c 53ba f2c1 f63a 50be 30bd 18c1 843d
00000230: 3ed9 283d cd6d c63d dcf5 df3d bd2b 293d
00000240: 601d b0bd 34b7 843d 94be a1bd c485 97bd
00000250: 066c 803d 7bc6 95bc ce1d 463d 4dd9 54bd
00000260: e4da a1bd a59f 15bc a8a5 4d3d 0243 39bd
00000270: 42d0 8cbd 8f56 893a 2038 c8bd 58f6 8a3d
00000280: 9a04 ff3b bbd1 a9bd 443a 7d3c 3f7a aebd
00000290: 0bc8 09bd a895 3fbd 3f2d 3fbd b1c4 583d
000002a0: 306e 133e 283c 8ebc 960b 31bd 1578 a5bd
000002b0: 0f07 40bd 1b2e 9f3d 97f2 f93b 9192 06bd
000002c0: 4bf9 983d 4594 81bd 7c54 cebd 8222 923c
000002d0: 3a14 323d 052a 2f3d be6d 3e3d 08db 433d
000002e0: ddbb 403d c1bf 1d3d bb0b 8a3d 2db4 51bd
000002f0: c2c8 9abd 44f5 41bd 0105 5b3c 94de 20bd
00000300: d535 45bd 368c b73d dc2d 913c dd67 f3bc
00000310: 4e04 a0bd 48d9 a9bd 104f 8f3d 75a2 cdbc
00000320: 8706 503d 40db 9e3d 82cd 28bc 5586 4a3d
00000330: 27ed 1abd 8e7d 883d 722d 933d 62f3 8fbd
00000340: 2815 ab3d 8fd9 60bd d5ee 193d 1954 a5bd
00000350: 0c10 76bd b94c 4e3d 9e17 f23c ce04 afbc
00000360: 8201 0f3d 9448 68bd 62a7 24bd 4420 a3bd
00000370: 3e44 9d3d 54fb 5bbd 5a50 823c 0e94 94bd
00000380: 6c08 85bd d7a9 c73d 5534 e13d 134d 48bc
00000390: fbcf a739 9b2d e33b dc30 a0bd 7ea4 b5bc
000003a0: 2c0a fe3c 1f0c 5b3d ec1b 91bc 9510 033d
000003b0: da58 7cbd 138a 403d 6976 403d f2b8 81bc
000003c0: c1fa 8b3d d4de 163d 55c9 793d 01fc 96bd
000003d0: 603e babc a0d6 b63d c155 093e d51e ca3c
000003e0: 3c4c c03a 11fb 9e3d 9b03 053d 8b45 3f3d
000003f0: 72e6 9f39 d494 b8bd 362f 253b 1674 403d
0.024285793 0.05445678 -0.016801331 0.00878435 -0.065982185 0.05892852 -0.030978857 0.09800874
-0.087442435 -0.01857889 0.056578055 -0.054899354 -0.032090947 0.08181055 -0.0047096796 0.08233677
0.07782964 0.005899321 -0.066035256 0.07179303 0.055299554 -0.014791939 -0.014051759 0.016104925
0.066423915 -0.03610477 -0.106364965 0.07902966 -0.04353483 -0.07413153 0.078018144 -0.035741653
-0.06941218 0.015715266 0.051181465 -0.022228325 0.055370934 -0.066631325 0.09124689 0.08254625
-0.022627639 0.06678352 -0.021893032 -0.003425798 0.044580262 -0.019485472 0.039790306 0.12330712
-0.06116549 -0.027584998 -0.0549911 -0.017670996 -0.024160493 -0.068778366 -0.06887425 0.018582547
0.053880263 -0.07430538 0.08003093 0.01857176 0.08635008 0.061107367 0.04249366 -0.07070953
-0.06889575 0.07292199 0.020030778 -0.036741585 -0.008888257 -0.004833812 0.036594175 0.040361524
0.06570503 -0.041955393 -0.03838521 -0.027722046 0.058838367 0.07989898 0.087620325 -0.05333888
0.04717287 0.031142466 0.040560976 -0.05588839 0.03327188 -0.011995845 0.054658435 -0.07722641
0.07635245 0.08035223 0.0594519 0.11161744 -0.007992425 -0.024445111 0.0827595 -0.07553911
0.036812067 0.09916026 -0.0061299424 0.120387115 0.030481592 -0.059245307 -0.040129747 0.07008222
-0.04360929 -0.023037037 0.029764978 0.11506817 -0.00092694943 0.09956194 -0.0005152317 0.09103802
-0.0742827 -0.07364028 0.010392012 0.09547323 0.12661426 0.046349466 -0.041822802 0.07071838
0.0013905009 0.083914906 -0.039955672 0.061801825 0.04602496 0.04324902 0.041375075 -0.062148664
0.07326863 -0.051380247 0.051205 -0.032939784 -0.027042937 -0.06657493 0.16205154 0.0045518083
-0.0008050808 0.0018826111 -0.043150246 0.06482142 0.041222803 0.096889116 0.10935566 0.041301478
-0.08599353 0.06480256 -0.07897678 -0.07398561 0.06270604 -0.01828312 0.048368268 -0.051965047
-0.07903078 -0.0091323005 0.05020681 -0.04522992 -0.068756595 0.0010478067 -0.0977633 0.067852676
0.007782531 -0.08291956 0.015455786 -0.0851941 -0.03363804 -0.046773583 -0.04667401 0.052921955
0.14397502 -0.01736267 -0.04322394 -0.080795445 -0.04688173 0.07772466 0.007627796 -0.03285462
0.07469424 -0.06327108 -0.10074708 0.01783872 0.04347632 0.042764682 0.046491377 0.047816306
0.04705416 0.03851295 0.06740519 -0.05119722 -0.07557823 -0.047353044 0.013367892 -0.039274767
-0.04814704 0.0896229 0.017722063 -0.029712612 -0.07813321 -0.08293396 0.06997502 -0.02510188
0.050787475 0.07756662 -0.010302903 0.049444515 -0.037823822 0.06664573 0.071864024 -0.070288435
0.083536446 -0.05489498 0.037581284 -0.08072681 -0.060073897 0.050366137 0.029552277 -0.021364596
0.034913547 -0.05670984 -0.04019869 -0.079651386 0.07679032 -0.053706482 0.015907455 -0.07254802
-0.06495747 0.09749191 0.1099631 -0.012225407 0.0003200768 0.006932927 -0.07821819 -0.022173163
0.03101071 0.053478356 -0.01771351 0.031998236 -0.061608173 0.047006678 0.046987925 -0.01583526
0.06834937 0.0368336 0.06098302 -0.07372285 -0.02273482 0.08927655 0.13411619 0.024672905
0.0014671157 0.07762731 0.03247414 0.04669718 0.00030498538 -0.09012762 0.0025205142 0.04698571

fc2.bias f4 [64]
00000000: 7762 2fbd 2dea e73c af48 03bc cd06 033e
00000010: 083a ed3d 6c0e e3bc 4efb 81bc 958b 42bd
00000020: fb88 953d f3c8 31bd 3c06 97bd d2f2 58bd
00000030: 9eae 273d c08f 76bd bc06 fc3b 77f1 c23c
00000040: 2f46 5fbe 7ca5 b1bd 7c01 19bc 6cb6 093e
00000050: ed10 aebd f6af 35bd 530c 7e3d f43c f13d
00000060: 42c6 38bd d50a 223e ecee 7abd 5888 95bd
00000070: 0257 333d 86cf c83d 6732 b8bd de05 a53d
00000080: d4d4 343e d4b2 033e 7e6b 833c 6da6 78bc
00000090: 71a6 383d f16d db3d 5301 203d 7096 953d
000000a0: 29ca e0bd b1af 4d3e 5de9 a7bd 9db5 bd3c
000000b0: 267a 993d cdfa b4bc 1773 603e 2297 d7bd
000000c0: 602d b5bd d8c8 b63d eb33 4d3d eb6e 26bc
000000d0: 8ee3 1d3e 220e 4b3d 44c1 97bd dda2 a5bd
000000e0: 8924 193d 982d bdbd b75f a93d 6491 a8bd
000000f0: c81b 7abc 4986 37bd 4d9c 423c 6952 48bd
-0.042818513 0.028309906 -0.008012935 0.12795563 0.11583334 -0.027716838 -0.015866902 -0.047496397
0.073015176 -0.04340453 -0.07374236 -0.052965946 0.040938012 -0.060195684 0.0076912325 0.02379678
-0.21804117 -0.08674142 -0.009338733 0.13448495 -0.08499322 -0.044357263 0.062023472 0.11779204
-0.04511095 0.15824445 -0.06126301 -0.07301396 0.04378415 0.09805207 -0.089939885 0.0805776
0.17659312 0.12861186 0.016042467 -0.015176398 0.045080606 0.10714329 0.039063763 0.07304084
-0.10976059 0.20086552 -0.081988074 0.023157889 0.07494001 -0.022092247 0.21918903 -0.10526873
-0.08846545 0.08925027 0.05009834 -0.010158281 0.15418836 0.049574025 -0.07409909 -0.08087704
0.03738836 -0.09237212 0.08270209 -0.08230856 -0.015265413 -0.0448058 0.011878085 -0.048906717

fc3.weight f4 [32, 64]
00000000: 63d3 bd3d a379 293e cbb2 bfbd ffd4 ed3c
00000010: 9197 913e 61fd 083d a2ed 2f3e 020b 8ebc
00000020: b2e4 833e cb02 08be 28ca 7c3e d70a f23c
00000030: eec6 313d fc8c 05be 9a33 d23d b4d6 683e
00000040: 2a9c bebc b78b 38be 1755 c6bd de9b d8bd
00000050: 6ccc 0fbe 39f5 643d 8b08 ca3d e0c3 58be
00000060: b511 59bd 9ae3 01bd 1824 13bc 9cc6 d8bb
00000070: f18f d6bd 7041 cc3d 56a6 0abe 0e1c 1abe
00000080: a450 353d 0dd5 6dbd 7eaf 1b3c 38a9 1ebe
00000090: ab40 833d f8ee e73e 6f5a 03be 65c4 ce3d
000000a0: f2bb 293d 0304 363e 3fb5 2d3c 857a 733c
000000b0: 5a13 253e 75dd 353d 6062 373e d741 bfbd
000000c0: acc7 00be 7f4f 023e d7fa 37bd e396 1d3c
000000d0: 4699 a73e 48ce 443e 1482 bf3d 454a f83d
000000e0: e63a 193c cade b93d 5e4b dfbc 0928 253e
000000f0: af42 813c af3a 973d 012e 2fbd d618 39be
00000100: cbdf 143e d4cd c43d bb6d e23a 1ee7 4ebd
00000110: 249a a83d fc2d f5bd f7c1 993d fff0 b53d
00000120: bc76 0dbe cd7b eabd 498f e63d f625 20bd
00000130: 85df 9a3d 56e9 d1bd d35f 183d 7579 143e
00000140: 3eaf 753a ddd2 5b3d 680c fd3c 4403 513d
00000150: 95b7 4ebc d136 d13d cf1b 893d fadf 01bd
00000160: fb25 e93d ac2e f73d 05b5 c43d 37ec aabd
00000170: e8d7 bdbd f025 343d 708d 62bd 13a4 26bc
00000180: a456 72bd 489f d8bd a85f 83bd da8c fabd
00000190: 6f90 2e3d 8748 513e 24cd ccbc cf1a 7fbc
000001a0: bafd fa3d e222 dbbc 6b1a 71bd 2b6d e73c
000001b0: ba14 933c 8191 f33c 9904 4bbd d76e 693c
000001c0: 3820 703d d529 233e 2566 10be ebbf d13d
000001d0: 0cf1 363e 3d69 9f3d d152 eebc 9ecf 713d
000001e0: da7a bfbd 505f 333d cd42 cf3d 6c83 293e
000001f0: a359 5c3d 6ef0 a4bc d2e7 d43d 7b35 0d3e
00000200: 2dc7 08be 0e32 efbd 0da3 00be f7ca f93d
00000210: fcad 47be f254 a43d d474 593e 2b89 7f3c
00000220: 5a2c 293d 0289 733e c547 f23d a0d7 9a3c
00000230: 0d48 c8bd 3be4 983e 357f 0fbe ae21 10be
00000240: c490 c23c ffb4 683d 4816 19bd 3c79 bb3d
00000250: 1b53 b93d da48 43bd fd25 06bd ca65 ba3e
00000260: fcc0 c53d e314 183e 3194 a7bb e009 e63d
00000270: 7b28 093e 0f72 fdbd 5265 f73d ac54 b73d
00000280: af41 21be 6d7e 443e d0bc 8fbd f912 833e
00000290: 2bd6 f7bd 7fe4 acbd 1107 e43d 8cdd dcbd
000002a0: 8f13 8a3d b5dc 24be c072 a83d 3612 e63d
000002b0: 6cf6 7cbd b89b d93d be62 ecbd b61f 1fbe
000002c0: aed5 3fbd 8007 1a3e c92b ca3c 7e1c febd
000002d0: 0b21 743d 91cc 513e b5e3 42bd c193 aabd
000002e0: 72da 8d3e dd7b 0fbe 353b 00be 087a 1a3b
000002f0: aaca eebc d8dc 7bbd b0c8 15be b32d 673e
00000300: c0ac f63d fa33 40be 35bc b8bd 1cc8 95bd
00000310: 148f 753d 62a4 1f3e 9b41 493d 56f7 c4bd
00000320: dc81 84bd 5550 b7bc b0e3 5cbd a39b 09bd
00000330: 1a65 0b3e 9f4c f93d f6fc 4abd ad79 ffbc
00000340: 245c a4be 9463 90bb 1752 e5bd 9b27 413e
00000350: 0dcc 4cbd 0e7b dd3d ae73 813d 09fc 403e
00000360: aaee 98bd 821f 743e 3766 ecbd d06a 9bbd
00000370: fe0c 173e cbf5 693d 8acd 0b3d fd4f 1d3e
00000380: 6b98 f83d f1df 9a3e e3d7 023e c3c5 373c
00000390: e1a0 e33d 8225 1fbd e7ec 203e 460c c1bd
000003a0: d0cd b7bd f523 b23d e273 a93d 5ccc 4d3d
000003b0: 5681 1c3e 7ff5 54be 879b 9a3e f70c 47be
000003c0: 0c6e 943d 6b8e 883e a726 8c3d ba5d 70bd
000003d0: 9410 893e 1279 ccbc c3ec 80bd d76e cabd
000003e0: 23c9 f4bd 848c fabd 1fbb c5bd cded 6abe
000003f0: 8526 bfbd 2b4e 6a3d bd55 26bc 58f2 d33c
0.092688344 0.16550307 -0.09360274 0.029032229 0.28435948 0.033444766 0.17180493 -0.017339233
0.25760418 -0.13282315 0.24686491 0.029546184 0.043402605 -0.13042063 0.102637485 0.22738153
-0.023267824 -0.18022047 -0.09684198 -0.10576604 -0.14042825 0.055897925 0.09864911 -0.2116847
-0.052995402 -0.0317112 -0.008980773 -0.006615473 -0.104766734 0.09973419 -0.13540015 -0.15049765
0.044266358 -0.05806451 0.00950229 -0.1549424 0.06408819 0.45299506 -0.12827466 0.10096053
0.041439004 0.17774968 0.0106022945 0.014860754 0.16120663 0.04440065 0.17908621 -0.0933873
-0.12576169 0.12725638 -0.044916954 0.009618494 0.32734126 0.19219315 0.09350982 0.12123541
0.009352421 0.09075697 -0.027257618 0.16128553 0.015778868 0.0738424 -0.042768482 -0.1807588
0.14538495 0.09609571 0.0017275134 -0.05051338 0.08232525 -0.119716614 0.07507699 0.08883857
-0.13814825 -0.114493944 0.11257798 -0.039098702 0.07562164 -0.102495834 0.03720076 0.14499457
0.00093721214 0.05366789 0.030889705 0.051028505 -0.012617012 0.102155335 0.06694757 -0.03170774
0.11384197 0.12069449 0.09604839 -0.08345836 -0.092696965 0.043981493 -0.055310667 -0.010170954
-0.05916466 -0.105772555 -0.06414729 -0.122338966 0.04261821 0.20437823 -0.025000162 -0.0155703565
0.12255426 -0.026750032 -0.058863085 0.028250298 0.01795422 0.029732468 -0.04956493 0.014247618
0.058624476 0.15933926 -0.14101465 0.102416836 0.1786539 0.077837445 -0.029092224 0.05903589
-0.09349604 0.04379207 0.10120163 0.1655404 0.05379642 -0.020134177 0.10395779 0.13789932
-0.1335723 -0.11679469 -0.12562199 0.121969156 -0.19499964 0.080240145 0.21235973 0.015596668
0.041302063 0.23782733 0.11830095 0.018901646 -0.097793676 0.29861626 -0.1401337 -0.14075348
0.02375067 0.056813236 -0.037374765 0.09153983 0.09049054 -0.0476769 -0.032751072 0.36405784
0.096559495 0.14851718 -0.0051141013 0.11232352 0.13394348 -0.123752706 0.12079872 0.08951697
-0.15747713 0.19188853 -0.07018435 0.25600412 -0.12101396 -0.0844202 0.1113416 -0.10784444
0.06742012 -0.16099818 0.08225012 0.11233942 -0.061758444 0.10625404 -0.11542271 -0.1553944
-0.04683464 0.15041924 0.024679082 -0.12407778 0.059601825 0.20488192 -0.04758044 -0.08328963
0.27705723 -0.14012094 -0.12522586 0.0023571271 -0.029149372 -0.06148991 -0.14627337 0.22576027
0.12044668 -0.18769827 -0.09020273 -0.073135585 0.059950903 0.15590051 0.049134832 -0.09617488
-0.06470081 -0.022377172 -0.053928077 -0.033595692 0.13612786 0.121728174 -0.04955765 -0.03118595
-0.32101548 -0.004406402 -0.11197298 0.18862765 -0.049999285 0.108144864 0.06320892 0.18846144
-0.074673966 0.23840144 -0.115429334 -0.07588732 0.1475105 0.057119172 0.034131564 0.15362544
0.121384464 0.3024898 0.12777667 0.011216584 0.111146696 -0.03885413 0.15715371 -0.09426169
-0.089748025 0.086982645 0.08274056 0.05024372 0.15283713 -0.20796774 0.30196783 -0.1943854
0.07247552 0.26671156 0.0684331 -0.058683135 0.2677046 -0.024960075 -0.06295159 -0.09884422
-0.11952426 -0.122338325 -0.09654831 -0.22942276 -0.09333519 0.057203453 -0.010152278 0.025872394

fc3.bias f4 [32]
00000000: 57b4 e03e 3ed3 80be 82b0 713d d16b a23e
00000010: ae7a 973e 7467 b53d dc1d 0abc 8e6e 0dbd
00000020: ad40 8e3c a821 53bc 4588 a33d 53f2 703e
00000030: 6584 96bd 9edc f13d fabb 183e 8ab2 16be
00000040: c070 07be 03cc 16be 5895 183d 5bed 52be
00000050: 54de b8bc 000b 0abd 88e8 023e 4b1a 143e
00000060: 9521 883a 2e9c 01be fe3d 0f3b da7c cdbd
00000070: 66a9 88bd 3cb9 97bd a6e3 1ebe e508 a1bd
0.43887588 -0.25161165 0.05900622 0.31722882 0.29585785 0.08857623 -0.008429971 -0.03452926
0.017364824 -0.012886442 0.07984976 0.2352994 -0.07349471 0.118096575 0.14915457 -0.14716545
-0.13226604 -0.14726262 0.0372518 -0.20598356 -0.022566952 -0.033701897 0.12784016 0.14463155
0.0010385985 -0.12657234 0.0021857019 -0.10033579 -0.06672935 -0.074083775 -0.15516528 -0.078630246

fc4.weight f4 [10, 32]
00000000: a0e3 72be 49ba 13be 838e bd3e f698 913e
00000010: a197 873e 7c74 b83e 892d 96bd b82e 5f3e
00000020: cbc0 5a3e bebd 373d 2443 36be b310 9b3d
00000030: 7068 afbd 1f24 6b3e 1290 28be 63e8 443e
00000040: 2a86 3fbe a997 58be 87be 9d3e 32a2 333e
00000050: 3da6 69be 9295 64bd 8f59 1d3e 3fef 1fbd
00000060: 20de 3fbe edfa 05be 5bd8 75be a2d8 0c3e
00000070: e77f 283e bb10 c5bd 6288 36be e475 53bd
00000080: 0557 debe cdb4 81be 3929 abbd 3270 39bd
00000090: b1a5 e0be 3837 073d a2ac d93e 9e8e b43e
000000a0: 526c b03e 17ae 50bd f956 94be 93c7 393e
000000b0: 7a74 673d 5698 003e 4cf1 bebd 0c19 003e
000000c0: 9f06 7d3e 8412 0dbd 0833 033e 1de5 77bd
000000d0: b8b5 c33d 68d1 3c3d f805 0b3f 1c56 00bf
000000e0: 6ef2 a83e ecf9 2c3e e16c 5d3e 6089 41bd
000000f0: fbc0 ae3d 802a a9bd 1de4 7abd df04 f13c
00000100: 5a27 e6be 044a 6cbe fedc 983e 2b80 d2bd
00000110: aeac 3ebd d768 473e b8d1 17be 054a 61bd
00000120: 9fc0 9cbe 206e 013e 3215 2abc f793 de3c
00000130: 13b2 0dbe 0b1f fd3d 9704 aabe 52a7 2f3e
00000140: aa79 433e 4998 423c c5a1 db3e 742b 8d3e
00000150: 2240 723c a826 4c3d 3c32 1bbf 0c81 c6bd
00000160: 18c7 553e 0837 46bd fa3f b93e 0d9a 2bbe
00000170: 2d3f d73d 299f dcbd 1cec 15be 9e26 a3be
00000180: 69ff 8a3d 583b 913d b020 cb3d b7c3 b13e
00000190: b761 63be a874 eabd cbf1 8abe 358b 503e
000001a0: 80c5 8c3e b171 08be 5fcb a73e 178e b43e
000001b0: 17ef f1bc f7f1 8ebd 8223 bbbe 29f9 433e
000001c0: c8b0 253e 8038 0bbe 026d 34be 6b40 45bd
000001d0: 8fe6 3abe 11c3 d8bd f9fe 993e 5228 63be
000001e0: 1588 cf3c 2f24 a13d cf26 923d 37e8 213d
000001f0: b790 293e b42c 14be bcd2 2d3e 4f73 b03c
00000200: e13f 42bd d49e 3e3e 65a7 e8bb ae2e 82be
00000210: c79c c6be 32c7 a3be 388b 213c 20d0 11be
00000220: bb15 d03d 355a df3d a279 37be 8942 4e3d
00000230: 3f79 89bd 7c7c 383e 9f0e 36be 77a1 983e
00000240: 83bf ee3d 6bfa 9e3d 4cd2 fa3d 7110 a13e
00000250: b762 a03c 48c5 563d 20fe 6dbe 531e 66bc
00000260: 841e a03e c098 cc3d 6096 d43e ba02 213e
00000270: d3b4 ad3c d69a de3d b59d 773e 2424 27be
00000280: 93b3 033f a2e4 2fbe 0e8c 5fbe 9534 a43e
00000290: 7584 043f 2dad 2d3d 387c 2a3e 6a48 ac3d
000002a0: 449d 6ebe afef ecbd cf19 353e 5540 ad3e
000002b0: b5e2 293e 0286 8d3d 3e75 793e d375 b9be
000002c0: d6f1 0abe 5e4a 303e 5dda 1ebe 2b2f dabe
000002d0: 9a33 2ebd f966 25be 6f3b c53d d912 413d
000002e0: a73a 06be 76cb 123e 3bb3 3bbe b880 4cbd
000002f0: 3da9 91bb ce50 cd3d 82ac 97be e801 453d
00000300: b935 33be 8179 56be 481d aa3e fc4c 583e
00000310: 7d06 483e 1799 8b3d 71b1 20bd f374 1bbe
00000320: d3c7 95bc e0d6 0abe 636a 63bd c56c a0bd
00000330: fa9b 39be 9b8c 883e e5ea 10be 86c9 ef3a
00000340: 5921 12be 81f1 a7bd 20f7 313e 28d1 4f3e
00000350: 2f55 583d 787d c3bd 19b8 4b3c aba8 883d
00000360: 089d 093e 7543 133e b777 713e 8042 07be
00000370: c184 fbbc 9065 a0bc b3f7 b0bd e52a bfbd
00000380: 7961 2e3f 1b3c 063e 5f65 45bf 9e10 e2be
00000390: 1969 acbd 4fc2 a7bd 1848 943d cb67 263e
000003a0: 00d1 7cbe 9ab2 0c3e a314 543c dafa b6be
000003b0: 13f7 a03d 7e4f 4cbc 03e8 ec3e 1508 7abe
000003c0: f3a6 0cbe 2cd5 323e 196f 8cbd dfd9 89be
000003d0: 0a2c 2e3e dc09 1a3d 6865 3abe 0f85 2a3e
000003e0: 172d c5be a1be bfbc 71c0 e1be ad29 17be
000003f0: b2ac 44bc 2ec5 ce3d 935f c23e 8b4e db3d
-0.23719645 -0.14426531 0.3702279 0.28437012 0.2648287 0.3602637 -0.07332904 0.21795166
0.21362607 0.044858687 -0.1779905 0.075715445 -0.08564842 0.22962998 -0.16461208 0.19229273
-0.18703523 -0.21151604 0.30809423 0.17542341 -0.22817321 -0.055806704 0.15366195 -0.039046522
-0.18737078 -0.13084002 -0.24008314 0.13754514 0.16455041 -0.09622332 -0.17825463 -0.0516261
-0.43425766 -0.25333253 -0.08357472 -0.045273013 -0.43876413 0.033011645 0.4251452 0.35265058
0.34457642 -0.050947275 -0.28972605 0.18142538 0.056507565 0.12558112 -0.093233675 0.12509555
0.24709557 -0.034441486 0.12812436 -0.060521234 0.095561445 0.046098143 0.5430598 -0.5013139
0.3299746 0.16892213 0.21623565 -0.04725015 0.08532902 -0.08260059 -0.061252702 0.029421268
-0.44951898 -0.2307511 0.29856104 -0.10278352 -0.0465514 0.19473587 -0.14826095 -0.05500223
-0.30615708 0.12639666 -0.01038103 0.027170165 -0.13837461 0.123594366 -0.33206627 0.17153671
0.1908938 0.011877128 0.42896858 0.27572215 0.014785798 0.049841553 -0.60623527 -0.096925825
0.2087673 -0.048392326 0.36181623 -0.16757984 0.10510097 -0.10772545 -0.1464085 -0.318654
0.06786997 0.07091397 0.09918344 0.3471963 -0.22205244 -0.11448032 -0.27137598 0.20365603
0.2749443 -0.1332462 0.32772347 0.35264656 -0.029532952 -0.06979745 -0.36550528 0.19138016
0.16180718 -0.13595772 -0.17619708 -0.048157137 -0.18252014 -0.10584081 0.3007734 -0.2218335
0.025333444 0.078682296 0.071363084 0.039528098 0.1655911 -0.14470178 0.1697492 0.021539358
-0.0474242 0.18615276 -0.007100033 -0.2542624 -0.38791487 -0.3198791 0.0098598525 -0.1423955
0.10160395 0.109058775 -0.17917493 0.05035642 -0.06712579 0.18016237 -0.17779015 0.29810688
0.11657622 0.07762607 0.12247142 0.31457856 0.01957832 0.052434236 -0.23241472 -0.014045316
0.31273282 0.09990072 0.41520977 0.15723696 0.021204388 0.10869376 0.24181254 -0.1632238
0.51445884 -0.1717706 -0.2183077 0.32071367 0.51764613 0.04240148 0.16648948 0.084122494
-0.2330218 -0.115691535 0.17685626 0.33838144 0.16590388 0.069103256 0.2436113 -0.36222705
-0.13568816 0.17215869 -0.15512986 -0.4261411 -0.04252968 -0.16152562 0.09630477 0.047137115
-0.13108312 0.14335427 -0.1833009 -0.049927443 -0.0044452236 0.10025178 -0.296238 0.04809752
-0.17500962 -0.20944788 0.33225465 0.21123117 0.19533725 0.06816309 -0.03923172 -0.15181331
-0.01828376 -0.13558531 -0.05552138 -0.07833246 -0.18125907 0.26669773 -0.14152105 0.0018294312
-0.14270534 -0.0820036 0.17379427 0.2029463 0.052815612 -0.09545416 0.012434029 0.06672796
0.13438809 0.14381202 0.23580824 -0.13208961 -0.03070295 -0.019579679 -0.08640995 -0.09334353
0.6811748 0.13108866 -0.77107805 -0.44153303 -0.08418483 -0.08191358 0.07240313 0.16250531
-0.24689102 0.13740006 0.012944373 -0.3573826 0.07859626 -0.012470124 0.4627076 -0.24417146
-0.13735561 0.17464131 -0.06857128 -0.26924035 0.17008987 0.03760706 -0.18202746 0.1665232
-0.38510963 -0.023406329 -0.44092134 -0.14761992 -0.012004064 0.10096203 0.37963542 0.1070834

fc4.bias f4 [10]
00000000: b55a cdbd 6a10 623d 769c cd3d 9b60 10be
00000010: 5c5c 6abe 64e2 263f e977 063e 4254 ff3d
00000020: e069 85be f3d9 87be
-0.100270666 0.055191435 0.10039608 -0.14099352 -0.22886795 0.65189195 0.1313168 0.12467243
-0.2605734 -0.2653347
